Navigator_v2.pt (torch, 60222 bytes, 10 tensors)

0.weight f4 [4, 2, 3, 3]
00000000: 5c6e 4b3c 7e0b 9ebd 5d1e 4a3e dfc5 1abe
00000010: 2f96 db3d 398e f53d ae22 1dbc 0f16 5b3c
00000020: 0208 203e 52d1 c83e 0e15 d6bd b025 7abe
00000030: 0f35 3f3d c748 ebbe f7ec 96bd 7449 7bbe
00000040: 551b a33e b4f7 35be c136 2cbe 9d2a 083e
00000050: 15dd 353e eed3 23be 0e17 1abe db63 653e
00000060: 54fb 453c dc77 d93d c6ba eebb 9848 1c3e
00000070: acc4 203f 1462 c63d d039 25be 42ae 0ebf
00000080: 8e8d a8bd 3079 1fbf f68d aebe 16e3 80be
00000090: 0409 443d af3d a0bd f1d4 59bd 2885 623e
000000a0: 7660 023d 244b 8bba 4ab0 0c3e 2541 14be
000000b0: f8db 08be 5981 403f cabd afbe 10db 9d3e
000000c0: 32d3 103f e921 99bc f328 633e 1ec4 8e3e
000000d0: e45b 90bd 4060 0bbf d3cf 0f3e 26bd 2d3d
000000e0: 418a 07be d135 0ebe 116f 25be c11d ea3d
000000f0: 4a2f 453e 2de1 a2bc 96c9 15bd 77e7 163f
00000100: b036 1a3f 9596 aa3e 5c95 9c3d e457 76be
00000110: 9ee2 c93e 4184 123f 6c9a 7e3e 976b c93e
0.012416448 -0.07717036 0.19738145 -0.15114544 0.107220046 0.119900174 -0.009590788 0.013371958
0.15628055 0.392222 -0.104532346 -0.24428439 0.04668146 -0.45953962 -0.07369416 -0.24539739
0.3185679 -0.17770272 -0.16817762 0.13297506 0.17760117 -0.15998814 -0.15047857 0.22401373
0.012083847 0.106185645 -0.0072854487 0.15262067 0.628001 0.09686676 -0.16135335 -0.55734646
-0.082301244 -0.6229429 -0.34092683 -0.25173253 0.04786016 -0.07824265 -0.053181592 0.22121108
0.031830274 -0.0010627252 0.13739124 -0.14477976 -0.13365161 0.7519737 -0.34324485 0.30831194
0.5657226 -0.018692927 0.2218359 0.27884 -0.07048777 -0.5444374 0.14044122 0.042416714
-0.13236333 -0.13887717 -0.1615565 0.11431456 0.1925632 -0.019882763 -0.0365692 0.5894694
0.60239697 0.3331801 0.076456755 -0.24056965 0.39430708 0.57233053 0.24863595 0.39339897

0.bias f4 [4]
00000000: 521d 1e3c 41b0 c03d 0f03 863c 86f7 403e
0.009650545 0.09408618 0.01635888 0.18844423

1.weight f4 [8, 4, 3, 3]
00000000: 6d51 f83c 8697 2ebd cc88 d63b f810 63bd
00000010: 22ed f3bd 0fa1 a73c a052 253e a838 bcbd
00000020: fd3f 263c 068e 0e3d 9780 c9bd 76d4 903d
00000030: 9de2 d4bd 974e 2d3e 4e0c 34bd 3117 9c3e
00000040: bd04 d7bd 3000 533c 5d16 77bd dbd3 48be
00000050: ac39 7cbe af50 abbd a4c9 363d a73c 9cbd
00000060: 242a 2e3e d449 fe3d c85b 4cbe 3d96 93bd
00000070: cba3 9abe 631b 23be fc26 37be e977 e7bd
00000080: ac3c 85be 3f7c 57be 3843 92be 824b b6bd
00000090: acce 833e 29c9 be3b b520 4dbd e626 03be
000000a0: d3b9 1abd 7777 2a3a 4774 eabd d0f0 a63d
000000b0: 0570 66be c6d1 263e 2cfe 0a3e 8971 823e
000000c0: 6427 09be e742 173c 2bef 36be 8000 933d
000000d0: 54ae 28be 327a d7bd b45e 9f3d d952 723e
000000e0: 5211 83be 87cd 8bbe a0ce 14be de22 afbd
000000f0: aa29 60be 472c 383e 9081 e53d 421d c8bd
00000100: 880a 843e 6d80 86bd 8ef9 c7be 57e1 0fbe
00000110: 674e d2bd 98b0 503e 5e36 693e 0d51 62bc
00000120: 7277 353e e03c 2ebe 29fe 92bd f8fa 5abe
00000130: e485 14be 6ced 473e 42d6 3d3c 86ce 59be
00000140: 12d1 c63d 1f44 3a3c f6d0 bf3d 0bc0 0f3e
00000150: a1b3 34be 3454 843d 673d 313e 1ca8 a9be
00000160: fa1d e5bd 8994 febd 666e 843e b11e 22be
00000170: c0e4 ec3e ed1c 05bd 400a 6dbe 4acc e2bd
00000180: c5e5 053e 8a3b 9cbd 8593 e73d 56e8 403e
00000190: 08c6 d9bc 3615 9c3d 2b0d 623e 4f76 3f3e
000001a0: f7e7 303e d5ff 133e 4cf6 a4bd 41ed c8bd
000001b0: 8c19 8dbd 7620 f13d b86b 1cbe 27ee df3d
000001c0: 2513 32bd 14eb 783d 03e4 073e 62b2 41be
000001d0: c181 6fbd 5d5a 4abe bb09 36be 010c 01be
000001e0: 8c87 0f3d 0b13 2abe 8e25 81be c0ea a1bd
000001f0: cb16 6ebe b74b 82bd 0a5c f43d 4c26 49be
00000200: 000b 93bc b572 3ebe f7d2 6fbc 6b84 e4bc
00000210: ccfe e33d 4b06 be3d d622 ac3e 85ba 4bbe
00000220: a210 08be 19db 863e cec0 023d e01f 9b3d
00000230: 1e2f f43c 1602 9dbc d64a a93d 9dc8 953d
00000240: 503c 753d eb95 0fbe 56f0 94bc 6063 5abd
00000250: 86b8 55bd dcf5 88bd fb2f 103e ed97 3fbc
00000260: 78f7 ee3d 9464 36be ad9c 3dbe 944d 5d3c
00000270: 6041 97bd eaf6 3f3c 070b 3fbd dd99 0cbe
00000280: 6caf 7e3e a12d 703e e033 0abd 12b7 02bf
00000290: 928b 823d 20b4 773e 0674 53be 84ec b33e
000002a0: 59bf 283e 604e 303e c404 473e d4f5 1c3e
000002b0: 1c05 f8bd 7055 bb3e 28ec c93c d0c5 123c
000002c0: 24f4 ccbc c54c 47be 7170 a6bd 1a00 ad3e
000002d0: 5a9d afbd ba88 723d 00b2 283e e54b 043e
000002e0: b9be 8e3d 49b6 fb3d 83c2 fd3d e84c 1ebe
000002f0: e843 383e bb23 80bd ee76 d23d 69e8 a4bc
00000300: 5c39 8f3e 78de 36bd 9eb7 3abe 4f7c 023e
00000310: 8361 163d b056 063e d0ce 3fbd f449 51be
00000320: b136 f6bd f80d debd 5780 57be 5771 753e
00000330: ea50 79be 806b afbe 09d6 87bd 8aeb babd
00000340: 366b 92bd 201b 6cbe 34d6 d2bc df4b a2be
00000350: 4843 cebc 32a5 593d 0d2f f1bd ab3a cabc
00000360: fffc a6bd 084d 7bbd a2fe 1cbe 603a e1bd
00000370: c51d cfbb d6f9 493d b9de 7abe fc99 12be
00000380: d858 5cbe 624a f3bd 2eb2 4fbd fce2 173e
00000390: 6b6b 24be 2f0c 893d eeb3 ab3c 8cd9 3fbd
000003a0: 6c17 51bd 8ae4 d7bd 93ef 463e 0293 f43d
000003b0: 428b 8fbe 3410 c73c 08e9 9abe 13e8 203e
000003c0: 2f7f 9b3d 4d3c 82bd 0c77 2cbe c537 603e
000003d0: 25fc 2dbe c77c 203e 4c6b 98bd e510 75bd
000003e0: 7890 a93d 0afb 983e 3c51 d9bd 2557 24be
000003f0: faea 9c3d d649 ac3d 8402 633e 2634 1ebe
0.030312264 -0.042624973 0.006547069 -0.055436105 -0.11910464 0.02046254 0.161448 -0.09190494
0.010147092 0.034803413 -0.0983898 0.07071774 -0.103947856 0.16924511 -0.043957047 0.30486444
-0.10498951 0.012878463 -0.06032406 -0.19612066 -0.24631375 -0.083649985 0.044625893 -0.07628756
0.17008263 0.12416425 -0.19956887 -0.0720639 -0.3020309 -0.15928416 -0.17885965 -0.11302168
-0.2602285 -0.2104349 -0.2856691 -0.08901121 0.25743616 0.00582232 -0.05008002 -0.12807807
-0.037774872 0.0006502787 -0.114479594 0.081514 -0.2250367 0.1629096 0.13573521 0.25477245
-0.13393933 0.009232259 -0.17864673 0.0717783 -0.16472751 -0.10521354 0.07781735 0.23664416
-0.25599152 -0.27305242 -0.14531946 -0.08551572 -0.21890894 0.1798564 0.11206353 -0.097712055
0.25789285 -0.06567464 -0.39057583 -0.14050804 -0.1026886 0.20379865 0.22774646 -0.013813269
0.17721346 -0.1701541 -0.071773835 -0.213848 -0.145042 0.19524163 0.011586728 -0.21270189
0.09707846 0.01136878 0.09366028 0.14038102 -0.17646648 0.06461373 0.1730858 -0.3313607
-0.11187358 -0.124306746 0.25865477 -0.1583202 0.46268272 -0.03249829 -0.23148441 -0.11074121
0.13075931 -0.07628544 0.11307434 0.18838629 -0.026583686 0.07621233 0.22075336 0.18697475
0.17275988 0.14453061 -0.0805479 -0.098108776 -0.06889638 0.117737696 -0.15275466 0.10934096
-0.04347529 0.060771063 0.13270573 -0.18915704 -0.058473352 -0.19761033 -0.1777715 -0.12602235
0.035041377 -0.16608827 -0.25223964 -0.07906103 -0.23250882 -0.06362098 0.119316176 -0.19643515
-0.017949581 -0.18598445 -0.0146377 -0.027895173 0.11132583 0.09278544 0.33620328 -0.1989537
-0.13287595 0.26339033 0.031922154 0.07574439 0.029807623 -0.019166034 0.08266227 0.073136546
0.05987197 -0.14022033 -0.018181007 -0.053317428 -0.05217793 -0.06687519 0.14080803 -0.011693937
0.11668295 -0.17811805 -0.18516798 0.013507266 -0.07385516 0.011716584 -0.046641376 -0.13730569
0.24871606 0.23454906 -0.033740878 -0.51060593 0.06374277 0.24189806 -0.20649728 0.35141385
0.16479243 0.17217398 0.19435412 0.15328151 -0.121103495 0.3658862 0.02464874 0.008958295
-0.02501876 -0.19462879 -0.08126915 0.3378914 -0.08574934 0.059212424 0.16474152 0.12919576
0.06969971 0.122906275 0.12390616 -0.15459025 0.17994654 -0.06256815 0.1027659 -0.020130353
0.2797345 -0.044645756 -0.18234107 0.12742732 0.03671409 0.13119006 -0.04682809 -0.20438367
-0.1202215 -0.10842508 -0.21045052 0.23969017 -0.24347273 -0.34261703 -0.06632621 -0.09126957
-0.07149355 -0.23057222 -0.025736906 -0.3169851 -0.025178567 0.05313606 -0.11776552 -0.024686178
-0.08153724 -0.06135276 -0.1533151 -0.10997462 -0.0063206875 0.049310528 -0.24499024 -0.14316553
-0.21518266 -0.11879422 -0.050707035 0.14832681 -0.16056602 0.06691777 0.02095982 -0.04683833
-0.051047727 -0.10541637 0.19427328 0.11942102 -0.28035933 0.024299718 -0.30255914 0.1571353
0.07592618 -0.06359158 -0.16842288 0.21896274 -0.16990717 0.15672599 -0.0744234 -0.059830565
0.08279508 0.29879028 -0.10611197 -0.16048868 0.07662006 0.084125206 0.22168928 -0.1544958

1.bias f4 [8]
00000000: f02f 52b8 6195 033e 606c 1e3e eb14 2ebe
00000010: 204d a5bd 1d34 453d 24fc 773c 6854 283e
-5.0112547e-05 0.12849952 0.1547103 -0.17000167 -0.08071351 0.048145402 0.015135799 0.16438448

2.weight f4 [16, 8, 3, 3]
00000000: c282 b73d 5e67 a4bc 1004 ae3d f7d9 543e
00000010: de0b a9bd 2df4 1f3d 932c 913e 5acb 8d3c
00000020: 9667 1fbe 8756 633d 8f14 4cbd 4bed cf3e
00000030: 67b0 0ebe 9f62 853d a518 a1bd b43d 153e
00000040: b35e 153e 7657 833e 9ee3 d1bc 18c5 d3bc
00000050: 623b abbd b309 8d3e 7be0 0abd f38f 193c
00000060: 98c5 1cbe f7d1 94bd b64e 63be 5b2b 8fbd
00000070: dced b33d bbff cabc 56ae 07be 7ee9 723c
00000080: f4b6 cf3b 0495 abbd 3f32 323e d2fb 1b3d
00000090: 4a88 063e 9976 8dbc 6a68 01be 1478 02be
000000a0: f48a 013e e72e 70bd e241 323e dd81 223e
000000b0: a59b 30be e3db 443d ec5b 66bd 7a6b df3d
000000c0: a67c aabd 2efa a13c 076c b53c 061c 1c3d
000000d0: 1a63 b03e 2e52 1fbe 4d5a 4a3d cf8e 813d
000000e0: b4af 04be 2a08 13bb c720 3b3d a0ad 22be
000000f0: e94e 9c3d 29cd 0fbe 5d74 33be cae4 f73d
00000100: 5ae3 1d3e 697c 4dbd 1831 a2bd eb26 ed3d
00000110: cf05 e33d 78e6 543d ea87 cf3d f033 e4bd
00000120: ac0b ea3c 662b 7ebd 4b88 72bd 9fd9 99bd
00000130: 54d5 7cbe c42d 823c 7dfe 98be e324 4ebd
00000140: eb51 f4bd c70e bf3d c5b0 7ebd c254 1dbd
00000150: 6a3b 2b3c 774d 85be a3bc 5c3d 929a 7cbd
00000160: de43 a2bd c49c a5bd f2a4 ba3d 9c44 973d
00000170: c4e1 ec3c fe33 b8bd 42cd 723e 5e48 6e3d
00000180: 0d5f 383e 438c 6bbb 20fa 013e 9660 7abd
00000190: c63b 60bd 5858 abbc c067 04be ffad 93bc
000001a0: fbae 16be d77b 883d c848 cdbd b02e b0bd
000001b0: 76a2 28be 9003 8b3e d37c acbd 4b8c a33c
000001c0: c3cd 263d 406e 18be d9fc 3f3d 01ef 5c3c
000001d0: c332 093d 7280 423d 2567 293e 4cee 883d
000001e0: 78a8 233d 84ef 073d 18fd 0c3e 3316 c0bd
000001f0: facd fabd febd ad3d 023e 48be 1a93 e13d
00000200: f86a dcbd cecd 883d a908 50be 7a45 ff3c
00000210: 03ce b3bd 8859 933d 42a2 e53d ad08 c4bd
00000220: 4a98 2b3e 8ad1 993d ab89 d4bd fb37 cb3c
00000230: f181 4cbd 1d5f b2bb 222c 90bd 0f94 1d3d
00000240: 24b7 57be a8ab a3bc 12fd 1fbe 6d49 01be
00000250: 8e43 b9bd 5116 97bd 59d9 8f3c e23b 823d
00000260: ccf6 08be 4e53 bcbd acce 40be 3e28 dfbd
00000270: 4e8a afbd 28a6 b83d a93a 1a3e f60b 403d
00000280: 1bcd 283e 2955 d23d c92e 6b3e 79a2 893d
00000290: 09cf 5fbd 0da8 f63d f1c5 513e b425 22be
000002a0: e146 033e 2ab8 343e b23a 083d eec4 aa3d
000002b0: 4fca a83d 9f0f 9b3c f5b2 ebbc d3ad b6bd
000002c0: a414 c73d 3f44 d23d 0764 0f3c f5b6 183e
000002d0: e60b 213e b2f1 ed3d b08c 7abd 55a2 c9bd
000002e0: 8c0f f9bc 6095 85be 330b f23d 236c 14be
000002f0: 9229 28bd d26f 12be 8e30 1a3d 77ac ea3b
00000300: 22f1 7abd 992d 0fbd 8605 143e 327b 60be
00000310: 9a23 433e 0e6f 02bd 7d4e 113e c919 b83d
00000320: 47f4 79bd aebe 843d 2334 b1bd 101f d0bd
00000330: 826c 7a3d 984c 723d a161 b73d f18c 0cbe
00000340: 2cbc df3c b423 1fbd 045e 45bd b383 cabc
00000350: eb21 6a3c 7eb3 443c 9bb9 8c3d d1a8 f43b
00000360: 08b0 063d 7cb0 9d3d b2a4 c8bd db01 d8bd
00000370: 604a 2abe cb83 24bd 4e38 97be 4dda 173e
00000380: 4747 36bd 9520 ecbd 6eb2 cabb 1a26 e2be
00000390: 9e4c 733d 7878 99bd aa49 833e 4a29 6e3c
000003a0: 1f93 613d 58df 20bc 6e77 b9bd f27b b53d
000003b0: a7fc bfbd ba12 c93d c182 493e 7aa5 cfbc
000003c0: be53 5f3e 77c2 ac3d ca92 6f3e f1e4 473d
000003d0: f27f a83d 9786 c5bc 8024 66bd 88ab cb3d
000003e0: 2cb5 01be 2805 113e 9e66 a1bc b96a 933e
000003f0: cce1 88bd 5a3c 613e 9eb8 71be 619d d0bd
0.08960487 -0.02006882 0.084968686 0.20786272 -0.082542166 0.039051224 0.2835432 0.01730888
-0.15566859 0.05550244 -0.049824294 0.40610728 -0.1393448 0.06512951 -0.07866029 0.14574319
0.14586906 0.25652665 -0.025621232 -0.025850818 -0.08360936 0.27546462 -0.033905488 0.009372699
-0.15309751 -0.0726661 -0.22197995 -0.06990691 0.087856025 -0.024780145 -0.13250098 0.014826177
0.0063389484 -0.08378032 0.1740198 0.03808195 0.13137928 -0.017268466 -0.12637487 -0.12741119
0.12650663 -0.05863848 0.17407945 0.15869851 -0.17246874 0.048061263 -0.056240007 0.109091714
-0.08324556 0.019772615 0.022146238 0.038112663 0.34450608 -0.15558693 0.049402524 0.06326067
-0.1295765 -0.0022435286 0.045685556 -0.15886545 0.076322384 -0.14043106 -0.17524858 0.12104185
0.15418759 -0.050167475 -0.0791952 0.11579689 0.11085092 0.051977605 0.101333454 -0.11142719
0.028570019 -0.062053107 -0.05921201 -0.07512211 -0.24690753 0.015890963 -0.2988166 -0.050328147
-0.11929687 0.093289904 -0.0621803 -0.03841091 0.010451177 -0.26035663 0.053890835 -0.061670847
-0.07923101 -0.08086541 0.09113492 0.07386133 0.028916247 -0.08994292 0.23711112 0.058174483
0.18005009 -0.0035941757 0.12693071 -0.061127268 -0.054744504 -0.020916149 -0.12930202 -0.018027304
-0.14715187 0.066642456 -0.100236475 -0.08602655 -0.16468224 0.27151155 -0.08422246 0.019964358
0.040723573 -0.14885807 0.046871994 0.013484717 0.033495676 0.047485776 0.16543253 0.066860765
0.039955586 0.033187404 0.13768423 -0.09379234 -0.12246318 0.08483504 -0.19554904 0.110143855
-0.1076259 0.06679879 -0.20315804 0.031161059 -0.08779528 0.07194811 0.11212589 -0.09571967
0.16757312 0.075106695 -0.103778206 0.024806967 -0.04992861 -0.0054434673 -0.07039668 0.038471278
-0.21065956 -0.019979313 -0.15623882 -0.12625666 -0.09046088 -0.073773034 0.017559694 0.06359078
-0.13375396 -0.091955766 -0.18828839 -0.108963475 -0.085713014 0.09016067 0.1506144 0.046886407
0.16484492 0.10270149 0.22967066 0.06720442 -0.054640803 0.12043772 0.20485665 -0.15834695
0.12820007 0.17648378 0.0332591 0.083383426 0.08241712 0.018928347 -0.028771857 -0.08919873
0.09720734 0.10266923 0.008751876 0.14913543 0.15727195 0.11618365 -0.061169326 -0.098454155
-0.030402921 -0.26090527 0.11818542 -0.14494376 -0.04105527 -0.14300469 0.03764396 0.0071616727
-0.06126512 -0.034955595 0.14455232 -0.21921995 0.1905655 -0.03184419 0.14190097 0.08989293
-0.061023977 0.06481682 -0.086525224 -0.10162175 0.061138637 0.059155077 0.08954168 -0.1372564
0.027311407 -0.03885241 -0.048185363 -0.024721002 0.014290313 0.012005685 0.06871339 0.0074664135
0.03288272 0.07699677 -0.09797038 -0.10547229 -0.16629934 -0.04016475 -0.29535145 0.14829369
-0.04450157 -0.11529652 -0.0061858213 -0.44169694 0.05939924 -0.07493681 0.2564214 0.014536211
0.055071946 -0.009818874 -0.090559825 0.08861531 -0.093743615 0.09818025 0.19678785 -0.02534746
0.21809289 0.08435529 0.2339584 0.04880232 0.08227529 -0.024112029 -0.056187153 0.09944826
-0.12666768 0.14162123 -0.019702252 0.2879236 -0.06683692 0.21995679 -0.23605582 -0.10186268

2.bias f4 [16]
00000000: 4787 003e 2113 0b3e 941a ecbd 7707 6dbd
00000010: 4795 c9bd 905e 2e3e ca22 5dbd d281 2d3d
00000020: 4af7 8abd 2972 20bd b9b2 9f3d 8ed8 953d
00000030: 5c3a c7bc 2127 a9bd ed50 c4bb ade3 4fbd
0.12551604 0.13581516 -0.11528507 -0.057868447 -0.098429255 0.1702826 -0.053988256 0.042360134
-0.06785448 -0.03917137 0.077977605 0.07316695 -0.02431982 -0.08259416 -0.0059910924 -0.050754238

4.weight f4 [64, 192]
00000000: 16fa ed3d 306d 67be a639 5bbd 1da6 023d
00000010: 4e0a c1bb 2d3b e83c db0c 9c3d 087b 5f3d
00000020: addf 073d bed9 f43d b78c 09bb 1116 3b3c
00000030: c259 b1bd e202 c0bd 4dd7 d23b 3b10 3cbe
00000040: 69df 233c b059 20bd 22ff fcbd 2291 b7bc
00000050: ba91 8d3a 6666 c3bd 4498 9bbd b6fe 91bd
00000060: 3886 a4bd c8b4 d4bc 7b50 ce3d 0ce9 a03d
00000070: 4b78 2ebd 6f93 7f3d 3822 6bbc 898f 983d
00000080: e65e f6bc e3a7 6b3d d675 be3d 38f0 b5bd
00000090: 1932 82bd 37f7 da3d d502 493e 7cf7 f3bd
000000a0: 204c 97bd ef7f 3d3d 105e 0fbe 187e 30bd
000000b0: 371b f93d 5f85 13be 9093 a73d 03f2 b23d
000000c0: 6831 363e b039 313d 0bf6 cd3d 9f7e 03bd
000000d0: 9b9f e0bd 5e07 ad3d 6b4e a23d 91bd c03d
000000e0: 1261 f13c d750 0c3d 9954 723d 5000 aa3c
000000f0: 4ae2 a2bd adaa d4bc 4237 7bbc 23a7 45bd
00000100: a81d 96bd 3d36 533d 38f3 ebbc 34a9 c9bd
00000110: 32fc 803d afe1 50bd d6d1 41bd 3d05 dcbd
00000120: 3417 82bd 37fa d23c a6b8 52bd cc99 443e
00000130: 56a1 41bc a774 f1bb f0c3 973d 9626 cbbd
00000140: 44d1 7fbc 0841 023c 37a4 9c3d fe0c 953d
00000150: 9369 ab3c c6d8 89bd 489a e6bd 3c88 263d
00000160: 7342 aa3d 1fc3 3bbd 3a73 0f3d 37c4 7dbd
00000170: 3225 7b3c e51d 53bd 80d2 4cbd b463 8abd
00000180: 04fd c7bd b4e2 743d ea82 8b3e 9c52 923e
00000190: e2c0 bcbc 988b a83d 2476 c83d a47c c03c
000001a0: 9675 793c bcf5 e1ba c65d 8d3d 2558 edbd
000001b0: edea 003c 549e 093e 933a c5bd 8383 a9bd
000001c0: b067 f93c e926 893d 695d 423d 96ea 143e
000001d0: fc2e 37bd b429 1bbe f0f8 943d 4d09 843a
000001e0: 26ec 32bd 91fe 4b3d 3ab7 f7bc 8ab4 793d
000001f0: f9c6 43bd 97ee babc f16b 02bc 9298 ecbd
00000200: cedf a4bd df22 013c b45d febc d8af 5a3c
00000210: 9fce 1cbe 52dc ea3d 0033 14be 4141 f8bd
00000220: dcc8 6b3d 079a 5cbd 8840 bebd 0e14 f13b
00000230: 4245 ae3d 0465 0dbd 913e a7bd 40f6 573c
00000240: e25f 113e 4b1d d03c 47a2 c8bd a61e 18be
00000250: 8560 88bd e887 2b3d 2801 a63d b5e9 f53d
00000260: 128a b93c ef99 fcbc b6b7 423c 48f2 c2bd
00000270: f653 26be 6fa7 e03d ce96 8a3e 9c40 713e
00000280: 226c a8bd c894 1c3d b454 693c 03bf 12bd
00000290: 81d8 c0bd 84e0 dd3c 4727 193e 8622 173e
000002a0: 341d a43d fa60 20be b28c 88be df56 14be
000002b0: 4423 843d f0d5 e5bd 2aee f53c a2d1 b0bc
000002c0: 33c8 c5bd 6ce3 91ba da78 513d 869f 893d
000002d0: 6760 99bd 950f 143e bec5 793e cc29 933e
000002e0: 9f65 603d c2a8 24bb c118 7fbc 7051 0cbe
000002f0: f395 d2bd 78d3 8d3d 7b6a 1bbd 8ea2 933c
00000300: be38 f73d f8e7 23bd a8a5 da3c 1a6f 83bd
00000310: 1f38 83bd e2c5 ff3a 6245 c93b 4c65 f3bd
00000320: e0a9 ca3d 7277 cebc b2cc 0cbe 5757 65bd
00000330: a002 e5bd 6c62 f83c d4c0 f3bc b4fb 58be
00000340: 7015 a8bd fdef 9bbd 5d8f e9bd 757d e7bd
00000350: ba5d c2ba 9820 e8bd ec2c e4bc 4a5a 14bd
00000360: 43e9 673d 9379 9e3c 9e22 013c 0733 ff3c
00000370: 2970 b5bc 846c cc3c 7e9e 093c 1f3a 413e
00000380: 21af 083b 342e 2f3d 28e8 4a3d e946 4d3d
00000390: cbfb a9bd 8f41 243d ed72 c63d 7b83 7fbe
000003a0: 8b22 26be 4632 383c e5fd c2bc fe10 2e3e
000003b0: 6e67 e73d d1b3 593d d186 223e 33f4 593e
000003c0: a024 1e3e 8a41 7d3e d72b a23d 3c93 a33d
000003d0: 5fad 7c3d fa45 1b3e bcb4 a9bd 8e29 813d
000003e0: 9f51 e4bc 7224 4fbd d2ea e43d f35b 6cbc
000003f0: ae89 3c3d 2ba3 1a3d a45d 1bbd a5ea d93c
0.11619966 -0.22600245 -0.053521775 0.0318967 -0.005891121 0.02834853 0.076196395 0.05456069
0.0331723 0.119555935 -0.0020988414 0.011418835 -0.08659698 -0.0937555 0.0064343573 -0.18365566
0.010001996 -0.039148033 -0.1235335 -0.022408072 0.0010800876 -0.09541015 -0.07597402 -0.071286604
-0.08033413 -0.02596511 0.10073944 0.0785695 -0.04259519 0.062396463 -0.01435142 0.07449252
-0.030074548 0.057533156 0.09299819 -0.08883709 -0.063572116 0.10691684 0.19629987 -0.11912438
-0.073875666 0.046264585 -0.14000726 -0.043089002 0.12163394 -0.14406346 0.08182442 0.08737566
0.17792284 0.043267906 0.100566946 -0.032103177 -0.10967942 0.08448671 0.07925113 0.09411157
0.029465232 0.034256782 0.05916271 0.020752102 -0.079533175 -0.02596029 -0.015332999 -0.048255097
-0.07329875 0.051565398 -0.0288025 -0.09846726 0.062981024 -0.05099648 -0.047319256 -0.107431866
-0.06352082 0.025754077 -0.051445626 0.19199294 -0.011818251 -0.0073686424 0.07410419 -0.09919469
-0.015613858 0.007950075 0.07648509 0.07277869 0.020924365 -0.067307994 -0.112598956 0.040657267
0.083134554 -0.04584038 0.035021998 -0.061954703 0.015328692 -0.05154218 -0.050005436 -0.06757298
-0.09765056 0.059786513 0.27248317 0.2857865 -0.023041192 0.082297504 0.097881585 0.023496933
0.015225789 -0.0017239372 0.069026515 -0.11589078 0.007868511 0.13439304 -0.09630313 -0.08277037
0.03044495 0.06696875 0.047452364 0.14542612 -0.044722542 -0.15152627 0.072740436 0.0010073573
-0.04368224 0.04980332 -0.030238736 0.06096319 -0.047797177 -0.022818847 -0.007960306 -0.11552538
-0.080505 0.007881849 -0.03105054 0.0133475885 -0.15313195 0.11467804 -0.1447258 -0.12121821
0.0575646 -0.05385783 -0.09289652 0.007357127 0.08509304 -0.034520164 -0.081662305 0.013181269
0.14196733 0.025404593 -0.09796577 -0.14855441 -0.06659035 0.041877657 0.08105689 0.12007467
0.022648845 -0.03083512 0.01188462 -0.09518868 -0.16242966 0.109694354 0.2706818 0.23559803
-0.0822375 0.038227826 0.014241386 -0.035826694 -0.09416295 0.027084596 0.1495639 0.14759263
0.080133826 -0.15661994 -0.26669842 -0.14486264 0.06452039 -0.11222446 0.030020792 -0.021584336
-0.096573256 -0.0011130399 0.051140644 0.0671988 -0.074890904 0.14459069 0.24391839 0.28742826
0.054784413 -0.0025125002 -0.015569867 -0.13702941 -0.10282507 0.069251 -0.037943345 0.018021848
0.120713696 -0.040016145 0.02669032 -0.06417675 -0.064071886 0.001951393 0.0061423043 -0.11884555
0.09895682 -0.02520344 -0.1374996 -0.055991497 -0.11182141 0.030320369 -0.029755034 -0.21189767
-0.08207214 -0.076141335 -0.114042975 -0.11303226 -0.0014828958 -0.11334342 -0.027853452 -0.03621892
0.05661894 0.01934508 0.007881789 0.031152261 -0.022148209 0.024954088 0.008399604 0.18869828
0.0020856338 0.042768672 0.049537808 0.050116453 -0.08299979 0.040101584 0.09689889 -0.249525
-0.16224115 0.011242455 -0.023802707 0.1699867 0.112990245 0.053150002 0.15871741 0.21284561
0.15443659 0.24732032 0.07918518 0.07987067 0.061688777 0.15163413 -0.082864255 0.06306754
-0.027870951 -0.050571866 0.11177601 -0.014426219 0.04602974 0.037753265 -0.0379311 0.026601145

4.bias f4 [64]
00000000: 67b7 103c 8057 80bd 761f c23b d353 613c
00000010: 97a6 26bd 0519 f83c 726f 8ebc a262 693d
00000020: f287 4abd 008d 4e3d 53a2 6abd ca4d 263d
00000030: 73a6 803d a298 47bd d4c6 ecbc 56e2 e3ba
00000040: 740d 413d dea1 153d 8335 753c 730f 08bd
00000050: 6bd4 463d 579b 21bc 3735 963d b498 b2bd
00000060: 3cb5 29bd 3aa0 a2bd e676 513d d86b 27bd
00000070: 721a 9cbc 6fad 4dbd 8e5e 823d 123b 86bd
00000080: 7e12 693d ebb6 a8bb 0585 bfbc 88dc 71bd
00000090: eeb2 01bd 4979 813d e846 3bbd 0ab3 2dbd
000000a0: 4b20 28bd b8e5 843d 7932 8e3b 1335 a3bd
000000b0: dbcc 84bd 42e3 ad3d c7db 5dbd c043 86bc
000000c0: c038 713d de0a 573d a18e 80bd f187 3bbc
000000d0: 74dd e53c 0946 82bd 19b0 0bbd c531 2abd
000000e0: f236 dd3b 9113 82bd eb44 a7bc 3a06 cebc
000000f0: e958 aebc a999 323c 2e2b cfbc dc5b 9ebd
0.008832789 -0.06266689 0.0059241606 0.013752895 -0.040686216 0.030285368 -0.017387126 0.05697883
-0.049446054 0.050427437 -0.05728371 0.04060153 0.06281748 -0.048729546 -0.028903402 -0.0017386179
0.04713197 0.03653132 0.0149663715 -0.03321786 0.04854242 -0.009863696 0.07334369 -0.08720532
-0.041432604 -0.07940717 0.05113878 -0.040874332 -0.019055579 -0.050214227 0.06365691 -0.065542355
0.0569024 -0.0051487586 -0.023378858 -0.059048206 -0.03166478 0.063219614 -0.04572192 -0.042407073
-0.041046422 0.06489128 0.004339513 -0.079691075 -0.064843856 0.084906116 -0.054164674 -0.016389728
0.05889201 0.052500598 -0.06277204 -0.011445985 0.028059699 -0.063610144 -0.034103487 -0.04155137
0.0067509348 -0.06351388 -0.020418605 -0.025149453 -0.02128263 0.010900893 -0.025289144 -0.077323645

5.weight f4 [3, 64]
00000000: 2277 debd 611a 40be 7269 f4bd 8a52 a83d
00000010: 803f cf3d f012 043d b7f6 543e 87c0 663d
00000020: 270f 13bd 26db f0bd 82fb 83be 4bf0 d8bd
00000030: e274 22be b3a0 b0be a4ae 26be ad83 c6be
00000040: 0ae5 883e 0be5 e83d 1ec4 c13e 5d00 89bc
00000050: 601e 83bd bb32 413e ad94 4dbe 84c1 703e
00000060: ba70 b43e 1bfc f1bd 302f ab3d 451f 5c3d
00000070: 0d14 23be 17b3 fb3d eea4 3dbe 0c75 4f3e
00000080: 554b e0bd f597 af3c a7b2 703e a884 4abd
00000090: 995d 333d 48b6 3dbe 4e94 643e 6f20 933e
000000a0: 3611 3d3e 963e b93e a273 123e 8095 1ebe
000000b0: 5c25 ba3e caa2 273e 0214 2abe 6499 4d3e
000000c0: 56bf 70bc ec87 17bd 7aa0 b2be a895 693e
000000d0: e516 34be be66 bdbe 1b09 cd3d 7224 333e
000000e0: b870 a7bd 65df 443d ca80 01bd 255a eb3d
000000f0: 4ec3 34be 586b 14be 0b53 cb3e 4251 433d
00000100: f4e1 9e3e 26a1 5e3c a1b5 0dbd a7fc 9cbb
00000110: daa9 8d3e f000 2abe db1b acbd d319 20be
00000120: 9cb1 00bd dfe3 403d 0651 883e 9c09 cebd
00000130: 8169 37be edc1 af3c 0b32 7abd 7b67 c53d
00000140: 7108 43be 66cb 423e f9b6 2abe 5778 9c3e
00000150: 718f 663e ed57 6dbe 3614 7bbe 9aae b83d
00000160: 4862 e8bd 0081 173d 3d61 843e be7e 373e
00000170: fbbe 6b3d 923f 613e c304 7abe 7009 593e
00000180: f94b cc3d 809c 4bbe 9ac2 8cbe debe 10be
00000190: 2226 8fbe ccda 76be 42d4 c4bd 29d5 59be
000001a0: c231 5f3e ddfb 70be 5322 55be dcf9 cb3d
000001b0: 61d3 79be d24f 093d b261 59be 3eb5 213c
000001c0: d0aa 2ebe d101 3bbe 8751 013e 045f 9dbe
000001d0: 0e61 23be 4183 233c 24cb 9b3e 8da4 febd
000001e0: 6ba7 a83c c99d 1d3e 82ae 00be 100f 8b3c
000001f0: dfd0 c13b e6f8 3fbe 0df6 0abe d07e d63d
00000200: 6709 5cbc 5f9e 843e dcaa 46be a845 8abe
00000210: 39a4 8d3c c3fc b43e 8b8f 363e 76f9 62be
00000220: f76d 80be f682 a4be 4e1d 033e dbf8 74be
00000230: dae4 d7bd 7e38 843e 802f 24be 0bc8 633e
00000240: 3efd 1dbe 4dd4 823d d842 15be 381b 3fbe
00000250: 6669 653e a17d 053d 432b 9dbc 0405 dcbb
00000260: 51fd 06bc c999 3e3e 383b edbd edb7 333e
00000270: 415f dd3d 79b4 4b3d 1d15 64bd 5ee3 54be
00000280: c544 aabe 381d 4cbe ac26 ef3d 0fbf 2ebe
00000290: e691 1b3e dd50 c53d 7b32 203e a6b4 873c
000002a0: 31e3 4e3e 3969 6b3d 0d76 36be 8099 113d
000002b0: 497b 73bd 56d4 b0be 5199 cfbd 4f9b 79be
000002c0: c4c1 a7bd 8e09 60be 0c07 ce3d 4500 113e
000002d0: 7264 6ebd 3074 4a3e 931e 53be 6c77 63be
000002e0: d882 7cbe 4249 5a3e adfe 973e 1243 903e
000002f0: b217 8cbe 9a52 bb3e 5043 9bbe 4b33 613e
-0.108625665 -0.18760063 -0.119341746 0.08218868 0.101195335 0.032244623 0.20797239 0.056335952
-0.035903122 -0.11760549 -0.25777823 -0.10592707 -0.158649 -0.34497604 -0.16277558 -0.38772336
0.26737243 0.113718115 0.37844938 -0.016723806 -0.06402278 0.18867008 -0.20076247 0.2351132
0.35242254 -0.118156634 0.0835861 0.05374076 -0.15925618 0.12290018 -0.18519947 0.20259494
-0.109518684 0.021434763 0.2350565 -0.049442917 0.043790434 -0.18526566 0.22322199 0.28735682
0.18463597 0.36180562 0.14301923 -0.15486717 0.36356628 0.16370693 -0.16609195 0.20078045
-0.014694056 -0.03699486 -0.3488806 0.22810996 -0.17586859 -0.3699245 0.10011502 0.17494372
-0.08175796 0.048064608 -0.031616963 0.11491803 -0.17652628 -0.14494073 0.39711794 0.047684915
0.31031764 0.0135882255 -0.034597043 -0.0047908607 0.2766865 -0.1660192 -0.084037505 -0.15634851
-0.03141938 0.047092315 0.26624316 -0.100604266 -0.1791134 0.021454776 -0.06108288 0.09638878
-0.19046189 0.19022903 -0.16671361 0.30560562 0.22515656 -0.23178072 -0.24519429 0.090176776
-0.11346871 0.03698826 0.25855437 0.17919442 0.05755518 0.21996906 -0.24415879 0.21195006
0.09975428 -0.19883919 -0.2749222 -0.1413531 -0.2795878 -0.24106902 -0.096107975 -0.2127272
0.21796325 -0.23533578 -0.20813875 0.09959766 -0.24397041 0.03352339 -0.21228674 0.009869872
-0.17057347 -0.18262412 0.12628756 -0.30736554 -0.15954992 0.009980024 0.30428421 -0.12433729
0.020587644 0.15392222 -0.1256657 0.016974956 0.005914792 -0.18747291 -0.13570423 0.10473406
-0.013429976 0.25902078 -0.19401115 -0.27006269 0.017290222 0.35349092 0.17828195 -0.22165474
-0.25083897 -0.32131165 0.12804148 -0.23923056 -0.10541697 0.2582435 -0.16033745 0.22244279
-0.15428635 0.063881494 -0.1457628 -0.18662727 0.22403488 0.032590512 -0.019185668 -0.006714465
-0.008239106 0.18613352 -0.11583561 0.17550631 0.10809184 0.04973266 -0.055684198 -0.20789859
-0.33255592 -0.19933021 0.11677298 -0.1706507 0.15192375 0.09634564 0.15644257 0.016565632
0.20203854 0.057473395 -0.1781847 0.03554678 -0.059443746 -0.34537 -0.10136665 -0.24375652
-0.08191255 -0.21878645 0.10059938 0.14160259 -0.05820126 0.19770885 -0.20617132 -0.22213525
-0.24659288 0.21317008 0.2968649 0.2817617 -0.27361828 0.36586457 -0.30324793 0.21992223

5.bias f4 [3]
00000000: 248c 503d fd65 833b 8483 7fbd
0.0509149 0.0040099607 -0.062381282
