models/Dispatcher_v1.pt (torch, 116766 bytes, 16 tensors)

model.0.weight f4 [8, 5, 3, 3]
00000000: 9466 e13d d9f6 623d b362 b4bc 9103 8d3d
00000010: e49e 63bd d13d 94bd 69fb 1b3e 1937 0c3e
00000020: c0b4 123d d769 ec3d 2248 efbd fe74 153d
00000030: 2c70 143e 955d 72be 2203 933d 11a5 2d3c
00000040: 17ea 1c3d 5069 ccbe c8e5 173e c9ad 69be
00000050: 8620 8b3e 24c8 f0bd b9c7 653c 1533 3dbd
00000060: 702d f33d d3ba 263e f82b b13e 0094 b93d
00000070: 16ef 3abe 91bb 5e3e bda0 d6bc 8c3b d4b9
00000080: ac6d 893d 4217 03be 9ce1 6cbd 5db3 473e
00000090: ceb6 c53e 4272 013e 26f3 083e e727 44bd
000000a0: 6f4d 5c3b 1db5 093e 9963 e0bd 62ea 843e
000000b0: 347f 253d 9971 0c3c 5e85 5ebd 6050 15be
000000c0: 193a 17bd 520b d0bc ae2f 653d eeab c23d
000000d0: ee7d 073c a1fc 933d c8d8 64be bf5a 79be
000000e0: ddac 883d 90fe 783e e59c 46be 5eeb e7bd
000000f0: e28f 36bc 8cea 943e 2b0a 933d 58b1 723c
00000100: 6b5a 253a 075f aabd ddbc 44be 6a6b 4ebd
00000110: d15c f4bd c737 a3bd aa7d f53d 1bc3 ae3d
00000120: 4994 24be 4777 afbe b05f 86bd 1eab 933e
00000130: b088 e1bc 9784 8ebe adc6 2d3e a8af 4abd
00000140: bc6b 443e 5ca6 87be 9ee7 0dbe 0777 923e
00000150: d6b3 c7bd b1aa 3b3e 4e2c 86bd 2ce5 0fbd
00000160: ef68 f7bd 070a 37be 4e3d 043e a230 c73c
00000170: 7c32 c8bd 7656 a53d 0e30 063e 5cf9 58bd
00000180: 3d97 1e3d 71ad 02bd f7cf e83d e2ff 65be
00000190: c0be 0fbf 2e18 c33d 8a46 273e aea6 21be
000001a0: b2c2 6e3e 8978 33bd 71e3 51be 65de 953d
000001b0: b4a0 8dbd dbd7 24be 72fa 313e f36b f83c
000001c0: 992a 84bd 95cc 83bd 4b21 63bd d9ca 58be
000001d0: c09f fa3d 3c8a 91be f719 3bbe 6f27 1a3d
000001e0: 2829 60bd 2841 df3d 6e4f 7dbc ad00 47be
000001f0: b532 8dbe 8606 3c3d bc05 4b3c 0eb6 0dbe
00000200: 2218 b13d 42d3 8b3e 403d 133d 1cc2 8fbe
00000210: 3a90 7dbe edd8 d1be 548e 8f3c 5d1b 0e3d
00000220: 88a1 cc3c 6289 d43b dfaf f6bd cbb2 f13c
00000230: db0a 25bd 1582 02bc d0a0 5ebd 668e 223e
00000240: 7261 373d ffa2 253e 5be6 82be a00c b8bd
00000250: 31bc 1cbe b480 9d3d 0320 fd3d b5d1 d3be
00000260: d424 053d 4fe9 1bbb b7a9 a93e 5df4 1cbe
00000270: a4e8 4b3e e018 bb3d ab80 4a3e e000 95be
00000280: 882f e6bb 6dee 21bd 6a8f 803d 4d0f 56be
00000290: 8e98 2f3d 46e0 e63d c8f7 ac3d e871 9cbc
000002a0: c63f a53e 52cf 9abc 4a92 843c b191 bfbd
000002b0: 1093 dbbe f499 9e3d 955f e6bd 563b c63e
000002c0: a659 423e 2cac 6fbe 34e9 bb3e a8b0 19bd
000002d0: 66f9 94be 848a 1cbd ff32 66bc 92dc b23d
000002e0: 6462 87bd 4518 a8b9 9487 85be 669f 15bd
000002f0: 5c7d 1dbd 21a7 a73e fc89 80bd 9251 2ebd
00000300: 3e6a 3f3d d967 043d 6814 ab3d e866 c13e
00000310: 8751 b13c e0b8 053e 7ac6 e73e 225f bfbc
00000320: 6f63 f6bd 7f30 973d e501 3fbd 119b 21bd
00000330: d45c 883e 3451 1ebc e0da 403d 5683 073f
00000340: 63de b33d 77fb 83bc 6e2d 3a3c fd65 9b3d
00000350: 10a5 023d b22a bf3d 156e a73c f63c e53c
00000360: 15eb d93e 80de 24bc 1484 b1bd 1665 053e
00000370: 14c4 a9bd e496 333d 3288 803e dda5 d63d
00000380: c144 003d 768a eb3d fc33 163e c5b2 68bd
00000390: 2dcc a5bd a43c cabd a328 803d a88f b93c
000003a0: dbad fa3c 1fde 4c3d e03d 8dbc 06d8 7f3d
000003b0: cfb0 913d 37db 8b3e 43ef 37bf b511 833e
000003c0: 9ae3 37be 15ee 843e ae32 223e fea2 3bbe
000003d0: 0f21 4f3e c002 74be 4fd3 b53c a437 543c
000003e0: 381e efbc c3eb a9bd 3830 2f3d ba35 243c
000003f0: f46d 74bb 4fe4 d4bd 08f1 3e3d b0be 12be
0.11005893 0.055411194 -0.02201972 0.06885446 -0.05557145 -0.07238353 0.15232624 0.13692893
0.035816908 0.11543625 -0.1168368 0.036488526 0.14495915 -0.23668511 0.07178332 0.010598437
0.038309183 -0.39924097 0.14833748 -0.228202 0.2717325 -0.11756924 0.014024668 -0.046191294
0.11873901 0.16282205 0.34603858 0.09061432 -0.18255267 0.21751238 -0.026199693 -0.00040480157
0.067103714 -0.12801841 -0.057832345 0.19502015 0.3861603 0.12641242 0.13374004 -0.047889616
0.003361549 0.13447995 -0.10956497 0.2596007 0.040404513 0.008572006 -0.054326408 -0.14581442
-0.03692064 -0.025396023 0.055953674 0.09505449 0.00826977 0.072259195 -0.2234832 -0.24351023
0.06673596 0.24315858 -0.19395788 -0.113241896 -0.011142703 0.29085195 0.07179674 0.01481279
0.0006307724 -0.08318906 -0.1921267 -0.050395407 -0.11931766 -0.07969623 0.11986859 0.08533307
-0.16072191 -0.3427069 -0.0656122 0.2884149 -0.027530998 -0.27835533 0.1697032 -0.049483925
0.19181722 -0.2649411 -0.13857886 0.28606436 -0.09751098 0.18326832 -0.06551419 -0.035130665
-0.12080561 -0.17874919 0.12914011 0.024315182 -0.09775254 0.08073132 0.13104269 -0.052972183
0.03871845 -0.031903688 0.11367791 -0.22460893 -0.56150436 0.09526096 0.16335502 -0.1578624
0.23316458 -0.043816123 -0.20496918 0.07317809 -0.06915417 -0.16097967 0.17380694 0.030324912
-0.06453437 -0.06435505 -0.055451673 -0.2117113 0.12237501 -0.28425777 -0.18271624 0.037635263
-0.05472675 0.109010994 -0.015460832 -0.19433852 -0.2757775 0.04590466 0.012391504 -0.1383898
0.08647181 0.27309614 0.035947084 -0.2807778 -0.2476205 -0.40985814 0.017523922 0.034694064
0.024979368 0.006486104 -0.120452635 0.0295042 -0.040293556 -0.007965584 -0.05435258 0.15874633
0.044770665 0.1617546 -0.25566372 -0.08986783 -0.15306164 0.07690564 0.123596214 -0.4137093
0.032505825 -0.0023790186 0.33137295 -0.15327592 0.19912964 0.09135604 0.19775645 -0.2910223
-0.007024709 -0.03953402 0.06277354 -0.20904274 0.042870097 0.112732455 0.08445698 -0.019097283
0.32275218 -0.018897686 0.016183037 -0.0935396 -0.42885637 0.07744208 -0.112486996 0.38717145
0.1897951 -0.23405522 0.36701357 -0.03752199 -0.29096526 -0.038218036 -0.014050244 0.08733477
-0.066105634 -0.0003206154 -0.2608 -0.036528967 -0.03844963 0.32744697 -0.062763184 -0.04255826
0.04673218 0.0323256 0.083535016 0.37773824 0.02164532 0.13058805 0.45268613 -0.023360793
-0.12030684 0.07382297 -0.046632666 -0.039454523 0.26633322 -0.009662915 0.047083735 0.5293478
0.08782651 -0.016111119 0.01136337 0.07587812 0.031895697 0.09334315 0.020438233 0.02798317
0.42562166 -0.010062814 -0.0866777 0.13026842 -0.08289352 0.043845072 0.2510391 0.10480855
0.03131557 0.11501019 0.14668268 -0.056811113 -0.08095584 -0.098748475 0.06257751 0.022651508
0.030600479 0.05001652 -0.017241418 0.062461875 0.07113802 0.27315685 -0.7184946 0.25599447
-0.17957917 0.25962892 0.15839645 -0.18323895 0.20227455 -0.23829174 0.022195486 0.012952719
-0.029189214 -0.08296921 0.042770594 0.010022575 -0.0037296982 -0.10395109 0.046616584 -0.14330554

model.0.bias f4 [8]
00000000: 8c9f dc3d b466 773d 7841 453e a63f 953d
00000010: 260f 4a3d 5fec 9ebd 78ae 6ebc f749 bc3d
0.10772619 0.06040068 0.19263256 0.072875306 0.049330853 -0.07759928 -0.014567964 0.09193795

model.2.weight f4 [16, 8, 3, 3]
00000000: ae2c 48bd fa91 b83d 0006 3b3e eb38 98bd
00000010: 8060 373c ebd8 943c 20b8 81bd d69d 463d
00000020: 2305 473e 5e1b d83d d619 813d 1b12 843c
00000030: 1a3d d6bd 9df7 0b3e 24e4 c63d 4f68 b2bd
00000040: d974 fd3d 5ea4 43be ead9 01be 3e10 633e
00000050: 39ab ca3d 9819 9ebd 5981 93bc 28f8 693d
00000060: 0229 0b3e bc20 943a 7571 f43c af17 d7bd
00000070: 9830 86ba b30e 12bd 0b16 5bbc 50f3 2fbe
00000080: c0ad 093e 5ca4 d9bc 1778 2a3d ce58 5b3e
00000090: 92ee bbbe 3325 073e e14f c4bd 5562 04bd
000000a0: 683a 563e d44b 58bd 63de 86be 1f1c c3bd
000000b0: cca4 263e f6ce 583e bee7 253e 2ab0 223e
000000c0: d5af 913c aa65 c6bd c14e 983e f73d 4bbd
000000d0: c57e aebd 9304 33bc 48a8 c03d 602f bcbd
000000e0: 6fb8 12bd bdf4 9dbd 9589 2a3d 540e 743d
000000f0: 7cbb c73d 33bf 4e3d 380d d8bd 2f92 673e
00000100: 591f 6ebd 2aa4 163d 5cf4 11be 28f7 ae3c
00000110: c5e0 033e e497 103e 2bee 85bd e229 1b3e
00000120: 57c5 d43d bed6 dabd 1367 4bbc c061 85bd
00000130: a41a 8abd f9eb 3fbd c0ad f4bc 0c8e 69bd
00000140: 35ac 293d 1648 4c3d ee7f d73d acee 86bd
00000150: 89b2 4cbd eaab a4bc 1328 c93d 4f6c 7f3c
00000160: be52 96bc cce7 3c3d afa4 5b3c 7e9a 43bb
00000170: cced 0e3d 98ec d73d f2e4 bb3d c42a 183e
00000180: 30e5 96bd da7b 1c3d 5511 173c de24 a83d
00000190: 15f9 55bc 1095 003e e181 a1bc 8eed 8bbc
000001a0: 2447 bcbc a6c6 713d 1831 103d ab0b e93c
000001b0: 3bc6 fa3d 322e 32bd f218 1d3e 2044 3e3e
000001c0: c862 3d3e e87d c23d 98c5 203e 0134 e53d
000001d0: 9d91 913e d0f4 3cbd 5a7a 8dbc 0052 70bd
000001e0: 1386 db3c 95ef a3bd d152 2f3d f0a0 85bd
000001f0: b631 bebd 9297 b3bd afed f43d af80 01bd
00000200: 8035 43bd d9f0 8d3d e37a cd3d c994 b2bd
00000210: e95d f73d 48d6 2f3d 3670 f3bc 6292 b73d
00000220: 6ca8 3e3d 25e3 9c3d 2cf5 1dbe 59b6 0f3d
00000230: f3fd 99bd eb75 81bd d531 123e 3b53 ec3d
00000240: 9e75 53bc 9e6a 2d3d 6674 23bd e46e 383d
00000250: 2296 9bba 653a bf3d 988f 94bd d488 2d3d
00000260: 6ffe 843d 9812 b3bd 7357 8f3d a767 ac3c
00000270: d52b 683d 64a2 453d da9c 9abd 40ba 483e
00000280: a34c a53c 3b58 2f3e 8150 df3d 57a2 373c
00000290: 51bf 58bc 5194 90bd 026e fc3b 0a8c fd3d
000002a0: d1f1 503e bb4d 2f3d d43b 023e 2847 0dbe
000002b0: a246 71bd 7678 643c 150c 19bd b416 053e
000002c0: 9d41 eb3d ee4b dc3d 4275 f4bd 16de d63d
000002d0: c04d 6fbe db7e f9bd 636b adbd dad5 cc3d
000002e0: 8bb4 6ebd dae7 993e 5dab 81be dd8c 1ebe
000002f0: 9e90 22be e60c 4abd 9cfd eabd 5d48 1dbc
00000300: 7ec6 c2bd 346d 833d 0f3d 8e3d 171c 263e
00000310: 4c67 8e3d 2749 1d3d 5cd9 07be 95f4 cabd
00000320: 6161 963d 7678 d9bc 6162 e73d 4fd8 c43d
00000330: 7c76 cdbd 42da 1c3e 9cba dbbd a65b fe3c
00000340: d89c 653d ce87 bbbd b8b1 f13c a422 853b
00000350: f213 813d 149b 4e3e c58d 203d fad3 e2bb
00000360: 6dae 6bbd a60e 1abd 46dc a53d 7f92 cb3d
00000370: 6ffe 20bd 7772 f83d ee3c a3bd 4814 84bd
00000380: 0dc9 a53b 9090 7a3d e0fa 963b 87f7 ccbb
00000390: bb9e 103e cfd9 aebc a9e3 aabd 053d 7b3d
000003a0: a3b2 713c fdca bb3d 72ed 8d3d aa82 abbd
000003b0: 5060 f83d 9195 833d e6f3 acbd 7705 59bd
000003c0: b97c 333e 2a3f 98bb f061 8e3d 439e 14bd
000003d0: 5e87 a9bd 7b4b 0d3d 5f7d a63d 2b17 913d
000003e0: 4d1a d2bc d9da c0bd 02a5 10be 54f3 1c3e
000003f0: 63cd c9bd 9c7a 0ebe 803b c53d a975 29be
-0.048870735 0.09012218 0.18264008 -0.07432731 0.011192441 0.01816984 -0.06333947 0.048490368
0.19435553 0.10552095 0.06303756 0.016121915 -0.10460873 0.13668676 0.09711483 -0.087113015
0.123758025 -0.1910567 -0.12680784 0.22174165 0.098959394 -0.07719725 -0.018006014 0.057121426
0.13589862 0.001130126 0.029839257 -0.10502564 -0.0010237871 -0.03565855 -0.013371955 -0.1718266
0.13445187 -0.02656763 0.041618433 0.21420595 -0.36705452 0.13197784 -0.09585548 -0.03232034
0.20920718 -0.05280669 -0.26341543 -0.09526848 0.16273803 0.211727 0.16201684 0.15887514
0.017784039 -0.0968736 0.29747584 -0.04961964 -0.08520273 -0.010926384 0.09407097 -0.091887236
-0.03582042 -0.07712696 0.041635115 0.059583977 0.09752557 0.05047531 -0.10549396 0.22614358
-0.058135364 0.036777653 -0.14253372 0.021358088 0.12878712 0.14120442 -0.065395676 0.15152696
0.10389202 -0.1068549 -0.0124147115 -0.06512785 -0.067433625 -0.0468559 -0.029868007 -0.057020232
0.041423995 0.049873434 0.105224475 -0.06588492 -0.049974952 -0.020101506 0.09822097 0.015589788
-0.018350001 0.046119496 0.013405963 -0.0029846723 0.03489475 0.105431736 0.09174527 0.14860064
-0.07367933 0.03820405 0.009220441 0.08210157 -0.013059874 0.12556863 -0.019715251 -0.017081048
-0.022983141 0.059027337 0.03520307 0.028447947 0.12244841 -0.043501087 0.15341547 0.18580675
0.18494713 0.09496671 0.15700376 0.111915596 0.28431407 -0.04613191 -0.017270256 -0.05867195
0.02679733 -0.08004681 0.04280359 -0.06524837 -0.09286825 -0.08769144 0.11959397 -0.031616863
-0.047658443 0.06930704 0.100332044 -0.08719785 0.12078459 0.042928964 -0.029716592 0.08963467
0.04654734 0.07660512 -0.15425557 0.03508601 -0.0751914 -0.06321319 0.14276822 0.115393125
-0.01290646 0.042338006 -0.039905928 0.04502763 -0.0011870305 0.0933731 -0.07253951 0.042366818
0.06493842 -0.08743781 0.069991015 0.021045519 0.056682426 0.04825057 -0.07549448 0.19602299
0.020178145 0.17123501 0.10904027 0.011208138 -0.013229207 -0.07059539 0.0077035436 0.12380226
0.20404746 0.04279874 0.12718135 -0.13796675 -0.05890525 0.013944736 -0.037365038 0.12996942
0.11487124 0.1075667 -0.11936428 0.10491578 -0.23369503 -0.12182399 -0.08467748 0.100017264
-0.058277648 0.300597 -0.25326052 -0.15483423 -0.1587548 -0.049328707 -0.114741534 -0.009599772
-0.09510516 0.06417313 0.0694524 0.16221653 0.06953296 0.03839984 -0.1326651 -0.099099316
0.07342792 -0.026546698 0.11298061 0.0961157 -0.10032365 0.15317634 -0.10728952 0.03104956
0.05605778 -0.09156762 0.029503688 0.0040629674 0.063026324 0.20176345 0.039197702 -0.006922242
-0.057539392 -0.037611626 0.080986544 0.09940051 -0.039305147 0.121312074 -0.07970606 -0.06449181
0.0050593675 0.06117302 0.0046075433 -0.0062550935 0.14123051 -0.021344094 -0.08344204 0.06133749
0.014752063 0.09169576 0.06930055 -0.083745316 0.12127745 0.06425012 -0.084449574 -0.052983727
0.17528047 -0.0046462016 0.06952274 -0.036283743 -0.08277772 0.034495812 0.081293814 0.07084497
-0.025647307 -0.09416742 -0.14125445 0.15327197 -0.098536275 -0.1391396 0.09630489 -0.1654879

model.2.bias f4 [16]
00000000: e39a d7bc 20f8 743d 6c79 9bbd c4df 9bbd
00000010: 8258 993c 88b6 88bd d3d5 003e 5819 393d
00000020: f01c a3bd e7c9 cf3c 38c6 7fbc 9741 c6bd
00000030: 28a5 21bc a8a8 7b3d f500 653d b74c f63d
-0.026318973 0.059806943 -0.07591519 -0.07611039 0.018718962 -0.0667544 0.12581567 0.045190185
-0.07964504 0.02536483 -0.015611224 -0.09680479 -0.0098660365 0.06144014 0.055909116 0.12026351

model.4.weight f4 [32, 16, 3, 3]
00000000: 1a63 9d3c 2606 d9bd 10db 003c 6299 c73d
00000010: 3e31 d9bd c65b e5bd 865b 373d 4976 38bc
00000020: 7152 b63d a35e 2dbe b832 29be 9efa 69bd
00000030: ac54 2bbc 485c 92bd 88a8 75bd beb8 5ebd
00000040: efa1 45bd fbdc c33d 14e0 adbd 4e72 36bd
00000050: a631 be3c 6eb9 893d 07ef 93bd c817 c83b
00000060: 3aa5 4d3d be9b 883d 8628 f13c c0d5 123e
00000070: abd7 013e 0dba 84bd 7355 b7bc 1f01 4e3d
00000080: a4aa 5b3e 6c24 153e d6b1 333d ca50 f3bd
00000090: c2af cb3d 36e8 983d 40c8 5e3d a9da 49bd
000000a0: 72a0 4d38 9da8 053e 8da7 1c3e 8f12 8e3e
000000b0: 7105 55bd 1f34 8e3c 07c5 18bb 2c1c 583d
000000c0: 791f b8bb 8850 433d d059 cd3c 1416 71be
000000d0: 0cdc 0abd d6c3 10be e95d 1f3e f7a0 9f3c
000000e0: 7c77 c83d 5c67 0b3c 3ce8 09be 35d8 e23c
000000f0: d935 1d3d 3c7d 783d c53c 043e daf4 843a
00000100: ab48 103c dfd4 4f3c 4ee8 6d3d f1ac 133e
00000110: edae 46bb 6b76 423c 4102 d8bd cc0b ebbd
00000120: 39eb dabd 0db5 2cbe bf98 233d 2e23 653c
00000130: 0060 213c 6a53 813d a960 1cbe d207 06be
00000140: 0f5d e4bd 8a6d c5bd d640 0d3d 116a a33c
00000150: a625 ac3c 4d46 c03d 87a0 5b3d d276 c1bd
00000160: ac5d 943d 04bf 5e3c 8ee6 4d3c ec25 1c3c
00000170: 297b 0f3e 8b49 3a3d 8d01 bcbd 7ecc f1bd
00000180: ee49 663d 3292 b8b9 fa61 e43d 5c2d 293e
00000190: 52c2 1a3e f685 3f3c 494d ad3d 6da8 49bc
000001a0: 83fa d63d b098 173c ed74 d7bd ef15 c03d
000001b0: 7cfd efbb 15bd 613d 2e4e 2abb 297d e53c
000001c0: 47d0 ef3d 24cb 19be dfc6 303d 673e a23b
000001d0: ae1d f83b 283b 9cba 01ad 7c3c af2b 4abe
000001e0: 9998 d1bd 2624 ecbc 8d93 9e3d bc63 aabc
000001f0: b103 b53d c758 20bc 082a 1dbd 39bd babc
00000200: 9f50 d73c a374 d03b e801 78bd a343 a0bd
00000210: c44c b33c b2a0 0ebd 4d53 073e 3fc0 d83c
00000220: e8c7 193d bd22 383d 0065 083b dd50 dabc
00000230: 1864 803d 6d08 ec3b 9873 693d 3753 b6bd
00000240: f6d7 2b3e f64d 0dbd a60e 133b f7f4 c0bd
00000250: c073 c53d e208 363d e074 2b3d 80ef f2bc
00000260: 7035 3bbd e6a9 fcbd 8b8e 8bbd 21e9 013d
00000270: 2a01 453e 54e6 933d c1a2 973d 810b 19be
00000280: 8c47 75bd c4e4 963d d189 063e 9ac8 dcbd
00000290: ee44 36bd 3283 a2bd 78d0 8dbd b5b8 cb3c
000002a0: 34ba 183d 951d adbd 0d41 093d 96f7 583e
000002b0: f6ed 35bc fd51 103d 5ab7 c5bd 80c2 df39
000002c0: 260d c4bc bd7a d83b 7f6f 85bc a6c0 c83d
000002d0: baf1 af3d 9974 65bd f29b ba3c 1283 383d
000002e0: ac47 d93c 8a95 21bd 13b4 a03c a99b 673e
000002f0: d4a4 033e dc4c 053e 3fa9 ee3d 4100 a33d
00000300: 71d4 8f3d 46f9 7bbd 01ab 24bc e67a ddbd
00000310: ced4 e23d 4272 96bd 1012 323d a48b ce3d
00000320: c644 bfbb 619c d0bd 74e7 27bd 4b47 b33d
00000330: 7911 093c 28f5 503d 9ba6 f9bd 464c c1bc
00000340: 8fcd b0bd 7412 03be c3c4 cdbb 7f45 87bc
00000350: d337 b4bc 6325 b8bc 8e12 bb3d 75e6 a43a
00000360: ddae 6dbe 8fe2 8f3b 2746 1dbd 0c55 51be
00000370: db2e e93c 067e 2d3d c6f7 143e 012d 423e
00000380: d1f8 403c 80e4 8d3d 63c8 fd3c 28c9 d73d
00000390: 2dae 503d 53ed 88bd 27cf 0b3e 0195 dc3d
000003a0: a5d4 f93d a9b0 513c b118 323e 3dab a73d
000003b0: 7604 263c 39df 12be 94a4 6b3d 88f1 9cbc
000003c0: 339f 143e baad b2bd c8d5 723d 542e 0e3e
000003d0: cc11 2b3e b8f9 7fbd 9ad7 6f3d a3e6 be3d
000003e0: 8560 c3bb fa9f b0bd fe8b aa3c 80b3 103c
000003f0: 39d7 713d 76e5 1ebd a270 723c 7de5 bb3d
0.019212294 -0.10596876 0.007864729 0.09746052 -0.10605095 -0.11199145 0.044765018 -0.01125867
0.08902443 -0.16930632 -0.16523254 -0.057123773 -0.010457199 -0.071465075 -0.059975177 -0.054375403
-0.048250135 0.09563633 -0.08490005 -0.044542603 0.023217034 0.06724821 -0.07223325 0.0061063506
0.0502064 0.066703305 0.029438268 0.14339352 0.12679927 -0.06480799 -0.022379613 0.050294038
0.21451813 0.14564675 0.04387077 -0.11880644 0.099456325 0.07466166 0.054390192 -0.049280796
4.9025235e-05 0.13052602 0.1529829 0.27748534 -0.052007142 0.017358838 -0.0023310797 0.05276124
-0.005618986 0.047684222 0.02506724 -0.23543578 -0.03390126 -0.14137205 0.15563168 0.019485934
0.09788415 0.0085085295 -0.13467497 0.027690986 0.03838143 0.060666308 0.12913807 0.0010143772
0.008806388 0.01268503 0.05808287 0.1442144 -0.0030316666 0.011869053 -0.10547305 -0.114768595
-0.106893964 -0.1686594 0.039940592 0.013985438 0.009849548 0.06314738 -0.15271248 -0.1308892
-0.11150562 -0.096400335 0.03448566 0.019948037 0.021014046 0.09388409 0.053619888 -0.09446491
0.07244429 0.013595346 0.012567176 0.009530526 0.14011826 0.045480292 -0.09179983 -0.11806582
0.05622285 -0.0003520414 0.111515 0.1652121 0.1511319 0.011689654 0.084620066 -0.012308222
0.10497 0.009252712 -0.10520349 0.093791835 -0.007323919 0.055111963 -0.002598654 0.028013783
0.117096476 -0.15018898 0.04315841 0.0049512866 0.0075718975 -0.0011919485 0.015422107 -0.19743226
-0.10234184 -0.02882583 0.07742987 -0.02079951 0.08838595 -0.009786791 -0.038370162 -0.022795307
0.02628356 0.0063615604 -0.060548693 -0.07825401 0.02188719 -0.03482122 0.1321537 0.026458858
0.03754416 0.044955004 0.0020812154 -0.026649887 0.06269091 0.007203153 0.056995004 -0.08902591
0.16781601 -0.034498177 0.002243915 -0.09421723 0.09641218 0.044442065 0.041859508 -0.029655218
-0.04570526 -0.12337093 -0.06814297 0.03171647 0.19238725 0.07221666 0.0740409 -0.14945795
-0.059882686 0.07367852 0.1313851 -0.10780449 -0.04449933 -0.0793518 -0.06924528 0.024868349
0.037286952 -0.08452908 0.033509303 0.21188197 -0.011104098 0.03523444 -0.09654112 0.00042678788
-0.02393205 0.0066064284 -0.016288517 0.0980237 0.085910276 -0.0560194 0.022779439 0.045046873
0.026523434 -0.039449252 0.019617116 0.22617973 0.12855846 0.13017601 0.11653375 0.07959033
0.07022942 -0.061517023 -0.010050536 -0.10814457 0.110757455 -0.07346012 0.043474257 0.10085228
-0.005837056 -0.10186077 -0.040992215 0.087538324 0.008365982 0.05101505 -0.121899806 -0.02359594
-0.08632957 -0.12800008 -0.0062795593 -0.01651263 -0.021999275 -0.022478765 0.091343984 0.0012580889
-0.23211236 0.0043910216 -0.03839698 -0.20442599 0.028464725 0.042356513 0.14547643 0.1896248
0.011778072 0.069283485 0.03097934 0.105364144 0.050947357 -0.06685891 0.13653241 0.10770608
0.12198762 0.012798467 0.17392232 0.08186958 0.0101328995 -0.14342965 0.05753 -0.01915814
0.14513855 -0.08724542 0.05928591 0.1388486 0.16706008 -0.06249401 0.058555223 0.09321334
-0.0059624338 -0.08624263 0.020818707 0.008831859 0.059043143 -0.03879305 0.014797362 0.09174631

model.4.bias f4 [32]
00000000: 34ee 4d3c fce8 863d 8ec2 a7bc 71a0 4abd
00000010: 041e 9e3d b3b2 a13d b4e8 213d 540e d6bb
00000020: f725 bc3c 14e5 33bb 164e afbd e82b 8bbd
00000030: 6294 6f3d 98da 0dbd c8ec 3c3d daec 4e3d
00000040: b62f 9dbd 5220 3e3d 8b48 c13d 5beb 2c3d
00000050: ca2a b5bd a7a2 5a3d 9a40 44bd bd59 913a
00000060: 4601 db3b b028 1dbd bae6 143d a31d 6dbd
00000070: de8a eb3c d669 b0bc 377e 1a3d ae01 723d
0.012568999 0.06587407 -0.020478513 -0.049469415 0.07720569 0.07895412 0.039528564 -0.0065324698
0.022967322 -0.0027449774 -0.085598156 -0.06795484 0.05849112 -0.034632295 0.04612425 0.050518848
-0.07675116 0.04641754 0.094376646 0.04221664 -0.08846052 0.053377774 -0.04791317 0.0011089366
0.0066835014 -0.03836888 0.03635285 -0.057889592 0.02875274 -0.021534842 0.037718024 0.059083633

model.6.weight f4 [64, 32, 3, 3]
00000000: f9ca 4c3b e39b 1f3e 6e3a fe3d e8fc 71bc
00000010: 8e8d 363c 9978 0ebd 628e 5e3e 6bf0 903d
00000020: 8036 953c e22f 1a3e 4038 9abd 55ef 113c
00000030: 0583 6abd 774f 9f3d 8ab2 b3bc 4143 c83c
00000040: 8369 13be f0cd 31bd 9f41 233e 046e b73d
00000050: f834 f33c 0723 a13d 3657 cd3c b412 ee3d
00000060: 8473 2d3e 8da8 01bd 0ea7 4e3c b25b 56be
00000070: 4c4c 79bd d4e3 e6bd 2589 55bc e594 eebd
00000080: 8d71 ccbd 0cd9 833d 3f61 d13d a516 2dbd
00000090: dc19 983d ed91 cf3d b33f 02be e676 553d
000000a0: 41a2 bcbb 9eb1 8fbc 0f4a 303e af59 52bd
000000b0: cf40 413d 049a 85bd 5225 703d 6aca cabc
000000c0: 6e91 843d 1511 51bc d606 903d 69ae 803c
000000d0: 0c50 f4bc 67cf cb3c 7107 103b 8c4e 2ebe
000000e0: cc9e 423c e06d 873e c8de b83d 3e66 c7bc
000000f0: 471d 1d3e b231 b7bc 6784 38be 4cdb 113d
00000100: 0034 c73d 7481 3e3d 1eb5 31bd bb23 46bc
00000110: a7ef 023d 910a 473e b538 1f3d 618e 2738
00000120: 7338 32bd 0994 8d3c 6e86 183e 4425 f2bd
00000130: d60a 9b3c 0f5f 653d d711 a13d 181a 613d
00000140: 8702 83bd 875e abbc 10fc 853b 6b13 01be
00000150: 8aa5 a33c dbb5 a6bd 59c3 9a3d 7a3d 143e
00000160: 83d3 e63d ce29 893d 37b1 cf3c 37e9 f63c
00000170: 30bc 4dbd eb11 593a bc0d 1abc 801d cd39
00000180: 905f 15bd fa94 82bc 1d93 4b3c 3667 d9bd
00000190: 19a8 28bd 672c f7bc c24f 533d 42e9 503d
000001a0: 3cf7 1abe d003 c5bd 1a8e 5b3d 9eba 43be
000001b0: c1b4 3c3d d8a9 acbd e676 4abc 82e6 133d
000001c0: c3f4 253e 6968 0dbd 74b6 243e ad95 f3bc
000001d0: d75a d73d 9c9c a03d cf92 f7bc 889c 4bbd
000001e0: 26b0 8e3d 9fd7 cf3d 7939 84bd 1eb2 253e
000001f0: 1d26 d93c 0ae6 1b3e 7fbf a83d e9d9 173e
00000200: 68ab 8bbd 6672 a9bd 6579 d8bd 132c 113e
00000210: d1c7 db3d 72e8 143e c8c6 78be ae65 ccbd
00000220: 7cf0 6cbd 70c7 6ebd cc52 85bd 5958 e93c
00000230: e27f 85bd 826d cc3d 46fd 003e a41b 0c3d
00000240: cc88 ff3d cccc 823d 00df 5ebd 15d0 f23d
00000250: da9c f93d be11 7cbc a95b 9c3e 69f0 8bbd
00000260: f244 b4bc 77ef 433c 4b1c 913c 532c 2abd
00000270: 91ad ca3d 665d cebc 9604 e13d c674 533d
00000280: 96fa 733d 575d bb3d 1666 9cbd 9860 c9bc
00000290: 3536 51bc eded a3bd 4d12 9bbc 5219 563c
000002a0: 8533 84bb f763 ef3c f952 173d 9315 3d3e
000002b0: 1d42 ba3d 21f5 713d d4f1 32bd 80f0 043e
000002c0: ec2c 67bd 2d43 3f3e aa64 4e3e e573 6b3d
000002d0: 06e5 8a3c 3e4d 60bd 10b3 09bb dd18 1e3d
000002e0: 5a9a 02bd 9bbe 133d 2d9f b43c 51f6 633d
000002f0: bdf8 073d 67b4 143d 11a3 bdbd 4319 4e3d
00000300: 11d4 fc3d 3e7e da3c d2c1 2ebd cb6d a03d
00000310: 1205 83bc 07a4 d13c e5da 113d f6c0 943c
00000320: c183 48ba e010 8d3a 233a 093d 042a 6abd
00000330: 0c99 003c 5f2b ddbc 4b35 7a3c dcf8 96bd
00000340: 5c8e 9abd 364f 1a3d dee9 45be 8461 debd
00000350: 5226 72bc 6f93 383e 3820 bd3c 75d8 8dbd
00000360: 31d5 e83c 6e8c 4ebe 698b cc3a f030 c6bd
00000370: ad77 213d 2377 72bc 6e63 f43d 7379 d23d
00000380: c5a3 b1bd 88b2 963d 3941 d93b 944c 283e
00000390: e793 4a3e 7f74 f9bd ae4b 5b3d 45fb 94bc
000003a0: 3a35 d03c 073e be3d 5426 63bb 0eb1 7cbb
000003b0: a92a 04be 13f8 823e 5232 8bbd 155a 31bd
000003c0: 4a52 163e 94df 1c3d faed 843d 1f5b 383d
000003d0: 4584 c5bd 72d0 023d f6d2 64bd e587 8abc
000003e0: c4e3 91bb 0767 793c 1473 a73d 7484 c73c
000003f0: 707b 563e 0ee0 3cbc 94c3 753d 40e5 923b
0.003124891 0.1558681 0.12413488 -0.01476977 0.011142148 -0.03478298 0.21734002 0.07077106
0.018214464 0.15057328 -0.0753026 0.008907159 -0.057253856 0.077788286 -0.02193572 0.024446132
-0.14395718 -0.043409288 0.15943001 0.08956531 0.029688343 0.07868009 0.025066 0.11624661
0.16938597 -0.031654883 0.012613071 -0.20933416 -0.060863778 -0.112739235 -0.013033186 -0.11649493
-0.099825956 0.06437883 0.10223626 -0.042257924 0.07426807 0.10135255 -0.12719612 0.052115344
-0.005756647 -0.01754075 0.17215751 -0.05135506 0.047180947 -0.06523517 0.05862934 -0.024754722
0.06473051 -0.01276042 0.07032554 0.015708165 -0.029823326 0.02487917 0.0021977092 -0.17022151
0.01187868 0.26451015 0.09026867 -0.024340745 0.153432 -0.022362564 -0.18019257 0.03560953
0.09726715 0.046510175 -0.043385617 -0.01209348 0.03196683 0.19437625 0.03887244 3.9948503e-05
-0.043510865 0.017282503 0.14895031 -0.11823514 0.018926065 0.055998858 0.07864731 0.054956526
-0.063969664 -0.020919098 0.004088886 -0.12605064 0.019976396 -0.08140155 0.07556791 0.14476576
0.112708114 0.06697427 0.025353057 0.030140502 -0.050228298 0.0008280563 -0.009402689 0.00039122626
-0.03646809 -0.015940178 0.012425211 -0.10615389 -0.041175935 -0.03017254 0.051589735 0.051003702
-0.15133375 -0.09619868 0.053602315 -0.19114158 0.046070818 -0.084308326 -0.012357449 0.0361085
0.1620665 -0.0345234 0.16085225 -0.029734457 0.10515373 0.07842371 -0.030221371 -0.049709827
0.069671914 0.10148548 -0.064562745 0.16181228 0.026507432 0.15224472 0.0823965 0.1482922
-0.068198025 -0.08273773 -0.10570029 0.14176969 0.10731471 0.14541796 -0.24294579 -0.09980331
-0.05784653 -0.058295667 -0.06509933 0.02848451 -0.06518532 0.099818245 0.12596616 0.034206048
0.12477264 0.06386718 -0.054411888 0.11856095 0.1218812 -0.015385089 0.3053868 -0.06832964
-0.022005532 0.011958948 0.017713686 -0.041546177 0.098963864 -0.02519102 0.10987203 0.051625036
0.05956515 0.091486625 -0.07636659 -0.024582192 -0.012769272 -0.08004365 -0.018929625 0.01306756
-0.004034462 0.029222472 0.036944363 0.18465261 0.09094641 0.059071664 -0.043687657 0.12982368
-0.056439325 0.1867797 0.20155588 0.057483573 0.01695491 -0.054761164 -0.002101127 0.03859793
-0.031885482 0.036070447 0.022048557 0.055654828 0.0331962 0.036304858 -0.09259618 0.05031706
0.12345136 0.026671525 -0.04266531 0.07833441 -0.015993629 0.02559091 0.035609145 0.018158417
-0.00076490274 0.0010762475 0.03350271 -0.057168975 0.007848989 -0.02699822 0.015271495 -0.07371685
-0.07546684 0.037673198 -0.19327495 -0.108584434 -0.014779644 0.18024991 0.023086652 -0.069260515
0.02842197 -0.20170757 0.0015605512 -0.09677303 0.039420772 -0.014798912 0.11933027 0.10277071
-0.08673815 0.07358271 0.0066300896 0.16435462 0.19782983 -0.12180423 0.05353897 -0.01818622
0.025416005 0.092891745 -0.0034660297 -0.0038557681 -0.12906899 0.2557989 -0.06796707 -0.0432988
0.14679828 0.03829916 0.06490703 0.045008775 -0.09644369 0.03193707 -0.05586525 -0.016910503
-0.0044522006 0.015222318 0.08176246 0.02435515 0.20945525 -0.011528028 0.06000097 0.004482895

model.6.bias f4 [64]
00000000: b6e3 05bd 92a7 c4bc 8f69 e03c 3aed 93bc
00000010: 079c 3abd f6ff 263d c180 8fbd 2a2d f23c
00000020: 4eb4 acbc f974 11bd 244b 163c 3cfc 813d
00000030: cc5c 283d 82b2 0cbd 1983 96bd fa53 29bd
00000040: 0daf 253d 3fdb e33b 792f 81bd d847 e8bc
00000050: fb91 833d 29e9 d7bc fdbc d43c daaa 15bd
00000060: 9b99 b7bc 6bb0 193c 059d 4c3d 6651 dc3c
00000070: 8ac2 873c 8fc4 35bb 6e9f d13b 190f 723c
00000080: 8350 9abc 8b35 95bb 5a10 d8bb 2109 c73d
00000090: 9981 18bd c90b d9bc 168f fbbc 3d3a 063d
000000a0: bea0 1f3d a69a a23c c3fb 7bbd a49f e83c
000000b0: 1bb0 5e3c 7c43 c1bb 017c 9f3c 2fc5 1c3d
000000c0: 707e 8b3c f40e 40bd 0009 153c 512d 213a
000000d0: b8e3 72bd 7e99 53bb 68d8 843c d657 193c
000000e0: 8ca3 48bc 3fcb 093d 6713 c93b d9b9 ad3c
000000f0: 5d9f 633b 86e8 053d e08f 80bd c8d6 0b3d
-0.032687865 -0.024005685 0.027394084 -0.018057454 -0.045558956 0.040771447 -0.0700698 0.029562552
-0.02108207 -0.035511944 0.009173188 0.06346938 0.041104123 -0.034349926 -0.07349224 -0.041339852
0.040450145 0.0069536264 -0.06307883 -0.02835457 0.06424328 -0.026356297 0.025969023 -0.03653989
-0.022412112 0.00938044 0.049954433 0.026894283 0.016572256 -0.0027735566 0.0063971793 0.014774107
-0.01883722 -0.004553502 -0.006593746 0.09718538 -0.03723297 -0.026494877 -0.030707877 0.032770384
0.038971655 0.019849133 -0.061519396 0.028396435 0.0135917915 -0.0058979373 0.01946831 0.038273986
0.017028064 -0.04688926 0.009096384 0.0006148415 -0.0592992 -0.0032287533 0.016216472 0.009359321
-0.012246024 0.033641096 0.006136346 0.021206783 0.003473244 0.032692455 -0.06277442 0.03414038

fcs.0.weight f4 [6, 128]
00000000: cbd4 bdbe 34c2 6abe 69d7 a4bc 45d5 0a3c
00000010: 5b0f 0b3e 98df 813e 60b1 d9be 9651 c83d
00000020: 2f1e 70be 8d46 63be 593b d1b8 c562 33be
00000030: 8c3c edbd 8223 19bd d8e9 f0bb f61d 94bd
00000040: 9018 023e 9eca e63e de21 50be 8873 19be
00000050: c2bd 603d 3f7a d2bd b620 ec3d cde1 043f
00000060: 1d64 80bc 7966 95bd 7e6a 11bd efea a63d
00000070: 353e c1bd f360 a13e 265d 5fbe 60c5 96bd
00000080: 66fa 753e 9af3 fcbc 80d1 1d3e 1350 0dbe
00000090: fc95 ba3c b88b 07bc 7e33 883d 680e b83c
000000a0: 5a96 cabc 3591 3ebe 549a 9dbd 2847 a0bd
000000b0: 08ec 28bd 1c3d 6ebd 2c73 cf3d c1ec adbd
000000c0: 42d8 41be f31e 1fbe 6316 723e 1c8f a2be
000000d0: 9833 213e ca98 d3bd 293c a8bd b862 4ebe
000000e0: c992 b13d 4886 2d3d e91b f3bd 04a4 f7bd
000000f0: 9696 f53d c562 b8bc 8a30 3cbd d462 003d
00000100: 3a9c 4abc 185d 32bc dad1 55bd ebd1 04be
00000110: 2234 683c 89e4 c3bd 20f4 f8ba ca58 0d3d
00000120: 87e5 ef3b a9ec 1dbe 7ccf 37bd dfac 5f3d
00000130: 4486 74bc 3709 d8bc 26f9 4dbe cd27 9dbd
00000140: 92bb 163e 9c43 b53d 6026 7dbe 9d5f 5cbe
00000150: ad9b f1be bec0 d8bc c288 7dbe bbdd 99bd
00000160: 6e26 1e3e 36a5 2f3c 1c5a 943e 1305 b03d
00000170: bff1 8d3c 2229 0abd 55c4 01be 2c73 f3bd
00000180: 7472 d1bd f056 7abe c875 d93d 9636 273c
00000190: 3ad0 04bd 6a56 86bc 484a a3be c7af 26be
000001a0: 658c 493e 02e4 6dbb b704 81bd a2c3 62bd
000001b0: e582 dfbd b1bc a3be 5953 2b3c a067 c1bd
000001c0: ffcf 0dbe adf4 a1bd a4f8 b0bd acbb 34be
000001d0: 1176 01be 140a 84bd 768e 6abe ff3e 6a3d
000001e0: 9c0e 7cbc 0bce d2bd 4311 cd3c ada3 3fbe
000001f0: 9064 90bd 9d93 8c3d 7c41 cf3d 976d a43d
00000200: ed5b 9bbe 69f1 d73b 8ec2 eabc 893e b93c
00000210: 1882 023d 2bcf b63c 9ef9 473e 9127 89bd
00000220: d60f 8ebc c930 f43c 801b 14be 6cb6 27be
00000230: 1ea6 3e3e 1ec2 42be 238f 94bd 0628 433d
00000240: fb79 ba3d 9ad9 22bf 1fc5 ab3c c185 a9bc
00000250: 4915 a6bd 3b3a a4bd f83a 58be e303 9e3c
00000260: 5327 5e3c 0a8c e03c 39fa 5dbd 020a 2c3d
00000270: d5f3 0fbe 096b 9bbe e621 fe3d 6075 cd3c
00000280: ed08 e73d 1223 a9bd b7fd bbbd 2be4 28bd
00000290: 7c88 bb3c 6758 733d 8352 9e3c 6060 d4bc
000002a0: 2444 00be b25b 413c 7f20 20be d906 bcbd
000002b0: 9fae 8dbe 3f90 933d 7869 e13d 5c34 9dbd
000002c0: 5813 c6bd 11cc 1f3e 7a4b 493e eb03 4bbe
000002d0: 60d1 583d 7f44 0b3e fc3e 8ebe 809e 433c
000002e0: f2bf d1bd ee91 73bd e5a0 bfbd ef29 c2bd
000002f0: 4fdb c3bd 5ae0 523d aa18 cf3d fc34 fcbc
00000300: f5d0 4d3e c814 b1be 0fa9 93bd 24aa b53d
00000310: 8bde e43d e674 9ebd 3e82 35be ee1e d3bd
00000320: 8afb 14bb 512f 153d 1158 b8bc eb6e e93c
00000330: 71c3 22bf bdb1 3d3d 8989 9bbd 08d2 4f3c
00000340: 88b2 c4bd ea17 a93c c1a2 9ebe 6bd6 863c
00000350: d600 e83d d0ee 493d 5cc9 933d f888 313d
00000360: 1664 173d a863 4dbd 09a2 543c e4bb 993e
00000370: 0629 ca3c b281 91be 378f 9b3d 9a8b bcbc
00000380: fa53 543c 1043 703e ce72 0bbf f708 d13d
00000390: ffbc 8ebe 6cae 6bbb dfb5 68bd b19f 9cbd
000003a0: 1fb5 76bd 25a2 cf3d f118 6fbd 308b 833c
000003b0: 9ebc bcbc 18d1 89be 170f 53be d508 ee3c
000003c0: be03 91be e4a3 553d 952a 03bf 0e51 5abc
000003d0: e36b 3cbd 9afc e03d c4c1 c03c e05a 89bd
000003e0: f108 f3bd 9f04 fabd eeef 2abe 4ee4 a53d
000003f0: 2097 46bc 14aa 293d ed0e 3abd c6a9 22bd
-0.3707641 -0.22925645 -0.020122247 0.008473699 0.13580076 0.253659 -0.4251814 0.09781186
-0.23449014 -0.22194882 -9.976951e-05 -0.17518146 -0.11583814 -0.03738738 -0.007352095 -0.07232277
0.12704682 0.4507646 -0.2032542 -0.14985478 0.054868467 -0.10277223 0.115296766 0.51907045
-0.015672738 -0.07294936 -0.03550195 0.08150279 -0.09435693 0.3151928 -0.21812877 -0.07361865
0.240213 -0.030877877 0.15411949 -0.13800077 0.022776596 -0.008273058 0.06650446 0.022467807
-0.024729896 -0.1861008 -0.076954514 -0.07826072 -0.041240722 -0.058163747 0.10129389 -0.08492423
-0.18930152 -0.1553915 0.23641352 -0.3174981 0.15742338 -0.103318766 -0.082146 -0.20154846
0.08670575 0.04236439 -0.11870558 -0.120918304 0.119916126 -0.022508034 -0.045944728 0.03134425
-0.012366349 -0.010886453 -0.052202083 -0.12970702 0.014172586 -0.09565074 -0.0018993653 0.034508504
0.007321063 -0.1542231 -0.044875607 0.054608222 -0.01492459 -0.026371581 -0.20114574 -0.07673607
0.1471999 0.08850786 -0.2472167 -0.21520849 -0.47189084 -0.026459094 -0.247592 -0.07512995
0.15444347 0.010720542 0.28974998 0.08594718 0.017327188 -0.033730634 -0.12672551 -0.11887202
-0.10226908 -0.24447227 0.10618168 0.010205885 -0.032425143 -0.016398627 -0.3189261 -0.16277991
0.19682463 -0.0036299233 -0.062997274 -0.05536235 -0.10913638 -0.31979898 0.010456883 -0.09443593
-0.13848875 -0.07907996 -0.086411744 -0.17649716 -0.12642695 -0.06447235 -0.22905907 0.057188984
-0.0153843425 -0.10293206 0.025032645 -0.18714781 -0.07050431 0.068640925 0.10119912 0.08028715
-0.3034357 0.0065900576 -0.028657224 0.022612827 0.03186235 0.022315582 0.19528815 -0.06697
-0.017341536 0.029808419 -0.14463615 -0.16378182 0.18618056 -0.19019362 -0.07253864 0.04764559
0.09105297 -0.63613284 0.020968018 -0.020693662 -0.081095286 -0.08018919 -0.21116245 0.019288963
0.01355918 0.027410526 -0.05419371 0.04200173 -0.14057858 -0.303551 0.12408809 0.025080383
0.11280999 -0.08258642 -0.09179252 -0.041233223 0.02289223 0.05941048 0.019326454 -0.025924861
-0.12525994 0.011801647 -0.15637396 -0.091809936 -0.27672288 0.07205247 0.11006445 -0.076760024
-0.09671658 0.15605189 0.19657698 -0.19825713 0.05293405 0.13600348 -0.27782428 0.011939645
-0.10241689 -0.05946534 -0.0935686 -0.094806544 -0.09563314 0.05148349 0.10112126 -0.030786984
0.20099242 -0.34586167 -0.0720998 0.088703424 0.11175259 -0.0773714 -0.17725465 -0.10308634
-0.0022732937 0.036422078 -0.02250293 0.028495273 -0.6357947 0.046312083 -0.07594592 0.012684353
-0.09604365 0.020641286 -0.30983546 0.016459664 0.113282844 0.049300015 0.07216141 0.043343514
0.036960684 -0.050143868 0.012978085 0.30026162 0.024677765 -0.28419262 0.075956754 -0.023015786
0.012959475 0.23463082 -0.54472053 0.10206788 -0.27878568 -0.0035962118 -0.05681407 -0.07647646
-0.060231324 0.101383485 -0.058373395 0.01605758 -0.023039158 -0.26917338 -0.20611225 0.029056946
-0.28323168 0.05215825 -0.5123685 -0.013324989 -0.046001326 0.1098568 0.023529895 -0.06706786
-0.1186694 -0.12207913 -0.16693088 0.08100186 -0.012120992 0.041421965 -0.04542439 -0.03971269

fcs.0.bias f4 [6]
00000000: db6d 683d fa7c 5b3d b14f 62bd cd83 34bd
00000010: 3c23 a33d f53e 1e3d
0.05674539 0.053585984 -0.05525178 -0.044071008 0.07965705 0.03863426

fcs.1.weight f4 [6, 128]
00000000: ba2d 3dbe 585a e23b ea7f 5cbd e203 083d
00000010: aa02 fcbc 4cc4 113e 9cb6 503d 4005 d4ba
00000020: 8b01 85bd c865 19bd 1dbc 92bd c889 71bc
00000030: 459b 0c3d 735e 393c 1f10 013e c5f2 d83c
00000040: fa1a 563c 3318 43be fc45 99bc ea1a 1fbb
00000050: 46b3 5c3d 2ace abbd 6213 813b 0550 aa3d
00000060: 4616 a3bb 882b 6dbb ff5d b03d da9a d4bc
00000070: dafc acbd ebd6 7dbd c07f 413d d4f6 b23c
00000080: 549c c73c 66ab 9bbd 4a8b b0bd f0a8 09be
00000090: a204 923c 600b 88bd 07f7 873d 3320 1a3d
000000a0: b6c2 ddba 6db0 28bd 00bf a3bd eadc a73d
000000b0: d6c2 e0bd 7b6a 1ebd 776b 2e3e 0597 46bd
000000c0: 1835 cdbd fcdb 28be e53f 3e3c 06b4 9fbe
000000d0: fe7e ab3c 148a c73d a2db 6ebe b25c 34be
000000e0: 9294 87bd cc1f 903c a253 053d 2f34 583d
000000f0: d329 223b 4e4a debd 4d0c 743e 117a 5e3d
00000100: 7367 ef3a 11bf 15be fe37 73be c479 103d
00000110: f684 80bd 1cf5 74bd dd31 92be 6cf2 023e
00000120: a9a8 b6bd 9aac 87bb cef3 7d3d b825 adbd
00000130: 5a4e 8cbe 65d6 d6bb de77 e6bd 2a1b adbb
00000140: e9a4 2d3e 07a9 8bbb 5ca5 72be 3787 983c
00000150: fbdd 243d 0411 1f3b 127f 9dbd efb9 b93d
00000160: a2a2 973d 12eb dc3d 9357 4e3e 2f72 663e
00000170: 023d f53c a48a cdbd 8bf8 13bd a2e1 0ebb
00000180: 0271 68bd 5743 4c3e 6e82 86bd c83f 273e
00000190: 9ac2 16be 9310 d43d 2776 60be d00b 94bd
000001a0: f21c 88bd 2e3a c03d 1949 023d ede4 f3ba
000001b0: 2649 d83d cecc a4be 7ee0 1cbe b6be 2dbd
000001c0: 926e c1bc a467 2b3d 0b95 a9be 630c beb9
000001d0: 9713 ad3b 618f dabd 494e 463d 3e4b 3b3c
000001e0: ff52 123c ecdb 38bd f0fc 46bd 362f 903c
000001f0: d4c0 c83c 3df1 54bd d1f1 963d 1071 673a
00000200: 715b 6fbe 73b8 e4bd 79d2 843d 7859 b9bc
00000210: 19c0 063e 9a11 64bc 68a1 0ebe 286f b33d
00000220: 9c36 f3bd 695f 9abc d888 46be d646 32bd
00000230: 4763 d8bd 9ef5 433c 3df3 2bbc 0ed7 7e3d
00000240: d6d6 883e 67f2 443e 83c9 37bd ca18 84bd
00000250: 789a 523d 5afe f4bd 7bf2 debd d4b9 703e
00000260: 0811 5abd 3834 acbd 581f 893c a6ce 45bd
00000270: 8ebf 6abe bdb5 a53d 93bb f8bd 43cc 72bc
00000280: d440 433e 8f01 ae3c 424f 6dbe 19ad 60be
00000290: d40f d53c c1a2 bcbc 72a0 423d 8430 463d
000002a0: f601 1fbe a0e9 c83d ba1c 76bd ec06 b5bc
000002b0: b503 11be 502f ea3d 8421 bc3d 6bb6 80be
000002c0: 710b 92bd c145 223d 2de8 1e3e 100d 60be
000002d0: 967b 173e 820f 4a3e 5530 f3bd 2e66 70be
000002e0: 9ca4 2abe 0219 dbbd 416e cebd 9e7f 86be
000002f0: 8991 19be 3214 49bd 73b8 513d eaf7 873d
00000300: 0a52 843d af99 063c c251 37be 74f4 8ebd
00000310: afca 54be 8093 0b3e f57a a93d 0d92 263e
00000320: 400a cabc 894d d6bd ba93 1f3d c32d 2ebd
00000330: 9243 54be 267b a5bd 5c8d bc3c 564f ab3b
00000340: d6cc f93c 46c4 6abc ee96 f2bd f7fa 193e
00000350: 7cdc a2be e08a d8bd 4e8e cd3d 6f57 22be
00000360: 0124 043e 4221 9b3b 97c4 813e aee0 3d3d
00000370: cd54 5c3c aa73 403d e712 43be 1ee8 fabd
00000380: bfad f6bd 6008 27be d0f6 1bbe dd7a fdbb
00000390: a9f7 d8bc 1ace 40be 58ac 7cbe f04c 423c
000003a0: 1eaa 773d edd0 153e e8ed 0dbe 97ae 4fbe
000003b0: f7e5 32bd 3290 e7bd 62e1 53be 128e b6bd
000003c0: e259 e6bd f0fc 87be 4a6b 4f3d 2893 0fbc
000003d0: c113 83bd cf83 613d ee59 dbbc acb5 243e
000003e0: ce79 df3d 933b 1ebe 5aaf 04be d997 01bd
000003f0: 68a5 a3bc 8b3a 9d3d 6c6d 2a3e dcf5 f03d
-0.18474475 0.0069077425 -0.053832926 0.033206828 -0.03076299 0.14235038 0.0509554 -0.0016175881
-0.06494435 -0.03745058 -0.07164786 -0.014742322 0.034327764 0.011314022 0.12603806 0.026482949
0.013067955 -0.190522 -0.018710129 -0.0024277517 0.053881906 -0.08388932 0.003939078 0.08316044
-0.0049770204 -0.0036189277 0.08611678 -0.025952745 -0.08446665 -0.06197254 0.047240973 0.021846212
0.024366535 -0.07601051 -0.08620317 -0.13443351 0.017824475 -0.066427946 0.066389136 0.037628364
-0.001691899 -0.041183878 -0.07995415 0.08196433 -0.10974662 -0.038675766 0.17033182 -0.048483867
-0.100198925 -0.16490167 0.011611913 -0.31192034 0.020934578 0.09743133 -0.23325971 -0.17613485
-0.066201344 0.017593287 0.03255046 0.05278414 0.0024744167 -0.10854016 0.23832817 0.05431563
0.0018265083 -0.14623667 -0.23751828 0.035272375 -0.0627536 -0.059804067 -0.28553668 0.12787789
-0.08918888 -0.0041404488 0.06200009 -0.0845446 -0.27403527 -0.0065563195 -0.112533316 -0.005282779
0.1695744 -0.004262093 -0.23695892 0.018619163 0.04025076 0.0024271617 -0.07690252 0.09068667
0.074040666 0.107870236 0.20150594 0.22504495 0.029936317 -0.10036209 -0.0361257 -0.0021801968
-0.056748398 0.19947563 -0.06567846 0.16332924 -0.14722672 0.10354724 -0.21920072 -0.072288156
-0.06646146 0.09386097 0.031807993 -0.0018607654 0.10560827 -0.32187504 -0.15320012 -0.042418204
-0.023612294 0.041846886 -0.33121523 -0.00036248853 0.0052818763 -0.106718786 0.048414502 0.011431513
0.008930921 -0.04513161 -0.048581064 0.017600637 0.02450601 -0.051987875 0.073703416 0.00088287983
-0.23374726 -0.111679934 0.06485457 -0.02262567 0.13159217 -0.013920212 -0.13928759 0.08761436
-0.1187565 -0.018844323 -0.19388139 -0.043524586 -0.10565811 0.011960415 -0.010495004 0.06221681
0.26726407 0.19233094 -0.04486991 -0.06450041 0.051416844 -0.11962576 -0.10886093 0.23508388
-0.0532389 -0.084083974 0.016738579 -0.04829278 -0.22924635 0.080913045 -0.12145152 -0.014819208
0.19067699 0.021240978 -0.23174766 -0.21941032 0.026008524 -0.023026826 0.047516294 0.04838611
-0.15528092 0.098101854 -0.06008599 -0.022098027 -0.1416157 0.114348054 0.0918608 -0.25139174
-0.071310885 0.039617304 0.15518256 -0.21879983 0.14793238 0.19732478 -0.11874453 -0.23476478
-0.16664356 -0.10698129 -0.10079623 -0.2626924 -0.14996924 -0.049091525 0.051201295 0.06639083
0.0646096 0.008215352 -0.17902282 -0.069802195 -0.20780443 0.13630486 0.08275405 0.16266651
-0.02466309 -0.104640074 0.038959242 -0.04252411 -0.20728901 -0.08080129 0.023016624 0.0052279634
0.030493181 -0.014329022 -0.11845194 0.15037142 -0.3180884 -0.10573363 0.10036908 -0.15853666
0.1290436 0.0047341892 0.253453 0.04635685 0.013447952 0.046985306 -0.1905018 -0.12251304
-0.12044858 -0.16311789 -0.1523087 -0.0077355937 -0.026485281 -0.18828622 -0.24675119 0.011859164
0.06046497 0.1463048 -0.13860285 -0.20281444 -0.043676343 -0.113068 -0.20691445 -0.089138165
-0.112476125 -0.26560163 0.05063943 -0.008763112 -0.06400252 0.055057343 -0.02677628 0.16084927
0.10911904 -0.15452413 -0.12957516 -0.031638954 -0.019976333 0.07677182 0.16643304 0.11765644

fcs.1.bias f4 [6]
00000000: be60 c53c 128d b73b 94d7 9b3d bb6e b1bc
00000010: d83d c23a b61b 40bd
0.024093982 0.0056015337 0.07609478 -0.021659246 0.0014819456 -0.046901427

fcs.2.weight f4 [6, 128]
00000000: f45f a6be 4e14 49bc 4461 afbc 2084 a6bb
00000010: d771 95bd ccf4 243e 04fa 803e 4fc3 053e
00000020: 2c5f 1cbe 328d d23b 8f84 993c bba0 0cbe
00000030: 66e8 67be 3556 593d 90a6 d73c 6b1e b8bd
00000040: c6d8 b13e 903c b13c c4eb b0bd 1d59 2e3c
00000050: 68c6 b6bd 573f 883c 932e b93d e185 733e
00000060: fa00 eb3c 4b39 d1bc 2bcf 8e3d d0c7 63bd
00000070: 243d 6a3e ba5d ec3e c2d0 04be 9819 153e
00000080: efa7 c43c ad4e 2dbe 4224 ebbb f495 aabc
00000090: a3db 90bd 6447 1bbd 0cac 553d ae13 a0bd
000000a0: f2e0 62bd 9e95 1c3c 1e59 d1bd 4e3b 6c3d
000000b0: d6d7 afbd acab 2ebe fc24 d3bd 12b5 9c3e
000000c0: 9bfb 8bbe deba cc3b d4f0 1a3d 34e4 bcbe
000000d0: b4a0 613e db0f a4bd 7b44 bb3c 5364 eb3d
000000e0: 3761 03be 00e1 11be 4266 73bc ea8b 353c
000000f0: d47d bebd 0ed6 a4bc 385d 5cbd 7d9d abbd
00000100: 7047 07be 7358 4ebe c15f db3d 0f22 a3be
00000110: 6f4b 13be 7cc2 e83d 0563 1dbe a618 f13d
00000120: 0bab b4bd 1ab3 2dbd f73a 513d df20 783b
00000130: 6e63 aabe eac0 6cbd 8f27 f4bd f0e2 bcbc
00000140: f01d e83d 9b26 483d b206 78bc 78cb 343d
00000150: 7a30 86be 5c22 b7bd 1060 ae3d 6200 0b3c
00000160: 69be ef3d e76b fb3d 9bda b13e 2928 093e
00000170: 6af9 a1be 5524 afbd 0a47 00be 7e09 f23c
00000180: 9c73 a13b 33b7 36bc 919e b0be fe59 093c
00000190: bf8f c93b 9934 b33d b85c 9bbc 6dac 6dbe
000001a0: 0b8c 8b3e 0eb2 9a3d fa95 72bd 3e27 96bd
000001b0: 6b0d 53be dc17 b23d 9146 0fbe 1050 6e3c
000001c0: b512 693d 1918 c33c 1e56 d6bd d1eb a3bd
000001d0: 0dc7 5bbe f91e 333c d4d9 2dbe e95d d3bc
000001e0: c443 0ebe 6140 ebbd 59e4 10be d3e9 88be
000001f0: 78b9 c53c 1259 3bbb 6a34 493e 56de adbd
00000200: d7a4 8bbe ad30 d83d d1cb a3bd 0097 aabb
00000210: ff75 93bd 5cc1 613d 706b ad3c f96b ebbd
00000220: 265d 96be fed4 bfbd c83c 403d 4aeb 5a3d
00000230: be5b 2fbd 7254 77bd e40a 0e3e 38f6 8c3c
00000240: 6e0b 55bd 3f75 bf3c 886d 39be 443b f6bd
00000250: 3ef2 cb3d 23c6 cdbd dd5e f33d 126f ad3e
00000260: d289 cf3b 1951 273d 3afb f5bc e0ba bfbb
00000270: 2bd6 01be 3c64 ab3d ce41 3cbd fff3 2dbc
00000280: c3a0 3d3e d6c4 d13d 8c5f cbbd fd39 16be
00000290: 40ab a43d f4d2 bc3c 4156 313d 5d65 333d
000002a0: 4be9 69be 82d9 bfbd dc00 a33c 76bc dc3d
000002b0: ae94 953c fc58 ebbd 2938 353e f96a 81be
000002c0: 0b03 f0bd ad57 4bbe 943b bbbd bff8 d3be
000002d0: 7e51 f23d 9c35 8a3e 1d4a 073d 8525 31be
000002e0: d586 21be d64e f93d 5a40 47be 3654 523d
000002f0: 3268 d9bd 8316 2c3d 9511 353e d074 acbd
00000300: 4d09 d6bc 8350 773d 7d40 42be ae48 11be
00000310: 3cdc 40bd 964f f6bd bb8d 76bd bc19 73bd
00000320: 5079 c5bd 38a5 1cbd 0c9e 33bd 4e48 9e3d
00000330: b6b6 edbd 1813 b83d 5182 07be 342b e0ba
00000340: 8ec2 a33e 7e14 903d c260 c43a 5ab6 13be
00000350: 8462 11be 99e8 73bd 4ff2 0fbe 7abe 80be
00000360: 1a6e 593e b658 8fbc f856 5a3d 0d80 0e3e
00000370: 3e87 2bbe 89d7 323e 7704 50be d21a 803c
00000380: 66e6 063d 3620 683d 4952 00bc 0869 8e3e
00000390: 008e 77bd 4e47 19bd 6451 78be f2d4 9bbb
000003a0: 45b2 953e 5c5d e83d 159f 5a3d 0898 8ebd
000003b0: d294 7cbe b3e6 43bd 8cc7 10be 2298 b0ba
000003c0: eaca 27be 5ada 1dbe eaab 24ba 5ec5 4d3d
000003d0: a982 f5bd 76c7 dabd 32f1 88bd 5518 f9bd
000003e0: e601 52bd bb18 6abc 98df 92bd cbc4 b2bd
000003f0: 8a05 163d 0611 aabc 6d2c 7f3e e3dc 4f3e
-0.3249508 -0.012272907 -0.021408685 -0.0050816685 -0.07297104 0.16109008 0.25190747 0.13062786
-0.1527068 0.006425523 0.018739967 -0.13733189 -0.22647247 0.05306073 0.02632454 -0.08990177
0.34735698 0.021635324 -0.08638719 0.010641363 -0.08924562 0.016631765 0.090420865 0.2378154
0.02868699 -0.025540015 0.06973108 -0.055610478 0.22874886 0.46165258 -0.1297026 0.14560544
0.024005858 -0.16924544 -0.007175953 -0.020823456 -0.070731424 -0.03790988 0.05216603 -0.078162536
-0.055390306 0.009557156 -0.10222076 0.057673745 -0.08586089 -0.17057675 -0.103097886 0.30606896
-0.27340397 0.0062478622 0.037827328 -0.36892855 0.2203396 -0.08010837 0.022859802 0.11493745
-0.12830053 -0.14245987 -0.014855923 0.011080721 -0.093013436 -0.0201216 -0.053799838 -0.08379648
-0.13210845 -0.20150928 0.10711623 -0.31861922 -0.14384244 0.1136522 -0.15369804 0.117722794
-0.08821686 -0.042407133 0.051081624 0.003786139 -0.33278984 -0.057801165 -0.11921608 -0.023057431
0.11333835 0.048864942 -0.015138315 0.044139355 -0.2620886 -0.089421004 0.08514416 0.008483978
0.1170624 0.1227644 0.34737095 0.13394226 -0.316356 -0.08551852 -0.12527099 0.029545542
0.004927112 -0.011152077 -0.34495977 0.008383272 0.006151169 0.087502666 -0.01896511 -0.23210306
0.27255282 0.075534925 -0.05922506 -0.073317036 -0.20610587 0.08695957 -0.13991763 0.014545456
0.056902606 0.023815202 -0.10465644 -0.08003963 -0.2146265 0.010932677 -0.16977626 -0.025801616
-0.13893038 -0.11486889 -0.14149608 -0.26740894 0.02413629 -0.0028587026 0.196489 -0.08489673
-0.272742 0.10556159 -0.07997859 -0.005205989 -0.0720024 0.055116042 0.021169394 -0.114952035
-0.29367942 -0.09366797 0.046932966 0.053447045 -0.0428121 -0.060383268 0.13871342 0.01720725
-0.052012853 0.023371337 -0.18108189 -0.12023023 0.099583134 -0.10047557 0.11883328 0.33873802
0.006333568 0.040848825 -0.03002702 -0.0058511347 -0.12679355 0.083687276 -0.045961194 -0.010617255
0.18518357 0.102426216 -0.099303335 -0.14670558 0.08040476 0.023049809 0.04329515 0.04379784
-0.228429 -0.09367658 0.01989787 0.107781336 0.018259373 -0.11491582 0.17697205 -0.25276926
-0.117193304 -0.19857664 -0.09142223 -0.41400716 0.1183195 0.26994026 0.033029664 -0.17299469
-0.1577409 0.1217324 -0.19458142 0.05134984 -0.10615577 0.042013656 0.17682488 -0.08420718
-0.026127482 0.060379516 -0.18969913 -0.14187881 -0.047085032 -0.120268986 -0.06019376 -0.059350714
-0.09642279 -0.038243502 -0.043851897 0.07728635 -0.11607115 0.08988017 -0.13233306 -0.0017102719
0.3198437 0.070351586 0.0014982449 -0.1442503 -0.14197737 -0.059547994 -0.14057277 -0.25145322
0.21233407 -0.017498355 0.053305596 0.13916035 -0.1675081 0.17465033 -0.20314203 0.015637789
0.03293457 0.056671344 -0.007832118 0.27814507 -0.060438156 -0.037421517 -0.24249798 -0.0047556097
0.2923757 0.11345932 0.05337437 -0.069625914 -0.24666145 -0.047827434 -0.14138621 -0.0013473073
-0.16386 -0.15415326 -0.00062817207 0.050237052 -0.11987812 -0.106825754 -0.06686629 -0.12162844
-0.05127134 -0.014288123 -0.071715534 -0.087289415 0.036626376 -0.02076007 0.24919291 0.20299105

fcs.2.bias f4 [6]
00000000: 7a28 a7bd e798 993c 8cad afbc 28bb 6ebd
00000010: aab7 6abd 7214 453c
-0.08162017 0.018749667 -0.021445058 -0.058283955 -0.057304062 0.0120288
