models/Free_Pilot_v1.pt (torch, 60748 bytes, 10 tensors)

0.weight f4 [4, 2, 3, 3]
000000 46 dd 89 3e a2 18 26 be 6f 29 03 be e3 dc 3b be
       0.2692663 -0.16220334 -0.12808774 -0.1834598
000010 d1 f3 1c 3d e4 3f 98 3d 7d 4f 2f 3e 34 e6 25 be
       0.03831846 0.07434061 0.17120166 -0.16201097
000020 d1 42 d3 3d ee 79 00 40 4a 99 c0 3f 8d fa f3 be
       0.103154786 2.007442 1.504678 -0.47652093
000030 95 87 a9 bf bd 62 87 bf 0d 32 25 bf 14 d1 c4 3f
       -1.3244501 -1.0577008 -0.64529496 1.5376306
000040 69 41 33 3f 6e 53 aa be fa a4 a3 3c a7 3a 4f 3e
       0.7002168 -0.33266777 0.019976128 0.20237218
000050 c8 06 50 be 89 1c d6 bd 7d 82 7f bd 65 c9 df 3c
       -0.20315087 -0.104546614 -0.062380303 0.027317712
000060 91 2c b2 bd ca c6 ce 3d cf e5 1a 3e e9 9b c5 bf
       -0.086999066 0.1009651 0.15126728 -1.5438205
000070 40 89 f5 bf e4 5a 52 3f 26 68 8a 3f 4f 65 8d 3e
       -1.918251 0.8216994 1.0813034 0.27616355
000080 4d fa 54 3e cd 51 04 c0 11 d7 8d bf 0c e9 42 bf
       0.20798607 -2.0674927 -1.1081258 -0.7613685
000090 45 ec a4 3d 54 09 df 3b cd 1f 66 bd e6 bb 81 3e
       0.08052877 0.006806532 -0.05618267 0.25338668
0000a0 cf 76 9a bd db 42 2f be 48 50 c6 3d c0 b4 0f 3e
       -0.07542192 -0.17115347 0.09683281 0.14033794
0000b0 62 e0 9a be fd 2f 00 c0 64 ec 95 bd e7 de a7 bf
       -0.30249316 -2.002929 -0.073204786 -1.3114899
0000c0 d8 5e 39 3f 85 89 23 3f 49 eb 62 bf 74 be e4 bf
       0.72410345 0.63881713 -0.88640267 -1.7870622
0000d0 ad 46 cb bf a6 93 b5 3e 2a fd 1f be 0f 1c 02 be
       -1.5880944 0.3546421 -0.15623918 -0.12706016
0000e0 72 cc 88 3e ca ae 43 3e 5e cf 89 bd 41 32 a9 3d
       0.2671848 0.19109645 -0.06729005 0.08261538
0000f0 3d be 87 3d a2 29 e8 bd 79 ca 97 bd 5a 42 e0 3f
       0.06628082 -0.11336066 -0.074116655 1.7520249
000100 95 8d 2e 3e 1e 6c 42 3e 0c f7 69 3e 2a 6d a6 3d
       0.17046197 0.18986556 0.22848147 0.0812629
000110 93 35 32 bf 12 49 9f 3f 85 f3 de 3f d6 df 7e be
       -0.69613 1.2444174 1.7418066 -0.24890074

0.bias f4 [4]
000000 cd 42 14 bd de cd 07 bd f2 57 45 3d 1d 3c 78 be
       -0.03619652 -0.033155315 0.048179574 -0.24241681

1.weight f4 [8, 4, 3, 3]
000000 fb b6 34 be f0 77 98 be 62 c9 22 bc 95 f6 a9 bb
       -0.17647927 -0.29779005 -0.009935709 -0.0051868656
000010 b8 55 b8 39 63 b5 5f 3e d8 de b0 be 47 84 88 be
       0.0003515908 0.21846537 -0.34545016 -0.2666342
000020 e7 a9 d0 3d 0d 49 35 3e ca 6a 20 bd be e7 b7 bb
       0.10188656 0.17703648 -0.039164342 -0.0056123426
000030 c4 8d e2 bd ef c2 88 bd c0 bd d5 be 42 18 1b 3e
       -0.11062196 -0.06677806 -0.4174633 0.15145972
000040 76 cb ce 3d 5b e1 ac 3d 12 c8 39 be 56 a3 16 3e
       0.10097401 0.08441421 -0.18142727 0.14710745
000050 b2 0d 07 3e 98 9c 24 bf 59 b7 e6 bd b9 12 44 be
       0.13188818 -0.64301443 -0.112654395 -0.19147767
000060 02 dd a5 3e ec 8e 9b 3c 5c ed b3 3d c5 a7 22 bd
       0.32395178 0.018989049 0.08785507 -0.03971078
000070 1e 18 c2 bd ff a9 b0 3e e2 3f 94 3e 38 11 82 bc
       -0.09477256 0.34504697 0.2895499 -0.015877351
000080 14 07 8b 3e 98 39 2f 3d 00 e7 ac 3d 35 7d a4 3d
       0.27153838 0.042779535 0.08442497 0.08031694
000090 86 93 4a be 5f e2 2d be c7 63 8d 3d c1 5b 5a 3d
       -0.19782838 -0.16980885 0.06903797 0.05331016
0000a0 11 b5 0e 3e 6a 1b 1f 3e c5 39 94 be 9e 24 40 bd
       0.13936259 0.15537801 -0.28950325 -0.04690992
0000b0 9e 2b c7 ba 01 09 9a 3d d9 bf 7f 3b b3 29 62 be
       -0.0015195494 0.075212486 0.0039024262 -0.2208622
0000c0 81 19 66 be b0 77 4f be 1f c7 3f be 32 50 2e 3e
       -0.22470666 -0.20260501 -0.18728302 0.1702278
0000d0 6d 3c 80 3e e0 b5 7a be fc 13 29 3c e8 35 ef 3d
       0.250461 -0.24483442 0.010319706 0.11680204
0000e0 ec f9 e2 be bf 26 c6 be 20 fa 65 bf 1e d5 23 be
       -0.443313 -0.38701436 -0.89834785 -0.15999267
0000f0 12 91 e6 3d 0f cc d7 3d b4 3d 90 3d cf 66 0e be
       0.11258139 0.10536968 0.07043019 -0.13906406
000100 8a f3 b9 bc 42 56 cc 3e c4 13 9b 3d b9 00 4f 3e
       -0.022699136 0.3990956 0.07572129 0.2021512
000110 40 32 73 bd 5f 55 d7 bc 08 6f b9 bd e1 74 d3 3d
       -0.059374094 -0.026285825 -0.09054381 0.10325027
000120 f4 5b 11 3f c6 66 4c 3e 39 76 a8 bd 6b 8e 61 be
       0.56780934 0.1996108 -0.08225674 -0.22026984
000130 ca cf a4 3d 31 42 83 3e a8 af 0c bd 36 d3 25 3e
       0.08047445 0.25636438 -0.034347206 0.16193852
000140 88 48 d6 bc 13 2d 68 be 80 ed 98 be 5a 05 db 3d
       -0.026157632 -0.22673444 -0.29868698 0.1069438
000150 7f 52 85 3e 0a 5f 24 3d e9 8d 4b 3c cb 38 b0 bd
       0.26039502 0.0401297 0.012423971 -0.086045824
000160 1b b9 6d 3c 73 97 a8 be aa dd 25 bf 31 63 11 bf
       0.014509465 -0.32928047 -0.6479136 -0.5679198
000170 2b 56 cc be df 14 f6 3d 23 ee 34 be 74 81 e8 be
       -0.3990949 0.120156996 -0.17668967 -0.45411265
000180 42 06 cb bd 4a 0d 4f be cc fd 8a 3d 1e 28 cf bb
       -0.09913303 -0.20219913 0.06786689 -0.006321921
000190 72 05 84 3e 5f 4d 9c 3e 19 c8 ca 3d 56 67 df 3c
       0.25785404 0.3052778 0.09901447 0.027270954
0001a0 82 00 88 3e cd cd 1a 3e b3 29 7d 3e d3 f2 3b 3e
       0.26562887 0.1511757 0.24722938 0.18354349
0001b0 78 40 f2 3e 51 ec fe bc 7e a6 ef bc 21 74 83 be
       0.4731481 -0.031118544 -0.029254194 -0.25674537
0001c0 ce d0 0c 3e 51 3d 11 3e a6 82 ce 3e e7 af 24 be
       0.13751528 0.14183547 0.40334052 -0.16082726
0001d0 1a d4 f7 bd e0 b3 8a be e0 61 9a 3e 83 fc ba 3e
       -0.12101002 -0.2709036 0.30152798 0.36520776
0001e0 3a 50 f6 3d 35 97 db bc 14 f4 c5 bd 1d 98 52 bd
       0.12027021 -0.0268055 -0.09665695 -0.051414598
0001f0 b8 eb 05 3e 51 ce 7c 3e 0a 42 33 be 12 f8 15 be
       0.13078201 0.24688078 -0.1750566 -0.14645413
000200 69 bc 14 3f ba a6 85 3e a6 9f 6b 3e 60 b8 e4 3c
       0.5809999 0.26103765 0.2301012 0.027919948
000210 88 3d ef bc 6b 19 8c 3d aa 8d ed 3d f6 da 67 3c
       -0.029204145 0.068407856 0.11599286 0.014151325
000220 73 9d 92 bd 06 97 d4 be 56 64 9d 3d 92 b4 2f bd
       -0.07158937 -0.41521472 0.07685153 -0.042896815
000230 a8 4f 23 3e ee 7b 56 3d 6d 03 11 3d 4a 38 49 bd
       0.15948355 0.052364282 0.035403658 -0.049125947
000240 32 84 e5 3e 88 fe 26 bd 14 cc e4 bd 1b 48 b5 be
       0.4482742 -0.040770084 -0.11171737 -0.35406575
000250 73 db 82 bd 11 94 61 3e 57 37 48 3e b7 d3 dc bc
       -0.06389513 0.22029139 0.1955236 -0.026956422
000260 10 28 0c bd 83 8b 96 be f4 e5 3b bc 64 65 6a 3e
       -0.034217894 -0.29403314 -0.011468399 0.2289024
000270 cb b9 63 3e dd 1c 94 be 74 79 36 3c 92 00 93 be
       0.22238843 -0.2892827 0.011137355 -0.28711373
000280 3a 7e 79 bd 63 6d 75 3e 2e 64 32 bf 25 66 ac 3d
       -0.060911395 0.23967509 -0.6968411 0.0841792
000290 c8 9d fe bd a2 bb 27 be a1 ea 1d 3f 38 b8 6d be
       -0.12432438 -0.1638017 0.6168614 -0.23214805
0002a0 e3 63 94 bd 24 a6 cf 3e 1e d7 39 be b9 e8 a5 3d
       -0.072456144 0.40556443 -0.18148467 0.08101029
0002b0 08 c7 09 bd 38 3a a7 3d 50 55 39 bc 04 36 48 bd
       -0.033637077 0.08165401 -0.011311844 -0.04887964
0002c0 d2 12 49 3e 43 1b 64 3e 1d 83 24 be 77 ab 2c 3e
       0.19636086 0.22276025 -0.16065641 0.16862284
0002d0 56 5e e6 bd 88 cb 41 3d e7 2c 06 be f0 85 12 3e
       -0.11248462 0.047313243 -0.13103066 0.14308906
0002e0 6a c9 95 3e 58 c0 6b bd 1a e4 66 be cc de a8 be
       0.2925523 -0.05755648 -0.22547951 -0.3298248
0002f0 7c 0c 54 be ef 5b 16 3e cc 31 de bd 0f 35 73 3e
       -0.20707887 0.14683507 -0.10849342 0.23750709
000300 b2 9c 5a be c3 7c e9 be 18 ee 00 3e 3a 5a a6 3e
       -0.21348837 -0.45602998 0.12590826 0.32490712
000310 c2 56 a9 bb 2d f0 77 3e 27 b4 dc 3e d3 52 56 3d
       -0.005167813 0.24212714 0.43106195 0.05232508
000320 ad 1f ed 3d e8 0c 0a bc a4 d5 30 be 7e ae 0b be
       0.11578307 -0.008425929 -0.17268997 -0.13640782
000330 57 84 a4 3d 86 b2 45 3d 47 f6 e7 3c 3d 96 cb be
       0.08033054 0.048265956 0.028315676 -0.3976306
000340 92 41 3b 3e 5a 53 60 3d ec bf 11 be 8e 1c 6a 3d
       0.18286732 0.05476699 -0.14233369 0.057156138
000350 90 4c 1c bd 45 66 41 bc 6f e2 3b 3c 3f 38 99 bc
       -0.038158953 -0.011804168 0.01146756 -0.018703578
000360 0c 5d e5 be c5 48 6c bd 16 ea 73 bd 57 dd 69 bd
       -0.44797552 -0.057686586 -0.059549414 -0.05709585
000370 39 c2 48 3e 45 e2 81 3e 88 94 c7 bc 54 5b b5 be
       0.1960534 0.25367942 -0.024362817 -0.3542124
000380 e3 54 a6 be a6 43 63 3e 95 c1 79 3e cd 97 d5 3e
       -0.32486638 0.22193775 0.24390252 0.41717377
000390 bb 95 4f 3a a8 9c 50 3c 1e 0c bc be 80 33 2e 3e
       0.0007918735 0.012732662 -0.36727995 0.17011833
0003a0 3a a0 35 3e ff 97 a6 3e 23 47 6a 3e 50 5a c5 3e
       0.17736903 0.3253784 0.22878699 0.38545465
0003b0 9e 21 a2 3e 7e d9 d8 3d b5 81 9d bd 54 e4 08 bf
       0.31666273 0.10588358 -0.07690755 -0.534734
0003c0 e7 b8 32 3f 5c 5c c9 3e 52 96 64 3e 6d 3c 36 3c
       0.6981339 0.39328277 0.22322968 0.011122805
0003d0 93 f4 1c be 36 65 9e bd 74 36 54 3d 37 7b a4 bd
       -0.15327673 -0.07734148 0.051809743 -0.08031314
0003e0 2f 84 d2 bd 8c 58 99 be 4f 74 a3 be 99 b9 81 bd
       -0.10279118 -0.29950368 -0.31924674 -0.06334228
0003f0 6d 49 98 3d a2 ec 60 3e 66 70 93 bd 50 8f 1c be
       0.0743588 0.21965268 -0.07199173 -0.15289044

1.bias f4 [8]
000000 9d 33 99 bd 58 23 cb 3d 58 3f 75 3d 72 0d 0e bb
       -0.074805476 0.09918851 0.059874862 -0.0021675494
000010 32 03 06 be 3c 29 06 3e 0b 30 b0 bd 70 cb 0a be
       -0.13087156 0.13101667 -0.086029135 -0.13554168

2.weight f4 [16, 8, 3, 3]
000000 82 51 5f bd 0d 91 aa bd d6 f5 74 3e 68 c1 d8 3d
       -0.05452109 -0.083284475 0.23921904 0.10583764
000010 c7 8f ac be d6 1d 5b 3e 9c 00 0e bd ed 90 94 be
       -0.33703443 0.213981 -0.03466855 -0.2901682
000020 50 bd c1 bd e3 25 48 be e5 bc a7 3d 80 08 73 bd
       -0.094599366 -0.19545703 0.08190326 -0.059334278
000030 10 57 2d 3e b8 c2 9c be 2c 08 e3 bd 86 de d9 bb
       0.16927743 -0.3061731 -0.11085543 -0.0066488413
000040 6e 0a 06 bf 4f da 28 be 17 15 e3 3e be d6 4b 3d
       -0.52359664 -0.16489528 0.44352028 0.04976534
000050 c6 e6 0b be ee f6 4c bd 3d 84 4d bd cf fc 81 bd
       -0.13662252 -0.050040178 -0.05017494 -0.063470475
000060 ae 98 c0 3d 7d f7 82 be c0 12 4a 3d f3 75 13 3e
       0.09404121 -0.25579444 0.049334288 0.14400463
000070 f7 82 fc 3d a0 92 76 3e 58 2a bf be 84 8e 10 3e
       0.12329667 0.2407937 -0.37336993 0.14116865
000080 2c 91 55 3d 54 4e 01 bd 16 94 05 3c 67 30 0d bd
       0.0521404 -0.03156884 0.008152982 -0.03446999
000090 48 5c a9 3e 5a 24 e1 bd d2 5c 89 3c 68 5b 7e be
       0.33078218 -0.10993262 0.016767893 -0.24839556
0000a0 b6 7b b9 bc df eb e9 3d 80 8c aa 3d 90 ae 31 be
       -0.022641998 0.11421942 0.083275795 -0.17351747
0000b0 70 71 01 3d 0a 03 f6 3c 53 56 e9 3c 74 bc cb bd
       0.031602323 0.030030746 0.028483545 -0.09948054
0000c0 9c 9d c3 3c ea c1 51 3d a8 88 42 be f4 51 5a be
       0.023878865 0.05121032 -0.18997443 -0.21320325
0000d0 49 bf 29 3e 4a 6a 88 be 3e f3 37 3b de f0 9b bd
       0.16576876 -0.26643592 0.0028068568 -0.07614301
0000e0 f4 e6 fd 3d fb f0 9f 3d a9 55 38 3e 00 41 8c bd
       0.123975664 0.07809635 0.18001427 -0.06848335
0000f0 6e 03 4d be 62 1c 64 bd 61 25 9b be 73 c6 15 3e
       -0.2002084 -0.05569113 -0.30301955 0.14626484
000100 6b e5 8c bd 21 a2 59 be a0 fb 2a 3c 2a d5 c2 3c
       -0.068796955 -0.21253254 0.010435969 0.023783285
000110 08 db a2 be a8 d5 8d bd ab 4a fe 3c 0b 44 1b be
       -0.31807733 -0.06925517 0.031041464 -0.15162675
000120 e0 30 a1 be 8d 6a 6c bd d6 c8 5f be 22 51 d4 3d
       -0.314826 -0.057718802 -0.21853957 0.10367037
000130 3f 89 be bd 1c e9 86 bd 62 ea 2c be 7e 47 ee be
       -0.09303521 -0.06587431 -0.16886285 -0.4653892
000140 fb 85 59 3e b8 3e 46 be ab 15 ab be 79 73 98 bd
       0.21242516 -0.19359863 -0.3341497 -0.074439
000150 93 5b a8 bd c6 f2 95 3d 28 80 37 3d c6 2f 7a bd
       -0.082205914 0.07321696 0.044799954 -0.061080717
000160 64 9a 4d be 73 a5 ff 3c f0 ab c4 3d 4e 28 d1 3e
       -0.20078427 0.031206822 0.09603107 0.40851063
000170 e1 f9 0e 3e 26 7a b4 bd ee 71 43 be c8 8b 27 bc
       0.13962509 -0.088123605 -0.1908643 -0.010226198
000180 6c cd b0 3d d2 be 0f be ed aa 5d 3d 62 fd a6 be
       0.08632931 -0.14037636 0.054118086 -0.3261519
000190 aa c6 62 3e 87 a2 32 3e 3e 61 79 3e 46 d3 8f bd
       0.22146097 0.17444812 0.24353501 -0.07022719
0001a0 18 bf a3 bd 44 33 c2 3c 51 06 96 3e 9f 15 95 3d
       -0.079954326 0.023706086 0.29301694 0.072795145
0001b0 8a df 1b be 90 48 79 3e cb f3 97 3e 08 ae 3f 3d
       -0.15221992 0.24344087 0.29678187 0.04679683
0001c0 fe 20 a7 be 16 df 07 bc 42 1c d6 3d 23 d8 f3 3d
       -0.3264236 -0.008292934 0.104546085 0.11906459
0001d0 71 ba 4f 3e fa 45 83 be e4 cf 14 be f8 12 79 bd
       0.20285966 -0.25639325 -0.14532429 -0.060809106
0001e0 27 97 dd 3d c0 01 ab 3d dc bf 33 3e 45 00 2f bd
       0.10819846 0.08349943 0.17553657 -0.042724866
0001f0 15 ff b4 bc 44 13 02 be d2 31 06 bf 08 14 29 3d
       -0.022094289 -0.12702662 -0.5241977 0.04127887
000200 67 9b 42 bd e4 bd 85 bc 94 af 38 bd 24 1f 82 bd
       -0.047511484 -0.016325898 -0.04508932 -0.06353596
000210 63 e0 3d be 5b 43 40 be d6 6f f6 bb 01 24 6b 3d
       -0.18542628 -0.18775694 -0.007520656 0.057407383
000220 2c 46 2d 3d 09 ea 03 3e 89 47 d8 3d d0 7b 5f bd
       0.04230325 0.12882246 0.10560519 -0.054561436
000230 1d 17 1d be 10 ac 17 3e c8 45 4c bd d1 dd 26 be
       -0.15340848 0.1481173 -0.049871236 -0.16295554
000240 b0 c8 b5 3e be db bd 3d 84 c4 af bb 0e f3 50 be
       0.35504675 0.09270428 -0.0053640027 -0.20405218
000250 f0 04 91 be 25 48 46 bc b8 f3 3c 3e 58 e7 9e 3e
       -0.2832408 -0.0121021615 0.18452346 0.31035876
000260 4c 40 19 3e 2b 98 17 bd da 20 3f 3e 8a 9f 69 3e
       0.14965934 -0.037010353 0.18664876 0.22814766
000270 68 29 39 bd 65 8a 8a be 8e dc 42 3d a0 29 d4 3e
       -0.045205504 -0.27058712 0.04757362 0.41438007
000280 42 03 ad 3e 0d ba 0a be 4e 5f 70 be c0 7b 9e be
       0.33791548 -0.13547535 -0.23473856 -0.3095379
000290 23 12 a7 be 8a 9b 08 3e 46 8c e8 3d 43 ee 8f 3c
       -0.32631025 0.13340583 0.1135488 0.017569667
0002a0 8d 1e cb bd e4 32 de bd d7 d6 33 be 9b 16 9e bd
       -0.099179365 -0.1084955 -0.17562424 -0.077191554
0002b0 fa 19 43 bd 3a 7f e3 be c2 d1 4d bb 77 4e 59 3e
       -0.047632195 -0.44433004 -0.0031405543 0.21221338
0002c0 7c 79 86 3d f3 a4 30 be 41 1c a7 be 27 59 e9 ba
       0.0656614 -0.17250423 -0.32638744 -0.0017803059
0002d0 0a 4d a3 3e 66 a9 a6 be 9e 6c e1 be 0e e1 ae bd
       0.31894714 -0.32551116 -0.4402818 -0.085390195
0002e0 b0 d6 8c 3d 25 a1 bc 3d 41 07 18 be cd ce 34 be
       0.06876886 0.092104234 -0.14846517 -0.17657013
0002f0 2d 1f f0 bb b9 78 5f 3e d7 e1 22 3e 5f 76 be bc
       -0.007327935 0.21823396 0.15906464 -0.023249803
000300 7c 29 14 be 00 4a ab bd 29 98 91 be e6 45 e3 3e
       -0.1446895 -0.08363724 -0.284364 0.44389266
000310 b7 d3 99 3e 70 f6 03 3e 0a aa aa 3e 97 62 1c 3d
       0.30044338 0.12886977 0.33332855 0.03817996
000320 65 0d 4e be 8a 59 fc bd 1e d1 69 3c 2f 35 ee bd
       -0.20122297 -0.12321766 0.014271049 -0.11631238
000330 b0 00 4e 3e a2 1d 6c bd 4e 01 7f 3e 73 93 c7 bd
       0.2011745 -0.057645448 0.24902841 -0.097449206
000340 e7 eb aa 3c 5f b5 89 be 12 69 3a bc fa c3 2b 3e
       0.02086444 -0.26896188 -0.01137759 0.16773978
000350 be 53 a8 bd af c1 0b be 87 28 6d be 77 73 e7 3c
       -0.082190976 -0.13648103 -0.23159991 0.0282533
000360 cc d0 6d 3b 49 2e 1f 3f ca e2 d0 3b 58 53 6c be
       0.0036287783 0.6218 0.0063746916 -0.23078668
000370 a4 9d 93 bc 41 e6 28 be 16 9c 8f bb e0 16 99 3d
       -0.018019505 -0.16494085 -0.0043826206 0.07475066
000380 66 bb ba bd ef ad d6 3e 5c 99 ad 3e e6 53 aa 3c
       -0.09117775 0.41929576 0.33906066 0.020791959
000390 c2 49 d6 bd 39 c2 ba bc 90 a2 dc bb ae c4 c6 3b
       -0.10463287 -0.02279769 -0.006733246 0.0060659265
0003a0 02 68 b3 bd 24 94 39 3d ab f2 d5 be d3 ef 12 be
       -0.08760072 0.045307294 -0.41786703 -0.14349298
0003b0 e5 85 59 be 34 9f 96 3e 8e 85 1f 3d e8 8e d5 3e
       -0.21242483 0.29418337 0.038945727 0.4171059
0003c0 1e 65 4b bd 90 e1 57 bd a7 4a 16 bd 0e c2 9e bd
       -0.04965698 -0.052705348 -0.036692288 -0.07751857
0003d0 2a 08 1b be bb e2 0e bd c8 ae b0 3e 3a 4f 60 3d
       -0.15139833 -0.034884196 0.34508348 0.054763056
0003e0 27 4b ad bc 88 ae 26 bd a4 72 45 bd 38 48 ad bd
       -0.021154 -0.04069379 -0.048205033 -0.0846104
0003f0 9d c1 23 bf cd 47 f8 3d d1 fc 93 3c fe 22 4a bc
       -0.63967305 0.1212307 0.018064888 -0.012337444

2.bias f4 [16]
000000 42 ff 6c 3d c0 ae 62 3d 37 8d 28 bd 94 97 e0 bd
       0.05786062 0.055342436 -0.041150298 -0.10966411
000010 15 c0 d4 3c 9d 1f b6 bd 3c 5a d3 bd a4 4b 94 bd
       0.025970498 -0.088927485 -0.10319945 -0.0724099
000020 88 c3 cd 3d 02 64 da 3c 3a 7a ee bb 19 96 c4 3d
       0.1004706 0.026659016 -0.007277754 0.09598941
000030 12 9d 7d bd e1 b2 2b bd 0c a0 b5 3d 0c 04 a3 bd
       -0.061917372 -0.04191864 0.08868417 -0.07959756

4.weight f4 [64, 192]
000000 c0 34 60 3d 40 ed 2b bc ed c7 cb bd d6 3d ae 3d
       0.054737806 -0.0104935765 -0.09950242 0.08507888
000010 02 4b 21 bd 88 9c 69 3d c0 3c 80 3d cb ae aa 3d
       -0.039378174 0.057034045 0.06261587 0.0833412
000020 fa bd 3f 3d db dd be 3c 77 81 9b bd aa a6 26 bd
       0.046812035 0.023299148 -0.07593053 -0.040686287
000030 3b 9d 20 be 98 89 3d bd e2 57 0e 3d 22 d1 94 3d
       -0.15684979 -0.046273798 0.03475178 0.072664514
000040 19 1c 98 3c d1 eb 06 bc 8b 3b 0c bd d5 bc 9a bc
       0.018568086 -0.008234934 -0.034236472 -0.01888887
000050 a0 50 95 3c 0a eb d4 3d ff 85 2e 3c 24 ba 1c bd
       0.018226922 0.10396393 0.010652064 -0.038263455
000060 57 37 d1 3d 22 66 28 3d a6 93 15 bc 98 42 d1 bc
       0.10215633 0.041113026 -0.00912944 -0.02554445
000070 e4 64 6e bc bc 5c db 3b 3f 26 8e 3c a6 fd 39 bd
       -0.014550421 0.0066944044 0.017352222 -0.045407914
000080 9a 1c 20 bd b7 ec db ba b0 67 97 bd fb f8 58 3d
       -0.039089777 -0.001677892 -0.07392824 0.05297182
000090 ef ec f2 3c 81 24 b3 bc 5e 90 79 3d 0e 92 23 bd
       0.029653994 -0.021867992 0.060928695 -0.03993421
0000a0 3c 37 6c bd 32 b4 88 bd 2f bf 1a bd f9 71 21 3d
       -0.057669863 -0.066749945 -0.037779983 0.039415333
0000b0 dd 48 eb 3b a4 28 e1 bd 18 8f 13 3d 64 f9 96 bc
       0.007180317 -0.1099408 0.036025137 -0.018429466
0000c0 70 2a a7 bd 26 87 2f 3c 57 e6 74 bc e7 15 10 bd
       -0.08162391 0.010713374 -0.014947495 -0.035177138
0000d0 23 ce 89 3c 3c a3 a0 3b 7a bd d4 bc 91 e7 7b 3c
       0.016821926 0.0049022716 -0.025969256 0.015375034
0000e0 14 b7 0b bd 48 b0 c4 3d 34 29 04 bd 8e 23 24 bd
       -0.034110144 0.096039355 -0.032265857 -0.04007297
0000f0 c8 b8 fe bc 55 6e c8 3c 1f 82 99 3d 38 51 ab 3d
       -0.03109397 0.024466673 0.07495522 0.083651006
000100 75 12 f1 3c f7 6d 83 bb 3a ef 3d bd 8d 43 7a 3d
       0.029427746 -0.0040109116 -0.046370722 0.061099578
000110 22 98 1c 3d 48 5c 57 3d 14 b2 0c 3d 23 b1 08 bd
       0.038231023 0.05257824 0.034349516 -0.033372056
000120 02 1d 94 ba b2 8b 9a bc aa 66 b7 bd e4 3e b9 bd
       -0.0011300149 -0.01886544 -0.089551285 -0.090451986
000130 61 ea 26 3c 6b 90 23 bd 41 f2 0a 3d d6 19 1c bc
       0.010187716 -0.03993265 0.033922438 -0.009527644
000140 63 c6 ef 3c 23 43 4e 3d d9 4f 95 bd 5b 2a 97 bd
       0.029269403 0.050356995 -0.0729062 -0.073811255
000150 28 1f ab bb cc bc 36 bd 10 02 59 3d 36 23 4d 3d
       -0.00522222 -0.044613644 0.052980483 0.050082408
000160 7f e1 c4 bc e4 4a 99 bd 25 26 79 3d 03 45 f7 3c
       -0.024033306 -0.074849874 0.060827393 0.030184275
000170 4c 93 cb 3c b0 d0 49 bd f0 c5 d2 3d aa 43 90 bc
       0.02485051 -0.049271286 0.1029166 -0.01761039
000180 8a 12 ee 3d b2 a7 52 3c 79 a7 12 3d ca 1f b8 bd
       0.1162463 0.0128573645 0.035804246 -0.08990438
000190 bd 7e c2 3c 42 a0 af bb 4a 7f 8e bc bb 45 83 bd
       0.023742074 -0.0053596804 -0.01739468 -0.064097844
0001a0 c2 79 25 be 8b e2 dd bc 67 2e c9 bd 50 b0 11 bd
       -0.16159728 -0.027085563 -0.09823304 -0.035568535
0001b0 4c 2a aa 3d fe 32 87 3d 3b c1 bd 3c b7 69 34 bb
       0.08308849 0.06601523 0.023163429 -0.0027528831
0001c0 20 bd 61 3d 50 ff d0 ba a6 ef 8b bd 24 89 e6 bd
       0.055112004 -0.001594523 -0.06832819 -0.11256626
0001d0 ef 3a 79 3c cd 1e 02 3d 5d 98 f4 bd dc 1a 9c 3d
       0.015211805 0.031767655 -0.119431235 0.076223105
0001e0 0f 06 8b bd a2 d4 7c bd 87 df 39 3d e6 38 5b 3d
       -0.06788265 -0.06172622 0.045379188 0.05352106
0001f0 ed e2 9c bd 90 ae 35 bc af e0 6b bc 31 3c b9 bd
       -0.0766047 -0.011088982 -0.01439683 -0.09044684
000200 2a 36 86 3d e2 6c 6b 3d 69 04 38 3d aa 30 89 bd
       0.065533 0.057476886 0.04492608 -0.06698735
000210 e2 69 65 bd 2a ec da bd db 9e 4a bd 80 4a c0 bb
       -0.05600918 -0.10689576 -0.049467903 -0.005868256
000220 4f 97 81 3d 46 ce 14 b8 6e 5c 1b 3d 45 75 71 3c
       0.06327688 -3.5478057e-05 0.037929945 0.014737432
000230 06 85 67 bd 2c f8 ab bd 47 39 62 3d 24 68 26 bd
       -0.056523345 -0.083969444 0.055230405 -0.04062666
000240 02 0b f2 3d be f6 41 3e 39 35 d1 bd 52 23 94 bd
       0.11818506 0.18941781 -0.102152295 -0.07233299
000250 2d dc 64 bb cd a9 ed 3d 27 e6 22 bd 99 99 08 3d
       -0.0034921274 0.116046526 -0.03977027 0.033349607
000260 a4 cd 98 3a 02 61 f3 3d 14 00 9b bc e8 84 a7 bd
       0.0011657965 0.11883737 -0.018920936 -0.08179647
000270 65 b2 70 3c 5c bf 4f bd dd de 85 bd a5 5c 0e 3d
       0.01469097 -0.050719604 -0.065366484 0.03475632
000280 4e 85 43 bd 1d 45 2c bd 62 f1 b4 3d 7e 56 ad 3d
       -0.04773455 -0.0420581 0.088351026 0.08463763
000290 ca 17 d8 bd 6b a1 3e bc 4a 1c 1c 3d 37 60 0a 3d
       -0.105514124 -0.011635165 0.038112916 0.033783164
0002a0 d4 59 05 be 97 fc d2 bd e4 7e f1 bc 37 df c5 3d
       -0.13022548 -0.10302084 -0.029479451 0.096617155
0002b0 8a f6 1a be ff de fb bc 0d 14 3e 3d 23 e5 8b bc
       -0.1513311 -0.030745981 0.04640584 -0.017077034
0002c0 9b 26 94 bd 23 4c fb 3d cf f0 0f 3e 06 4a 99 3d
       -0.07233926 0.12270381 0.14056705 0.07484822
0002d0 09 b6 95 3b 71 4d c3 3d 37 f8 47 3d b2 58 8b bd
       0.0045688194 0.09536255 0.0488207 -0.06804027
0002e0 03 ef 00 3b 07 98 40 3d d8 e9 ba bd 84 85 6c 3d
       0.0019673712 0.047019985 -0.091266334 0.057744518
0002f0 13 75 16 3e 6a ed b9 bc 5a 2e 2d be 7a b2 0b be
       0.14693098 -0.022696216 -0.16912213 -0.13642302
000300 3a de 03 be b3 a5 4f 3e 3d 50 00 3d 6f f9 02 3e
       -0.12877741 0.20278053 0.03132652 0.12790464
000310 38 5f 8e bd 00 6b ec 3c c3 a5 98 bd 1c 44 d4 3c
       -0.06951755 0.028859615 -0.074534915 0.025911383
000320 a0 37 8a bb 8a 93 fe 3d 00 44 b6 3b b6 5a 36 bd
       -0.004218057 0.124304846 0.0055623055 -0.044520102
000330 86 db 65 3e f8 19 1a 3e 86 3c e2 bc 2c 35 47 be
       0.22447023 0.15048969 -0.02761675 -0.19453877
000340 5c 99 6b bd b5 83 8f be 31 45 9b bd 22 02 e4 3d
       -0.0575193 -0.28030172 -0.075815566 0.11133219
000350 6d 22 a4 3d a1 78 f7 3c e9 d8 2d bc d7 4e e8 bc
       0.08014379 0.030208888 -0.010610797 -0.028357906
000360 c7 7e 27 be 6a 8d 8f be d0 9a 59 bd 6e 8f 05 3b
       -0.16356955 -0.28037578 -0.053126156 0.002037968
000370 72 0a 72 3b 03 91 16 3e de 35 30 3d 8b 7b c1 3d
       0.0036932495 0.14703755 0.04302012 0.09447392
000380 e7 05 2a bd ed b4 0c be 43 47 2c bd dc cc 35 bd
       -0.041509535 -0.13740893 -0.042060148 -0.044384822
000390 3c e1 2e bc 7c f5 c3 be ab 2f 61 be f7 08 97 bd
       -0.010673817 -0.38273227 -0.2199084 -0.07374757
0003a0 e2 72 5d be fe 4e 44 3d 6a 48 ba 3d 86 d9 60 bd
       -0.21625856 0.047926895 0.09095843 -0.054894947
0003b0 f0 3a 2c bc e0 cc dc bd 18 06 84 3c fc 9a a2 bd
       -0.010512099 -0.10781264 0.016116187 -0.07939717
0003c0 9e 30 97 3d 0e 51 8b 3e 24 00 9e 3c ae 78 35 be
       0.0738232 0.27210277 0.019287176 -0.17721817
0003d0 36 08 72 be bf d1 f6 3c 6e 6d 2d be c3 4a 42 3d
       -0.23635945 0.030129312 -0.16936275 0.04743458
0003e0 ee 41 2f 3c 6e c4 e8 bd cb 8e 93 3d 48 02 cd bc
       0.010696871 -0.11365591 0.0720497 -0.025025502
0003f0 d6 68 49 3e 5b 7a ef 3d d7 81 07 be 98 48 96 3d
       0.19668898 0.11693259 -0.13233124 0.07338065

4.bias f4 [64]
000000 30 97 9d 3c d8 6e 45 3d 08 4c 4c 3d ce ff a5 3d
       0.01923713 0.048201412 0.049877197 0.081054315
000010 28 4f fb bd 0c 38 01 bd 66 d5 79 bd ad 14 48 3d
       -0.12270957 -0.03154759 -0.06099453 0.048847843
000020 b8 33 4e 3d a4 37 45 3d c3 37 23 bd 18 cd 93 3d
       0.05034229 0.048148766 -0.0398481 0.07216853
000030 b4 f8 e1 3d 07 34 76 3d ac 90 fa 3c 47 67 c9 bc
       0.110337645 0.06010821 0.030586563 -0.02458538
000040 06 06 1f bd 17 f5 6b 3d 75 42 7c 3d 68 eb ae bd
       -0.038824104 0.057606783 0.061586816 -0.08540994
000050 7a b1 33 bc 3b 02 49 3d 5c 69 35 bd 25 5b 48 3c
       -0.010967607 0.049074393 -0.04428993 0.012228762
000060 bd a2 d2 3d 68 7d 32 bd 99 0a 30 3d ae 47 3d bd
       0.10284946 -0.043576628 0.042978857 -0.046210937
000070 9a 40 f0 3c f2 22 17 3d c0 e1 35 3c 28 12 72 3d
       0.02932768 0.03689856 0.011101186 0.059099346
000080 a7 36 03 bd af 8f a6 bd 67 f4 21 3d f0 d7 65 b9
       -0.032034542 -0.08132874 0.03953972 -0.00021919585
000090 1e 28 c2 bd 59 26 c9 3b 96 f6 f3 bb 93 c9 19 3c
       -0.09480308 0.0061386046 -0.007445167 0.009386438
0000a0 e8 cd 9d 3c 51 23 68 3c 14 15 cc 3c 0e 7a 94 3d
       0.019263223 0.014168576 0.024912395 0.072498426
0000b0 4b f7 26 3d 85 91 7b 3d a1 fb e8 bc de ab 93 3c
       0.04076318 0.061418075 -0.028440299 0.018026289
0000c0 17 45 85 3d 14 79 5e bc 42 14 bb 3d 62 1d 80 bd
       0.065073185 -0.013578672 0.09134723 -0.06255604
0000d0 d4 72 80 bd b8 2c 95 3b 5f 1f 88 bd 33 08 9d bb
       -0.06271902 0.00455245 -0.066466086 -0.004792237
0000e0 92 93 a5 bc 98 2b 1f 3c ba 28 9b 3b 7f 0d 11 bd
       -0.020211969 0.009714983 0.0047350796 -0.03541326
0000f0 8a df cf 3c 1b 0d e5 3d ee ef 60 bd 45 ad 5e bd
       0.025375146 0.1118414 -0.054916315 -0.05436446

6.weight f4 [5, 64]
000000 47 43 8d 3b 76 91 0c be f2 11 25 3c 62 aa aa 3e
       0.0043109986 -0.13727364 0.010075079 0.33333117
000010 af 75 34 3e 6e b1 05 3d f0 03 1f bd db 9b eb 3d
       0.17623018 0.032639913 -0.038822114 0.115043364
000020 ad 3f b2 3d 0b 10 06 be a8 38 d8 bd 66 5a 61 be
       0.087035514 -0.13092057 -0.10557681 -0.2200714
000030 3d 40 8a 3c f0 4c 4f be dd 4a 0b 3d a7 fb f4 3d
       0.016876334 -0.20244193 0.034006942 0.119620614
000040 ee 41 71 be d0 a9 8c bd a0 bf 5a be ed 16 15 3e
       -0.23560306 -0.06868327 -0.21362162 0.14559527
000050 2a 02 1a bf c9 4e 25 3e 3d 19 6e 3e 3e 46 e3 bd
       -0.6015955 0.16143335 0.23251815 -0.11097382
000060 f9 a0 da 3d ca 1f 00 3e 08 f1 d5 bd 81 25 f3 bb
       0.10675234 0.12512127 -0.10446364 -0.0074202423
000070 58 66 63 3d 54 95 51 3d 4a b2 9c 3e 56 90 b8 bd
       0.055517524 0.0511678 0.30604774 -0.09011905
000080 4d 36 ad bc 66 f7 f0 bd 8a 08 79 3e 7c e3 e9 3d
       -0.021144057 -0.117659375 0.24319664 0.11420342
000090 94 e1 aa be a8 65 f4 3a bd e6 6f 3e b2 51 12 3d
       -0.33375227 0.0018646019 0.23427863 0.035722442
0000a0 49 aa 44 3d 54 a5 0b bd 2e 59 bc 3d f8 3b 99 be
       0.04801396 -0.034093216 0.09196697 -0.29928565
0000b0 30 c5 f3 bc 73 9a 15 3e b8 f3 82 3e ce 37 4b bc
       -0.029757112 0.14609699 0.25576568 -0.012403442
0000c0 d0 30 fb bd 88 58 5e be 3c 93 c1 3e 20 63 bb bd
       -0.122651696 -0.2171346 0.37807643 -0.09149766
0000d0 02 ab 29 bd 1c 92 00 3e 0e c4 73 bc 36 d6 71 3e
       -0.04142285 0.12555736 -0.014878286 0.23616871
0000e0 80 86 3f be c3 ac 36 3e 47 c1 c3 bd 16 e7 0f bd
       -0.18703651 0.17839341 -0.09558349 -0.03513249
0000f0 dd 02 70 3d 08 ee ae bd 46 72 ed 3d f9 38 47 3d
       0.05859648 -0.085414946 0.115940616 0.048638318
000100 dc f9 0d 3f 58 a0 01 3c a2 72 01 bf 74 1d 2a be
       0.5545938 0.007911764 -0.5056554 -0.16612798
000110 38 e3 cc be 8f 75 1d 3e 67 a3 df bd 1f 83 5d 3d
       -0.40017104 0.15376876 -0.109198384 0.054080125
000120 6d 96 0e be d2 3c 0d bf 15 c8 e9 be 55 4b b5 3e
       -0.1392457 -0.5517093 -0.45660463 0.35409036
000130 d4 57 ed be 29 22 48 3d b0 c4 8d bd 18 6f c2 3d
       -0.4635607 0.048860703 -0.06922281 0.09493846
000140 92 ef 0a 3d 7e 78 65 be 92 b7 dc bc 3c 0a 92 bf
       0.03391988 -0.22409245 -0.026943002 -1.1409373
000150 0b 5b a2 bd cc cb 98 be fe ba ae 3e a4 73 cd 3d
       -0.07927521 -0.29842985 0.3412704 0.10031822
000160 28 81 95 3e ff 5f a6 be d3 5f 9b bd f4 83 f7 bd
       0.292001 -0.32495114 -0.075866364 -0.12085715
000170 fb 2c d0 bd 64 bc 85 3e 92 ba 65 bd e7 d4 59 3e
       -0.10164829 0.26120293 -0.05608613 0.21272622
000180 2f b0 b9 bd 9d df 2d bd c8 ad 2e 3f 38 fc f0 bb
       -0.090668075 -0.042449582 0.6823392 -0.0073542856
000190 2b 9d 36 be 92 da 9f 3c 4e ce ab 3e c6 dc 8c 3e
       -0.17833392 0.019513402 0.33555835 0.27512187
0001a0 d6 96 d6 bc 28 1d 86 3d 29 82 01 be 23 23 a6 bb
       -0.026194971 0.0654853 -0.12647308 -0.0050701066
0001b0 c8 9e 87 3d 34 38 c5 be 3c 0b e9 3e 30 ca 74 bd
       0.06622082 -0.38519442 0.45516384 -0.059763134
0001c0 ae b2 89 be 24 40 9e 3e a6 0f a7 be a4 65 3c 3f
       -0.26894134 0.3090831 -0.32629126 0.7359259
0001d0 02 16 48 3e bd 55 af be 68 4b d4 3d 78 4e dc bd
       0.19539645 -0.342451 0.10365945 -0.10757154
0001e0 ae da 76 be 32 b1 cd be ec a9 9a be f6 55 b7 3d
       -0.24106857 -0.40174252 -0.30207765 0.089519426
0001f0 d9 0b eb bc 73 13 e1 be 49 6e a9 3d f3 34 ee bd
       -0.028692173 -0.4396015 0.08272988 -0.11631193
000200 da c4 ba bd 01 bc 06 3f 53 e9 f9 bd 32 e8 b7 3e
       -0.09119578 0.5263062 -0.12202706 0.35919338
000210 19 d9 ee 3d b1 fa 0b 3c bc 6a cb bd ea d5 71 bd
       0.11662502 0.008543656 -0.09932467 -0.059041895
000220 fc 78 c4 bd 82 e9 7c 3e 30 c7 b3 3d 20 9c 4e bf
       -0.095933884 0.24698451 0.087782264 -0.8070698
000230 c7 e8 29 be 7d ce 0b 3f 25 c2 fc 3e f6 62 d3 3e
       -0.16592704 0.5461195 0.4936687 0.4128644
000240 b9 2e fc be 47 9e 0d bf 60 6a 15 bf 30 41 26 3d
       -0.49254397 -0.5531964 -0.5836544 0.04058951
000250 16 a3 c4 3d 57 15 c7 3e 9a 7a ce 3e 11 34 c2 3d
       0.09601419 0.38883469 0.40327913 0.09482587
000260 c0 8c 3b 3e b0 d9 fd 3e 06 7d 81 3e 47 4c dd 3b
       0.1831541 0.49580145 0.25290698 0.0067534777
000270 b0 0e 47 3c 64 b0 18 3f 36 86 eb 3e 66 4e 22 be
       0.012149498 0.5964415 0.46000832 -0.15850219
000280 62 b1 6e bd b8 90 8d bd 23 9d a1 3e b4 8f 75 bd
       -0.058274634 -0.069123685 0.31565198 -0.0599515
000290 e8 5a 76 bf e6 59 1b 3d 70 97 00 3f f2 4c e9 be
       -0.9623246 0.03792753 0.50231075 -0.45566517
0002a0 50 a6 b7 3d d5 16 9d bb 9e d2 3d bd 2c d9 b4 be
       0.089672685 -0.0047939816 -0.04634344 -0.3532194
0002b0 3a 38 73 bc 66 b7 51 3e 55 bf b6 be 04 ca 31 3e
       -0.014844948 0.20480117 -0.3569285 0.17362219
0002c0 08 83 ae bd a5 5e 06 3f 64 a1 2c be f3 c8 02 3e
       -0.08521086 0.52488166 -0.1685844 0.12771969
0002d0 54 38 02 be e0 ad dd be ef 6d 8f 3d 1a e9 1f 3f
       -0.127168 -0.4329672 0.0700339 0.6246506
0002e0 f8 1f 82 bd fa d7 7d 3e 08 0b 67 3e 48 d6 01 3d
       -0.06353754 0.2478942 0.22562802 0.031698495
0002f0 7d 02 49 bd f2 6d 45 be a2 46 0a 3f 5e 61 ec 3d
       -0.04907464 -0.19280222 0.5401403 0.11542009
000300 89 ea d9 bd a7 3a e5 bd 06 1c f5 bc 49 98 62 3e
       -0.10640437 -0.11192828 -0.02992059 0.22128405
000310 07 48 03 bf 06 81 77 be c7 99 bf 3d e4 2e bd 3c
       -0.5128178 -0.24170312 0.093555026 0.023093648
000320 be 72 b5 be 01 4d 51 bc 62 74 89 be 98 83 15 3e
       -0.35439104 -0.012774707 -0.26846606 0.1460098
000330 d9 05 aa 3c 02 86 6b be 20 f3 1e ba 35 6c 82 bd
       0.020754742 -0.23000339 -0.000606345 -0.06368295
000340 4a 10 e1 bd c2 14 53 be c1 67 fc 3c f8 8e 02 3d
       -0.10989435 -0.20613387 0.030811192 0.031874627
000350 b7 de 9c 3e 2a 9b 96 bd 7b eb d4 3d c8 57 63 3d
       0.30638668 -0.07353814 0.10396477 0.055503637
000360 e4 12 8c 3e 67 03 77 3d 3a 81 ae bc fe 8b 8d bd
       0.27358162 0.06030598 -0.021301854 -0.06911467
000370 30 c5 95 bd 11 fd 93 be 22 91 8a 3c be d0 06 3e
       -0.07313001 -0.28904012 0.016914908 0.13165566
000380 25 ad df 3d f6 cb 06 bc 05 32 ae 3e 32 ec ec bd
       0.109216966 -0.008227339 0.34022537 -0.11568488
000390 ff 3c 94 3e 9b f5 08 bd bb 7c 66 3e 66 e9 a9 bd
       0.28952786 -0.033437353 0.22508518 -0.0829647
0003a0 0c b0 35 bb 37 f4 2e bd 5a 8b b0 3e 1e b9 de 3d
       -0.002772334 -0.04271337 0.34481317 0.10875152
0003b0 50 1a 8c 3d 9e 60 6c bc e0 01 6c be 7c 05 4f be
       0.06840956 -0.014427332 -0.2304759 -0.20216936
0003c0 8e 6c 9c 3d 4a 19 a4 be 64 d7 a9 3e 22 4b 98 be
       0.07637893 -0.32050544 0.33172143 -0.29744822
0003d0 4d cb 30 be 84 0e 40 be d8 2c 73 bc 36 4c 02 3d
       -0.17265053 -0.18755537 -0.014842235 0.03181096
0003e0 e0 2a 8d 3d c4 b7 a5 be 04 b0 85 be b6 71 da bd
       0.068929434 -0.32366765 -0.26110852 -0.1066622
0003f0 07 dd be bd d3 c2 69 be a5 5a 22 3d 59 c2 a5 bd
       -0.09319501 -0.22828226 0.039637227 -0.080937095

6.bias f4 [5]
000000 8a 0e 11 bd f4 73 ca bd 3c 49 83 3d 47 10 42 3d
       -0.035414256 -0.098853976 0.06410453 0.047378805
000010 b6 25 58 3d
       0.05277034
