models/Navigator_v1_10k.pt (torch, 10044 bytes, 8 tensors)

0.weight f4 [4, 2, 3, 3]
000000 d6 43 5a be 00 d7 95 be f2 45 7b 3d ff cf b5 3d
       -0.2131494 -0.29265594 0.061346002 0.08877563
000010 eb fa 65 be e7 a1 7a be 50 2a 3a be 04 d2 dd 3d
       -0.22458999 -0.24475823 -0.18180203 0.10831073
000020 78 94 93 3d c7 5c 93 bf fa ad 23 3f c3 47 fa 3f
       0.072060525 -1.1512688 0.6393734 1.955315
000030 83 b5 47 3f 8f 67 76 3f b2 ac 6d 3f 17 0d 19 c0
       0.7801134 0.9625177 0.9284164 -2.391424
000040 46 01 cf bf eb 3d d1 bf 84 9d 3f 3e c8 6c 18 3e
       -1.6172264 -1.6347021 0.18712431 0.14885247
000050 aa d0 d9 3d e4 0e 06 3e 71 4b 2f be e7 d4 f6 bc
       0.10635503 0.13091618 -0.17118622 -0.030130817
000060 bc 83 3b be c0 20 22 3e 1b 65 57 3e f0 28 08 40
       -0.18311971 0.15832806 0.21034662 2.1274986
000070 a3 f3 84 3f c8 04 0e 40 40 17 14 3e c2 46 cc be
       1.0386852 2.2190418 0.14461994 -0.39897734
000080 28 b2 f4 3d de 8d de be f8 d6 97 bf f3 ca a5 3f
       0.11948043 -0.4346761 -1.1862478 1.295256
000090 9d 54 6c 3e f3 4a 52 bd 0a 74 97 3d 70 f2 84 3e
       0.23079152 -0.05134101 0.073951796 0.25966215
0000a0 24 c2 4b 3e 04 06 1d 3e 7b 3f 4f ba 0c 00 2b be
       0.19898278 0.15334326 -0.00079058827 -0.16699237
0000b0 4d 3d eb 3d df 7b 21 40 ba 8c 0a bf 0a cc 9a be
       0.114863016 2.5231855 -0.5412098 -0.30233794
0000c0 66 38 97 3e d2 3c 95 bf 84 c4 80 3f 4a 93 00 40
       0.29535216 -1.1659186 1.0059972 2.0089898
0000d0 02 61 22 bf bb e9 1d bd b4 aa ab bb 58 a0 86 3e
       -0.6342927 -0.03855298 -0.0052388553 0.26294208
0000e0 a3 5d 30 be aa c2 4b 3e dc 0d f5 3d 03 10 a9 3d
       -0.1722322 0.19898477 0.11965534 0.08255007
0000f0 85 64 7e 3e 1d f9 b8 bd fb 24 b3 3b c3 01 8e 3e
       0.24843033 -0.090318896 0.005467055 0.2773572
000100 5b 9f 32 3f 22 1b e6 3f 4b f4 43 bf 54 39 2c bf
       0.6977441 1.797703 -0.76544636 -0.67274976
000110 2f cb 0a bf cf 8f 1d 40 b0 ec ee 3f 35 55 5f 3e
       -0.54216284 2.4619024 1.8665981 0.21809848

0.bias f4 [4]
000000 83 61 fc bd c1 d1 40 be 61 13 87 3e 6c 29 15 3e
       -0.123232864 -0.18830015 0.26381972 0.14566582

1.weight f4 [8, 4, 3, 3]
000000 43 ac 5e 3e b3 46 93 3e 26 ad cb 3d 15 57 0d bf
       0.217454 0.28764877 0.09945135 -0.55211
000010 8b de 8e 3e ce 60 ea 3e e8 f1 85 3b d7 ef 01 bf
       0.27904162 0.4577698 0.0040876754 -0.5075659
000020 b5 e0 8a bd d1 56 83 be 58 39 43 be 79 65 d3 3d
       -0.06781141 -0.25652173 -0.19064844 0.10322089
000030 3d d7 a1 3e e4 99 03 3f f6 e2 18 3e 13 2d df be
       0.31609526 0.51406693 0.14930329 -0.43589076
000040 f4 bd 1c 3f ed 5b c8 3d c7 f9 a1 bd ab 08 88 be
       0.61227345 0.097831585 -0.07908969 -0.26569113
000050 f7 36 b2 be 31 04 2e 3f 5b 40 2b bd 16 f4 d1 bd
       -0.3480756 0.67975146 -0.04180942 -0.10251634
000060 04 f8 ad be 5d 01 02 3f 9a 44 46 be 43 08 3e bf
       -0.33978283 0.5078333 -0.19362107 -0.74231356
000070 c5 49 a6 3e b2 ef 4a 3e 18 f1 5f 3e 08 81 4d 3e
       0.32478157 0.19817999 0.21869314 0.20068753
000080 bc 60 5a 3e 6c 65 ea 3e ca 67 82 3e ba d9 08 3f
       0.21325964 0.45780504 0.2546981 0.53457224
000090 ba a4 14 be b9 c4 35 bf 0a 50 33 bd b0 0b 5a 3e
       -0.14515963 -0.710033 -0.043777503 0.21293521
0000a0 98 ae 4e 3e 15 09 f0 3d bb cc 1c bf 18 b8 20 bf
       0.2018379 0.11720482 -0.61249894 -0.62780905
0000b0 b2 18 4c bf 81 b0 c4 bd 17 2b 3d be f7 22 04 bf
       -0.7972518 -0.09603978 -0.18473469 -0.5161585
0000c0 e4 39 af 3c 0d a3 80 be 1a fc 9d 3e 5e 73 b2 be
       0.02138991 -0.25124398 0.308564 -0.34853643
0000d0 6e b0 0e be c4 be d9 bc d4 5b 94 be cb 81 6d 3e
       -0.1393449 -0.026580222 -0.2897631 0.23194043
0000e0 e7 7c 47 3e 67 7f e2 3d f7 93 ff bd 39 43 2f 3e
       0.1948124 0.11059456 -0.12479394 0.17115487
0000f0 ff 55 db 3e 31 4c 07 be 16 41 06 3e 7e cb 41 3e
       0.42839047 -0.13212658 0.13110766 0.18925282
000100 87 c1 cf be 92 49 ed be 30 c5 aa bd 7c 24 6c 3d
       -0.40577337 -0.46345192 -0.08338392 0.05765198
000110 4d 6e 55 3e 37 67 15 3f 0c ef 61 3e 6c 91 09 3e
       0.20842858 0.5836062 0.22063845 0.1343438
000120 c1 96 12 3f df 4b bd bd 4d 02 a6 be cf e2 27 be
       0.5726128 -0.09242987 -0.3242363 -0.16395114
000130 33 ea 23 3e 6b d3 94 3e 27 29 76 bd 81 fe c0 3e
       0.16007309 0.2906755 -0.06009784 0.3769417
000140 61 d9 0e be 65 bd 7c bf f8 7b 0f bf 60 44 13 bf
       -0.13950111 -0.98726493 -0.56048536 -0.57526207
000150 a2 19 8b be d1 79 71 bd 2c 8a f2 3c 56 26 36 be
       -0.27167994 -0.058954064 0.029606901 -0.17788061
000160 41 17 9e 3d 25 f4 c4 bd 65 8b 7e bf f7 dd c3 be
       0.07719279 -0.096168794 -0.9943145 -0.38255283
000170 fe af c8 3d 4d 2d ca 3d ba 28 1a bc f9 95 a9 be
       0.09799193 0.09871922 -0.009409124 -0.33122233
000180 3f 89 4a 3d 74 70 6f 3e f2 1f ec be a8 71 04 3d
       0.049447294 0.23382741 -0.46118122 0.032334954
000190 63 20 9c be c9 2a c3 be ee e6 a2 bd 38 0c 93 3d
       -0.3049346 -0.3811858 -0.079542026 0.07180065
0001a0 1f 2d 38 be c6 5f 82 be 00 e7 a0 be 1d 0e da bd
       -0.17985962 -0.25463694 -0.3142624 -0.10647223
0001b0 5a 9f df 3e c1 b8 d7 bc d9 3a ac be 9f d7 38 be
       0.43676263 -0.026333215 -0.33638647 -0.18051003
0001c0 46 2e 28 bd ec 24 f1 be 34 68 4c be 73 f3 2a 3d
       -0.041059755 -0.47098482 -0.19961625 0.041736078
0001d0 2e f7 fa 3e 78 59 49 3f f1 b0 98 3e ed e2 44 3f
       0.49016708 0.78652143 0.29822496 0.7690876
0001e0 fd bb 9d 3d 46 b7 2a bc 74 35 a7 3d 6e 9c 88 be
       0.077018715 -0.010419672 0.08164492 -0.26681846
0001f0 cb 4a 7c 3e ae a1 09 be 56 7c 73 bd 83 df c5 3c
       0.24637906 -0.13440582 -0.059444748 0.02415443
000200 d9 3e af 3e bf de 19 be 7b 10 de 3d c1 10 ef 3d
       0.34227636 -0.15026377 0.10842987 0.116731174
000210 34 b3 1e be 56 0b 46 3e 6e bc 4a 3e 5d 1c ed bb
       -0.15498048 0.19340262 0.19798443 -0.007236047
000220 6a e6 45 bc f2 06 28 3f f8 84 73 3e 72 b7 8f 3e
       -0.012078861 0.656356 0.23781192 0.28069645
000230 04 44 54 be 8f f0 1d 3f 9a db c3 3e 61 9a 86 3d
       -0.20729071 0.6169519 0.3825348 0.06572414
000240 66 c1 f1 3e 6f 83 eb be 0e 93 49 bf 9b 58 89 bd
       0.47217864 -0.45998713 -0.7874001 -0.06706353
000250 e4 f8 07 bd 07 8f 34 3c 92 e0 31 be e9 7a 0a be
       -0.033196345 0.0110204285 -0.17370823 -0.13523449
000260 d5 50 22 bf 4b 4d 16 3f 27 92 ba be a7 b8 89 be
       -0.6340459 0.5871169 -0.3643963 -0.2689869
000270 59 b5 cd 3d f4 b2 1c bf 70 a6 61 be 32 c9 b5 3c
       0.10044355 -0.6121056 -0.22036147 0.022190664
000280 1c 6d 15 be 02 43 33 3d 93 83 96 be 32 4d 1a be
       -0.14592403 0.043765076 -0.29397258 -0.1506851
000290 e2 34 39 3f ca 00 4d bd 0e 99 b2 bd 63 4c 81 3e
       0.7234632 -0.05004958 -0.08720599 0.2525359
0002a0 e8 79 4d 3e 97 af 55 be a6 f9 53 3e b2 a1 91 3e
       0.20066035 -0.20867763 0.20700702 0.28443676
0002b0 bb 42 0f 3e 50 fa b1 be 54 ab 16 be fe b7 01 3e
       0.139903 -0.34761286 -0.14713794 0.12667844
0002c0 99 b2 5b be e0 21 cd 3e 32 99 dc 3d 65 74 8b 3e
       -0.21454848 0.40064907 0.10771407 0.2723724
0002d0 1c 43 37 3e bd e3 a6 bd d2 b6 1c 3f 31 63 c7 bb
       0.17896694 -0.081489064 0.6121646 -0.0060848226
0002e0 cd 50 55 3c cb 6d 24 bf dc e3 08 bf 0b 51 cf be
       0.013019753 -0.6423003 -0.53472686 -0.40491518
0002f0 83 b5 d4 be 09 51 b8 bd e0 fb fc bd 46 a6 29 3f
       -0.41544732 -0.08999831 -0.12352729 0.6626934
000300 36 69 0f be ce 9b 06 3e cc cf 83 3e b2 80 61 be
       -0.14004979 0.13145372 0.25744474 -0.2202175
000310 b0 93 06 be a2 9b d0 be 88 29 60 3d 3e d2 e0 3e
       -0.13142276 -0.40743738 0.054727107 0.43910402
000320 da 26 98 3e 28 7d db bd c3 40 4a be f7 87 47 3e
       0.2971714 -0.10717231 -0.19751267 0.1948546
000330 5d c6 e1 3e 9f 05 a1 bd 65 f2 1c 3e ad c2 99 3e
       0.44096652 -0.078624 0.15326841 0.30031338
000340 75 8f dd bd 52 d0 87 3e 70 30 ed 3d 92 4c 60 3e
       -0.10818378 0.26526123 0.11581504 0.2190421
000350 1b 69 e3 3d 78 80 2d 3f 39 6d 12 3e 19 cd 26 be
       0.11104032 0.6777415 0.14299478 -0.16289176
000360 3b 04 94 bd bb a2 03 3e dc f9 4d bf 76 29 11 3e
       -0.072273694 0.12855045 -0.8045938 0.14175972
000370 c4 97 18 3e 45 57 4a 3f 4a 9a aa 3d f9 2f 05 3e
       0.14901644 0.7903941 0.083302096 0.13006581
000380 9c 5b de 3a 3e 8f 90 be 1a 6e d3 be 40 77 27 bf
       0.0016964558 -0.28234285 -0.41294938 -0.65416336
000390 6a 76 70 be 7b 09 08 be 64 2c 07 3e d6 27 c4 3e
       -0.23482671 -0.13284867 0.13200527 0.38311642
0003a0 6d a6 10 be 68 7c a7 3e 90 ad a7 bc 66 63 ac be
       -0.14125986 0.32712102 -0.020468503 -0.33669585
0003b0 c3 34 2c 3e 82 10 a7 3d 95 d3 8b 3d 3d 1f eb bd
       0.16817002 0.081574455 0.068274654 -0.114805676
0003c0 58 a8 0b be 5a ce 31 3c cb 9a 49 bd 67 af be 3e
       -0.13638437 0.010852421 -0.049219888 0.37243196
0003d0 51 c2 e3 be fb 48 41 bf 97 d9 2d 3d ac 21 dd bd
       -0.4448419 -0.75501984 0.042443838 -0.10797438
0003e0 e0 7a 34 bf b4 f2 08 bf d2 1a 72 be dd f0 0b 3e
       -0.7049999 -0.53495336 -0.23643044 0.13666101
0003f0 ea 4d 39 bf 2b 4c 2a bf 7f f7 b9 be 8a ba 9a 3e
       -0.7238451 -0.66522473 -0.36321637 0.30220443

1.bias f4 [8]
000000 8c fe f5 bb 83 bc 27 3e 70 7a 3f bc d4 d5 aa 3d
       -0.007507151 0.16380505 -0.011686906 0.08341566
000010 0c 3a 38 3e f5 62 4f 3c 9a 70 80 3d 47 c1 44 3e
       0.17990893 0.012657871 0.06271477 0.19214354

2.weight f4 [16, 8, 3, 3]
000000 83 85 19 bf 14 f6 b3 be 29 b9 d2 3d f2 d2 fd 3d
       -0.5996935 -0.3514868 0.10289223 0.1239375
000010 26 33 04 bd d3 dc a5 3e bb 28 c4 be e9 70 2c 3e
       -0.03227534 0.32395038 -0.38312325 0.16839947
000020 88 51 0a 3f a9 c6 8b 3e 3e 3d a3 3d 13 de ec 3c
       0.54030657 0.27300003 0.079706654 0.028914487
000030 86 7c 89 be e1 d0 22 bc 6f df 06 bf 0f 95 43 be
       -0.26852816 -0.009937496 -0.5268468 -0.1909983
000040 bc 07 23 bd 52 3f b0 3d 28 4b 7e 3e f7 58 1b bd
       -0.039802298 0.086058274 0.24833357 -0.03792664
000050 6e f1 7b be 73 33 be 3d ec 97 6e be 94 0a b8 bd
       -0.24603817 0.09287157 -0.23300141 -0.089863926
000060 02 67 9f 3d ac 51 cf bd d4 a9 dc 3d 32 bf 6c bd
       0.07783319 -0.101229995 0.1077458 -0.057799526
000070 a2 ae 76 bc f1 41 a1 be 69 95 57 bd dd c8 d3 3d
       -0.015056284 -0.31495622 -0.052632723 0.10341046
000080 ac 60 f2 3e a8 dc 22 bf b8 ed 75 be 67 8e e0 3d
       0.4733938 -0.63617945 -0.24016464 0.10964661
000090 a3 a8 40 3e a2 d4 44 be a7 d4 d8 be 0c bb 86 be
       0.1881433 -0.19221738 -0.4234974 -0.2631458
0000a0 9b 9c 4e bd d5 08 ff be 0d 8d 3b bd 85 bf 48 3c
       -0.05044232 -0.49811426 -0.045788813 0.012252693
0000b0 12 53 1d 3c 81 7e ad 3e d9 24 e3 3e e3 18 35 3e
       0.009602325 0.33885577 0.4436405 0.17685275
0000c0 52 ad 52 bd 3e f9 8f 3d 75 9c f1 bd 42 ca ee be
       -0.051434822 0.07029961 -0.1179742 -0.46638685
0000d0 22 c3 b7 be db 59 23 be b4 ef 79 3e 69 8a 7c be
       -0.35891062 -0.15952246 0.24407846 -0.24662174
0000e0 09 55 df be 05 15 60 3d fe cb 47 3d 9c 9b ec be
       -0.43619564 0.054707546 0.048778526 -0.4621247
0000f0 07 7c b2 3e f7 e6 51 3e 54 08 d7 3e fa 52 8d 3d
       0.3486025 0.20498262 0.4199854 0.06900592
000100 f2 48 a9 be cc f4 1d be 7c 94 b3 be d8 95 fa ba
       -0.33063465 -0.15425414 -0.35074222 -0.0019118143
000110 76 76 b3 bd 66 42 6d 3c cb ab 6c bc 5a 5f f2 3e
       -0.08762829 0.014481163 -0.0144452555 0.47338372
000120 61 7c ec 3e 57 ea 03 3e 9a 36 10 bf 48 44 db 3e
       0.46188644 0.12882362 -0.56333315 0.42825532
000130 0e d9 16 be 73 b7 06 bf 00 f1 f2 be bb 4d 79 3e
       -0.14731237 -0.5262367 -0.47449493 0.24346058
000140 7f 91 13 bf 77 3e 1e 3e 42 f1 46 be 4d 92 81 be
       -0.57643884 0.15453516 -0.1942797 -0.2530693
000150 5f 1b da 3d 63 9f af be ef 22 61 3e cc 1f 4e be
       0.10649752 -0.3430129 0.21985982 -0.20129317
000160 e3 ac c7 bd 77 12 e1 3c 47 51 03 bf 54 7e 1d be
       -0.097497724 0.027474625 -0.51295894 -0.15380222
000170 af 08 57 be b4 7c a0 be 3c e8 77 bc a7 85 05 3f
       -0.20999406 -0.3134514 -0.015131053 0.5215706
000180 6a 38 86 be 86 1a 42 3e f3 2a c7 3d 0b 5b 75 3e
       -0.26214916 0.1895543 0.09724989 0.23960511
000190 71 7e 87 bd 42 8f d6 3e 0f e1 8e 3e 22 05 ef bd
       -0.06615914 0.41906172 0.2790608 -0.11670901
0001a0 98 db 07 be ba eb 4a 3d c0 6c 0c 3e b9 0d cf be
       -0.13267362 0.049541213 0.1371336 -0.40440157
0001b0 83 ff a9 3e d3 e0 ae be 77 12 c8 3e fc 94 02 be
       0.33202752 -0.34155902 0.39076588 -0.12752146
0001c0 e1 6f 8d be d0 fc fd 3e e4 be 2d bd ce 12 10 be
       -0.2762442 0.49606943 -0.042418376 -0.14069673
0001d0 55 16 a4 3e 83 57 1c 3d ab 4b 58 be 34 67 b6 3d
       0.32048288 0.038169395 -0.21122615 0.08906403
0001e0 bf 50 ac 3e 0a 88 e6 be 5b 1d 62 be 86 75 4a be
       0.33655354 -0.45025665 -0.2208151 -0.19771394
0001f0 e8 d9 65 bd 15 4f b1 3d 50 f7 1c bd 7c 4a 27 be
       -0.056116015 0.08657662 -0.038321793 -0.16337007
000200 e4 75 e7 3d 8b a0 8d be 41 0d 77 3e 3e d7 d0 3e
       0.11301783 -0.27661547 0.2412615 0.40789217
000210 ec 71 03 3f 9a ae 7b be 88 81 2d 3e 98 61 c1 3e
       0.51345706 -0.24578324 0.16943944 0.3776977
000220 6a c4 13 3e 90 76 12 3e e2 10 ad 3d c6 dc c0 3d
       0.14430395 0.1430304 0.08450486 0.09417109
000230 77 3e 26 3e bf f7 31 be 1d d4 5a 3e a9 74 82 be
       0.16234766 -0.17379664 0.21369977 -0.2547963
000240 e5 d6 9e be 61 92 90 be b9 c5 ba 3d 01 d4 27 bd
       -0.31023327 -0.28236678 0.09119744 -0.040973667
000250 37 b5 32 3e f2 ef 45 3d b1 5e 53 be aa dc f9 3d
       0.1745194 0.048324533 -0.2064159 0.122002915
000260 b8 a3 50 3e 29 c5 49 3e 2c e3 0b bf 83 83 20 bf
       0.20374954 0.19704117 -0.5464351 -0.6270067
000270 3e cb e8 be 1e 78 a8 be 57 05 64 bd 21 cd 81 bd
       -0.4546756 -0.32904142 -0.055669155 -0.06337953
000280 fc 2e d9 3d 4c 8b 83 3d c4 61 b6 bd 6e 5d 21 bf
       0.10604665 0.06423053 -0.08905366 -0.6303319
000290 30 78 39 bf 0a ad 0f 3f ca f6 d9 3e 21 de 22 3e
       -0.72449017 0.5612341 0.42571098 0.15905048
0002a0 13 3b 86 be 8e c5 d4 bd 6f 76 15 3d 09 bd 93 3d
       -0.26216945 -0.10389243 0.0364899 0.0721379
0002b0 3b c9 ad 3e 1f 09 b6 3e 4b 48 8d be 9e 9d 3d be
       0.3394259 0.35553834 -0.27594218 -0.18517157
0002c0 f2 41 02 3e 11 6a 83 be aa 2c 6e 3e 68 ac 5d be
       0.12720469 -0.2566686 0.23259225 -0.21647799
0002d0 70 57 93 3e a6 cd ef be 03 74 e8 be 40 68 cc be
       0.28777647 -0.46836585 -0.4540101 -0.39923286
0002e0 b1 77 ed bd 84 8c f5 bd 51 9f 0b 3d 23 7e cb 3d
       -0.11595095 -0.11989692 0.034087483 0.09936168
0002f0 e3 66 bd be 3a 22 06 3e 56 44 b4 3e 91 08 28 be
       -0.3699256 0.13098994 0.35208386 -0.16409518
000300 7a 6d 68 be 00 89 ee be a1 b5 68 be d0 54 a3 be
       -0.22698012 -0.46588898 -0.22725536 -0.31900644
000310 a8 fb 3a 3e 6a 18 7a 3e 12 7d 4b bd 20 f5 d5 be
       0.18260062 0.24423376 -0.049679823 -0.41788578
000320 9b bd ba be 13 43 2c 3e b7 27 0b 3f 8d 82 e7 3e
       -0.36472782 0.16822462 0.54357475 0.4521679
000330 10 00 88 3e 26 f2 85 bd 7c d6 a4 3d db 30 1a 3f
       0.26562548 -0.06540327 0.08048722 0.602308
000340 88 5c e7 3e 40 aa 03 3e f6 5b 5e bf 50 7f 29 be
       0.45187783 0.12857914 -0.8685907 -0.16552472
000350 7c 46 eb 3e 69 93 50 3e a6 2e 2c 3d 7b 9b 80 be
       0.45952213 0.20368733 0.042036675 -0.25118622
000360 77 65 f1 be fa 79 1f be ef 17 a1 3e 7f 32 19 bf
       -0.47147724 -0.15573874 0.31463572 -0.59842676
000370 58 88 ef bd cd a5 43 3e de aa bc 3d 8b 8f 80 3d
       -0.116959274 0.19106217 0.09212278 0.06277379
000380 39 f4 ed 3e 6a 79 8c be b5 32 d1 be f2 db 28 be
       0.4647539 -0.27436382 -0.40859 -0.16490152
000390 a8 1c 50 be 6a fc 5b 3e 0a a5 81 be b5 ed 40 be
       -0.20323431 0.21483007 -0.25321227 -0.18840678
0003a0 7e 89 f4 3d e9 7d f6 3e 43 d5 8d be d2 95 25 bf
       0.11940287 0.48142937 -0.27701768 -0.6468173
0003b0 06 3c e9 be 63 cc 35 3f a5 bf 19 bd b3 64 1c 3e
       -0.45553607 0.71014994 -0.037536282 0.15272789
0003c0 9c 68 ec 3e 52 ae 1a be 2a 2a c4 bc fd 16 c7 bd
       0.4617356 -0.1510556 -0.023945887 -0.097211815
0003d0 b1 33 12 3f 31 40 3b 3e c3 d6 e2 be 44 ff 15 bf
       0.57110125 0.18286206 -0.44304475 -0.5859263
0003e0 5d a9 f7 3c ed 6b 04 bf 35 c1 35 3e 07 93 99 3d
       0.030232126 -0.5172718 0.17749484 0.07498746
0003f0 a7 3e e2 bc 15 84 f8 3e f6 2f 1f bf 82 0b cf be
       -0.027617766 0.4853827 -0.6218256 -0.40438467

2.bias f4 [16]
000000 79 b4 33 3e 18 58 b8 3d 42 d2 50 be 4d 49 a8 3b
       0.17549314 0.090011775 -0.20392707 0.0051356913
000010 03 b8 32 3d 7a e8 84 bd a8 b6 f4 bd ba d8 d6 bc
       0.04363252 -0.06489654 -0.119489014 -0.02622639
000020 84 15 1e bd 8a a5 c4 bd a4 12 a3 3d 1f 4d fe 3d
       -0.038594738 -0.096018866 0.0796254 0.124170534
000030 5b af f6 3d b2 8d 04 be b4 c2 c5 b9 64 27 9f 3d
       0.12045165 -0.12944677 -0.00037719833 0.07771185

4.weight f4 [3, 64]
000000 cb 7d 41 3e 15 40 2e 3e 98 31 b3 bd 35 da 4c 3d
       0.18895642 0.17016633 -0.08749694 0.050012786
000010 0c 78 2b be 35 53 1d bd e2 9c 80 bd dc 23 b2 3d
       -0.16745013 -0.03840943 -0.06279923 0.08698246
000020 66 c5 05 3f b2 cf 9e 3e 13 36 29 bb 9d 9c 45 be
       0.5225433 0.31017834 -0.0025819584 -0.19298024
000030 f2 bf 35 3f d4 a1 f1 be 5d 53 89 be df f1 c0 bd
       0.7099601 -0.47193778 -0.26821414 -0.09421133
000040 64 db 96 3e 1c 1b a9 be 60 0c 51 be 19 35 70 3e
       0.29464257 -0.33028495 -0.20414877 0.23457755
000050 78 82 72 be c0 c3 81 3d b1 9f 98 3e 06 2a 14 3e
       -0.23682582 0.063361645 0.29809335 0.14469156
000060 41 89 59 3e 1d 96 b5 bd 8a 13 7d be 63 dd ee 3c
       0.21243764 -0.088665225 -0.24714485 0.0291583
000070 2f 96 6b be 80 1c db 3c ee 75 79 3e fc 6e 80 3e
       -0.23006509 0.026746988 0.24361393 0.25084674
000080 d6 7b a8 be 4d 73 5b be df 58 41 be f1 04 b1 be
       -0.3290698 -0.21430703 -0.18881558 -0.34574082
000090 22 4c a3 be 1c c2 3a 3e ed 1c 79 3e c5 c8 28 bd
       -0.31894022 0.1823811 0.2432744 -0.041207094
0000a0 81 81 78 3e e9 5f 44 be 7a e2 e3 bd 36 1a 76 be
       0.24268152 -0.19177212 -0.11127181 -0.24033436
0000b0 96 3a 6e be 2f 18 0d bf 6c 48 40 bc 47 dd 93 be
       -0.23264536 -0.55115026 -0.011736017 -0.2887976
0000c0 09 d4 3c bc 46 5a 51 be 94 3a 23 3d 3c 67 8c 3d
       -0.0115251625 -0.20444593 0.039850786 0.06855628
0000d0 dc af 12 bc bb 4a c0 3d 43 cd ce bd fa aa 38 3e
       -0.008953061 0.09389254 -0.10097744 0.18033972
0000e0 c7 9c 8b 3d e8 8f 5b 3d 9e 44 77 bc 8e c1 c5 3e
       0.06817012 0.053604037 -0.015092043 0.38624233
0000f0 79 c5 e4 bc ac 9c 3f 3d 98 a1 15 3d 6c 8f 83 3c
       -0.027926194 0.046780273 0.03653106 0.0160596
000100 aa fe 30 3d 3a fb 6a bd 2d ac 87 be 48 e8 06 3d
       0.043211617 -0.057368495 -0.26498547 0.032936364
000110 6e f8 59 bf 44 5c 7c 3e 1b ba 93 3e 77 e7 81 3e
       -0.851447 0.24644572 0.28852925 0.25371906
000120 06 7b 84 be b0 8f 85 3d 64 a0 85 3e 16 bd 25 3f
       -0.2587511 0.06521547 0.2609893 0.6474165
000130 36 d1 82 bd 7c d1 07 3c b5 94 43 be 8a 60 fe 3d
       -0.0638756 0.008289691 -0.19099696 0.12420757
000140 33 39 36 be 2e 90 73 3e 60 61 20 be 28 f3 db 3d
       -0.17795257 0.23785469 -0.15662146 0.10739738
000150 cf fb e6 3e 8c 04 6d 3e c1 b6 f8 3e 83 a7 b2 be
       0.4511399 0.23146266 0.4857693 -0.34893426
000160 19 03 e6 3e aa 52 a1 3e fe d4 2f 3e 39 7e ba 3e
       0.44924238 0.3150838 0.17171094 0.36424425
000170 16 79 0a 3f ff c8 3a 3e 77 52 3c 3d f4 84 ee bd
       0.5409101 0.18240736 0.045977082 -0.116464525
000180 75 6c a3 3e f0 b7 32 3e 9c 83 da bb 48 e6 b7 bd
       0.31918684 0.17452979 -0.006668521 -0.089794695
000190 74 10 d2 3e 7e ca ae be 93 bf 0d be f7 48 99 be
       0.41028178 -0.34138864 -0.13842611 -0.2993848
0001a0 58 a8 27 bf 43 c5 91 be 71 b3 6e be 6a 0a ea 3e
       -0.6549125 -0.2847081 -0.23310639 0.4571107
0001b0 2c 33 49 ba 18 69 a6 3d ac 0f 68 be cf 92 87 be
       -0.00076751667 0.08125514 -0.22662228 -0.26479194
0001c0 1d fb f2 3c 4f 9f 54 be 2f 17 46 bf 79 b0 11 bf
       0.029660756 -0.20763896 -0.77379125 -0.569099
0001d0 8b b3 3b 3f f4 3a 5f 3e 44 07 39 be fd 0e 21 bd
       0.73320836 0.21799833 -0.18069178 -0.039320935
0001e0 98 d1 18 3e d8 0f dd 3b bb ed 5c 3e 2a 38 c6 be
       0.14923704 0.0067462735 0.21575062 -0.38714725
0001f0 56 52 00 3d d4 da d4 3e bf b8 52 bd 71 26 bb 3d
       0.03132852 0.41573203 -0.05144572 0.091381915
000200 32 b0 0a 3e a4 7a 86 3e cc b9 45 bf 00 86 00 bf
       0.13543776 0.26265442 -0.7723663 -0.5020447
000210 c2 b5 ce be 37 ae 4a 3e e6 57 6d 3e 0b be a5 3d
       -0.40373045 0.1979302 0.23178062 0.080928884
000220 e3 dd 5a 3d e8 44 b8 bd 83 3e a6 be 21 18 b1 3d
       0.053434264 -0.08997518 -0.32469568 0.0864718
000230 a7 84 63 3e af c2 3a 3e 0e 58 72 bd 02 df 2e be
       0.22218572 0.18238328 -0.059166007 -0.17077258
000240 f1 6d 1a 3e e5 ac 4a 3e d4 6b 1b 3e 22 6e 85 3d
       0.15081002 0.19792517 0.15177852 0.06515147
000250 83 05 87 be 69 f9 86 be 55 ac 36 3d b8 66 3a be
       -0.26371393 -0.2636216 0.044597942 -0.18203247
000260 bc 93 cb 3d f1 0d 64 3b c6 ef 0c be ef 12 34 bd
       0.099402875 0.0034798349 -0.13763341 -0.04396337
000270 52 36 47 3f 07 ec 05 3e fe 3e 05 3d b0 93 e2 bd
       0.7781726 0.13078319 0.032530777 -0.110633254
000280 f6 24 b4 be 71 6f ca bc 62 13 13 3e 72 0d ae bd
       -0.3518445 -0.024711343 0.14362863 -0.08498658
000290 a7 80 0d bf 0f 3f 0d be 32 e3 aa 3e 70 c7 cd 3e
       -0.5527443 -0.13793586 0.3337646 0.4019122
0002a0 68 6b 9b 3e 62 1b 9b 3e 5a e7 f0 3d 4f df 86 3e
       0.30355382 0.3029433 0.11762877 0.26342246
0002b0 46 8c ec bd 0c eb d9 bd bb e0 69 3f cd 1c 94 be
       -0.115501925 -0.10640535 0.91358536 -0.28928223
0002c0 f3 32 ea 3e 4c 5d c3 bc 8e 9c 85 be a0 88 ed bd
       0.45741996 -0.023848198 -0.26096004 -0.11598325
0002d0 76 19 15 3f e8 9f 1c 3d 43 fd 32 bd 7c e2 8b 3d
       0.58241975 0.038238436 -0.04369856 0.06830308
0002e0 a0 a1 dc be b7 94 3d be 78 cc 00 bd 8b fb 01 3e
       -0.4309206 -0.18513761 -0.031444997 0.12693612
0002f0 22 29 8f 3f 03 d5 fa 3e da dc b2 be a8 62 05 bf
       1.1184428 0.4899064 -0.3493412 -0.5210366

4.bias f4 [3]
000000 de 3d bc 3d 8b 27 b7 be 39 87 fd 3d
       0.09191488 -0.35772356 0.12379307
