models/Navigator_v2_10k.pt (torch, 10044 bytes, 8 tensors)

0.weight f4 [4, 2, 3, 3]
0	0x3e33e4e4	0.17567784
1	0x3d5e9d9a	0.05434952
2	0xbe2b7f08	-0.16747677
3	0xbde85e50	-0.11346114
4	0xbe863ea4	-0.26219666
5	0x3e223c02	0.15843204
6	0xbd5f2053	-0.054474186
7	0xbe907760	-0.28216076
8	0x3dab23f5	0.08356468
9	0xbfc16388	-1.51085
10	0xbf1c506f	-0.6106023
11	0x3dcab6af	0.098981254
12	0x3ebff0e9	0.37488487
13	0x3e92fe90	0.2870984
14	0x3eee215a	0.4650982
15	0xbf509ac7	-0.8148617
16	0xbf154445	-0.58307296
17	0xbfba3098	-1.454608
18	0x3de85b03	0.11345484
19	0x3cbbf6c3	0.022944814
20	0xbdb8c9b2	-0.09022845
21	0x3d580a7e	0.05274438
22	0x3d0c84eb	0.034306448
23	0xbd75d1dd	-0.060014594
24	0x3d885a51	0.066578515
25	0xbc18861b	-0.009309317
26	0x3db09579	0.0862226
27	0xbef6f4a1	-0.48233512
28	0xbf167b56	-0.58781946
29	0xbe9f8f81	-0.31164172
30	0xbf51f792	-0.8201839
31	0xbf138dec	-0.5763843
32	0xbedc3fad	-0.4301733
33	0xbf98d8b5	-1.1941134
34	0xbdcb3854	-0.09922853
35	0xbfc6821f	-1.550846
36	0x3e3a4138	0.18188941
37	0xbbf13c5e	-0.0073619327
38	0xbd12ef15	-0.035872538
39	0x3e437408	0.19087231
40	0xbc69c5a2	-0.014268311
41	0xbe166098	-0.14685285
42	0x3dbafbc3	0.09130051
43	0x3e0cc7fa	0.1374816
44	0x3c342c1f	0.010996847
45	0xbf0f7086	-0.5603107
46	0xbeed75e6	-0.46379012
47	0xbfe68197	-1.8008298
48	0xbe31a20c	-0.17346972
49	0xbdd84179	-0.10559363
50	0x3ee5c26c	0.44874895
51	0x3f28bec8	0.6591611
52	0xbf19da13	-0.6009838
53	0xbf97cf65	-1.1860167
54	0xbe36cba1	-0.17851116
55	0x3da85fd3	0.08221402
56	0x3dfa832f	0.122320525
57	0xbe629d96	-0.22130427
58	0x3dd6f7da	0.10496493
59	0x3d8eff4f	0.0698229
60	0x3e57fdd4	0.21092921
61	0xbd57aeeb	-0.05265705
62	0xbd4612fe	-0.048357956
63	0x3f9db773	1.2321609
64	0x3e2c1c70	0.16807723
65	0x3f950136	1.1640995
66	0x3f115901	0.56776434
67	0xbd947b48	-0.072500765
68	0xbe2fa3ff	-0.17152403
69	0x3f33b9a2	0.7020513
70	0xbd9b8231	-0.075931914
71	0x3d29d8a9	0.04146639

0.bias f4 [4]
0	0x3de600c0	0.11230612
1	0xbcd0973d	-0.025462741
2	0x3e2b384b	0.16720693
3	0xbd6ac298	-0.057314485

1.weight f4 [8, 4, 3, 3]
0	0xbdaa9829	-0.083298035
1	0xbdbea5a0	-0.09308934
2	0x3e9b686e	0.3035311
3	0x3eae6caf	0.34067294
4	0xbcfebb76	-0.031095248
5	0xbd3ceec4	-0.046126142
6	0xbef37745	-0.47551933
7	0x3ec86685	0.39140716
8	0x3ef788d8	0.4834659
9	0xbde0f735	-0.10984651
10	0xbea29b1e	-0.3175897
11	0x3f24e77d	0.64415723
12	0x3ebcc57c	0.3686942
13	0xbe9c6a0e	-0.30549663
14	0x3e647da9	0.2231356
15	0x3dc09c0b	0.09404763
16	0x3f19856d	0.59969217
17	0x3e8d5a7c	0.27608097
18	0x3ea64380	0.32473373
19	0x3e18d028	0.14923155
20	0x3e8717c7	0.26385328
21	0xbe653321	-0.22382785
22	0x3d9f8bc3	0.07790329
23	0x3e9d4f48	0.3072455
24	0xbe1c5e80	-0.15270424
25	0xbd8cc848	-0.06874138
26	0x3ea529ac	0.32258356
27	0x3e4c8f4f	0.19976543
28	0x3dd8fafe	0.10594748
29	0xbebd500b	-0.3697513
30	0x3ec4d315	0.38442293
31	0x3c97a0be	0.018509265
32	0xbe330348	-0.1748172
33	0xbef66d05	-0.4813005
34	0x3e0e7470	0.13911605
35	0xbe16abb7	-0.14713942
36	0xbf289636	-0.65854204
37	0xbe7d6083	-0.24743848
38	0xbdb8ac3b	-0.09017225
39	0xbf08597c	-0.5326154
40	0xbe6efb44	-0.23338038
41	0x3ddeb25b	0.10873862
42	0xbecff152	-0.406138
43	0x3eacd826	0.33758658
44	0x3d6c2ef7	0.057661977
45	0xbe2c4357	-0.16822563
46	0xbdad37eb	-0.08457931
47	0x3ccbb0cd	0.024864579
48	0xbc938655	-0.01800839
49	0x3ef3077d	0.4746665
50	0x3e8a97a8	0.2706883
51	0xbf298197	-0.66213363
52	0x3e88b081	0.26697162
53	0xbeb59f59	-0.35473135
54	0xbf294038	-0.66113615
55	0xbde0b2aa	-0.109715775
56	0xbe2e704d	-0.17035027
57	0x3e270a01	0.1631241
58	0x3e54d344	0.20783716
59	0xbdf74144	-0.12072995
60	0xbdb6ecc9	-0.08931882
61	0x3f3b5585	0.7317737
62	0x3ee2ac5e	0.4427213
63	0x3f183a35	0.59463817
64	0x3d3ea741	0.046546225
65	0x3e12712b	0.14300983
66	0x3d906936	0.070513174
67	0xbeb1a2da	-0.34694558
68	0xbe126768	-0.14297259
69	0x3e28d04d	0.1648571
70	0x3debee5e	0.11520074
71	0x3e7397db	0.23788397
72	0x3e3a8869	0.18216099
73	0x3dc4d698	0.09611243
74	0xbe18393d	-0.14865585
75	0xbf2d5f76	-0.67723787
76	0xbe6f8b6e	-0.23393032
77	0xbe189e54	-0.14904147
78	0xbda36b52	-0.07979454
79	0x3d11642e	0.03549593
80	0xbf0a775c	-0.5408838
81	0x3e855622	0.26042277
82	0xbe3630bf	-0.17792033
83	0x3e419246	0.18903455
84	0x3dc64eaf	0.096829765
85	0x3eb15810	0.346375
86	0xbac7d7a3	-0.001524676
87	0xbdfe0245	-0.12402777
88	0xbd193a61	-0.03740919
89	0xbf365466	-0.7122253
90	0xbeedec9d	-0.46469584
91	0xbe6293b1	-0.22126652
92	0x3c079d9a	0.008277321
93	0x3e39d7ef	0.18148778
94	0x3e373480	0.17891121
95	0xbea4106b	-0.32043776
96	0xbc511f51	-0.012763814
97	0x3e2120ac	0.1573512
98	0xbd2c7fe6	-0.04211416
99	0x3f230f0c	0.63694835
100	0x3e086387	0.13319217
101	0xbd98f547	-0.07468658
102	0xbe5ad404	-0.2136994
103	0xbef30982	-0.4746819
104	0x3dbc6f11	0.09200872
105	0x3cce8789	0.025211113
106	0x3e954c06	0.29159564
107	0xbe922578	-0.2854421
108	0x3ebb5c7d	0.36594
109	0x3e1258a3	0.14291625
110	0x3f2e1798	0.6800475
111	0x3eda6323	0.4265376
112	0x3e37e403	0.17958073
113	0xbdad8d59	-0.084742256
114	0xbee3df96	-0.4450652
115	0xbe222f5a	-0.15838376
116	0xbe9b4382	-0.30324942
117	0x3e3a49f0	0.18192267
118	0x3e69836e	0.22804043
119	0x3d68c088	0.056824237
120	0x3ed009d9	0.40632513
121	0x3de0c2f1	0.10974682
122	0xbdb735a1	-0.08945776
123	0x3df294de	0.118448004
124	0x3e6577e0	0.2240901
125	0xbed75f78	-0.42065024
126	0x3ee5d793	0.44891033
127	0x3f019298	0.5061431
128	0xbe4a6bef	-0.19767736
129	0xbe10b3b3	-0.1413105
130	0xbdb2f2c6	-0.087377116
131	0x3d3496dc	0.044089183
132	0xbe8a1bce	-0.26974338
133	0x3e97c747	0.29644224
134	0xbdc874c2	-0.09787895
135	0xbf2f3aeb	-0.68449277
136	0xbdb70c66	-0.08937912
137	0xbe58cf8b	-0.21172921
138	0xbec1f20f	-0.3787999
139	0xbe0e127d	-0.1387424
140	0xbdd09b7d	-0.10185907
141	0xbe1a2fa8	-0.15057242
142	0x3e8b466a	0.2720216
143	0x3e27f317	0.16401325
144	0xbf59f41b	-0.851381
145	0xbebf4c66	-0.37362975
146	0x3eaeaf50	0.34118128
147	0xbd73b286	-0.059496425
148	0x3df79477	0.12088864
149	0xbb427e82	-0.0029677455
150	0x3de02b9f	0.1094582
151	0xbf194586	-0.5987171
152	0xbccb8211	-0.024842294
153	0xbe927823	-0.28607282
154	0xbe816f19	-0.25280073
155	0xbd15de1a	-0.036588766
156	0xbb565a40	-0.0032707602
157	0x3dfa32d0	0.12216723
158	0xbb1893a5	-0.0023281362
159	0xbe355182	-0.17706874
160	0xbf0a1f9c	-0.5395448
161	0x3e1cf9bf	0.15329646
162	0xbded0882	-0.11573888
163	0xbe4d4907	-0.20047389
164	0xbcd3ea0a	-0.025868434
165	0x3deb335e	0.11484407
166	0xbc8d8e7e	-0.01727986
167	0xbdc29e98	-0.095029056
168	0x3d8f22fd	0.06989095
169	0xbe61c690	-0.22048402
170	0x3e6ba1db	0.23010962
171	0x3f172f0b	0.59056157
172	0x3eab48cf	0.33453986
173	0xbe00def6	-0.12585053
174	0x3e5035e1	0.20333053
175	0x3bb686f6	0.005570288
176	0x3bdac5a4	0.0066763926
177	0x3e1d965f	0.15389393
178	0x3e4c58de	0.19955775
179	0xbd64da53	-0.055872273
180	0x3ec12301	0.37722018
181	0x3e9827c2	0.29717833
182	0x3ee54060	0.44775677
183	0x3e55749e	0.20845267
184	0xbd0e81e1	-0.03479183
185	0xbe236dbf	-0.15959834
186	0x3ec8e031	0.39233544
187	0x3d8a0deb	0.06740936
188	0xbe0affa3	-0.1357408
189	0xbe385374	-0.18000585
190	0xbcf854f3	-0.030313944
191	0x3ed45710	0.41472673
192	0xbe7ef5eb	-0.24898498
193	0xbed842a6	-0.4223835
194	0x3e378a3b	0.17923824
195	0x3f7d85e8	0.9903245
196	0x3ebd30c6	0.36951274
197	0x3f1204f3	0.570388
198	0x3df39945	0.11894468
199	0x3edc21fe	0.42994684
200	0x3e96ca79	0.2945135
201	0xbe9f6647	-0.3113272
202	0xbe83edef	-0.25767466
203	0xbdc44bbd	-0.095847584
204	0x3dc047ed	0.09388719
205	0xbe9a7db0	-0.30174017
206	0x3e371585	0.17879303
207	0xbd32e529	-0.043675575
208	0xbf0544f2	-0.5205833
209	0x3e35f856	0.17770514
210	0x3e1a8a8f	0.15091918
211	0x3dfd904f	0.1238104
212	0x3e89d442	0.26919752
213	0xbdbcb0e9	-0.092134304
214	0xbe9b15e2	-0.30290133
215	0xbedded7a	-0.43345243
216	0xbd16392f	-0.03667563
217	0x3da37325	0.079809465
218	0xbf000644	-0.5000956
219	0xbeb081a5	-0.3447391
220	0xbd80fe5d	-0.06298516
221	0xbcbf4368	-0.023347571
222	0xbe0a64bd	-0.13514991
223	0x3d90ce54	0.07070604
224	0x3da5fec5	0.08105234
225	0x3e9b7f6b	0.3037065
226	0x3d0482c1	0.03235126
227	0xbea54988	-0.32282662
228	0xbdf30eb7	-0.11868041
229	0xbd1e0732	-0.03858108
230	0x3e2510f8	0.16119754
231	0xbf15ca54	-0.58511853
232	0xbf16cf16	-0.5890974
233	0xbdb1b367	-0.086767964
234	0xbe2ba507	-0.16762172
235	0xbea2bfe4	-0.31787026
236	0xbea9e716	-0.33184117
237	0xbdcc2477	-0.099678926
238	0x3e0decc1	0.13859846
239	0x3cd3baa6	0.025845837
240	0xbd188ecc	-0.037245557
241	0x3e1463b6	0.14491162
242	0xbe0c92af	-0.1372783
243	0x3eb29fc7	0.34887525
244	0xbe65578a	-0.22396675
245	0x3ef609d3	0.4805437
246	0x3e0e296a	0.13882986
247	0xbdaaaf5f	-0.08334231
248	0xbe2f20c6	-0.17102346
249	0x3ee9ee32	0.4568954
250	0x3e64a064	0.22326809
251	0xbe158398	-0.1460098
252	0xbf1541d5	-0.58303577
253	0xbde3ffec	-0.111327976
254	0x3e898958	0.26862597
255	0xbe94a9cb	-0.29035792

1.bias f4 [8]
0	0xbd1b1aec	-0.03786747
1	0x3ddcd20c	0.10782251
2	0xbd49d49b	-0.049275022
3	0x3e576115	0.21033128
4	0xbda4df90	-0.08050454
5	0x3d94e33e	0.072699055
6	0xbdfd18fc	-0.12358281
7	0xbc17be51	-0.009261684

2.weight f4 [16, 8, 3, 3]
0	0x3e17dd06	0.14830408
1	0xbe2e2648	-0.1700679
2	0xbed118bc	-0.40839183
3	0x3f20afff	0.6276855
4	0xbec222e7	-0.37917253
5	0xbf3e64f9	-0.7437282
6	0xbdc1ad84	-0.094569236
7	0xbda00e3c	-0.07815215
8	0xbdf9d57c	-0.12198922
9	0xbe1fb5b2	-0.15596655
10	0x3ef74836	0.4829728
11	0x3c6971c2	0.014248313
12	0xbe83af78	-0.2571981
13	0xbdb116d9	-0.08646936
14	0x3e080108	0.13281643
15	0x3df7dc85	0.12102608
16	0x3d7edb61	0.062220935
17	0xbe260c53	-0.16215639
18	0xbd87883e	-0.06617783
19	0x3eea875a	0.4580639
20	0x3e6012bd	0.21882148
21	0xbe885374	-0.2662617
22	0xbead0b08	-0.3379748
23	0x3e88a305	0.26686874
24	0x3d5932f9	0.053027127
25	0x3e24c652	0.16091278
26	0xbe1b2b6b	-0.15153281
27	0xbe4e4edc	-0.2014727
28	0xbe22f056	-0.15911993
29	0x3dcc935c	0.09989044
30	0x3ee78db8	0.4522531
31	0x3df2205e	0.1182258
32	0xbe9b7e79	-0.30369928
33	0x3e8858f1	0.26630357
34	0x3ddec46f	0.108773105
35	0xbe394767	-0.18093644
36	0xbeeb7766	-0.4598953
37	0xbc7fe93b	-0.015619571
38	0x3e8abeea	0.2709878
39	0xbe624ba8	-0.22099173
40	0x3caa198a	0.020764131
41	0x3e7f0eb0	0.24907947
42	0xbe1fe8a7	-0.15616094
43	0xbd9a756e	-0.07541929
44	0x3eb15af9	0.3463972
45	0x3eda22f9	0.42604807
46	0xbe0fd856	-0.1404737
47	0xbdd1b4e4	-0.1023958
48	0x3f028b97	0.5099425
49	0xbcea929d	-0.028634364
50	0xbf299fa7	-0.66259235
51	0xbf20b812	-0.6278087
52	0xbe2d6e5d	-0.16936632
53	0x3e206db9	0.15666856
54	0xbdda819f	-0.106692545
55	0x3c881d84	0.016615637
56	0x3d96b1c7	0.07358127
57	0xbf17aac5	-0.5924495
58	0x3ea9b589	0.33146313
59	0x3f16528a	0.58719695
60	0x3e7292dd	0.23688836
61	0x3d9f1288	0.077672064
62	0x3e618025	0.2202154
63	0xbee0a912	-0.4387899
64	0x3d94c48e	0.07264052
65	0x3f0db8bc	0.5536001
66	0x3d77f25a	0.06053386
67	0x3e5892d6	0.21149763
68	0x3dc24087	0.09484964
69	0xbe957ee6	-0.29198378
70	0x3daa683e	0.08320664
71	0xbc8ef4d2	-0.017450724
72	0xbd008306	-0.031374954
73	0x3dd14aaa	0.10219319
74	0xbe3ef38d	-0.18647595
75	0x3d7eff11	0.06225497
76	0xbe5f1556	-0.21785483
77	0xbeac5cde	-0.33664602
78	0xbdfd2872	-0.1236123
79	0x3c9a9708	0.018870845
80	0x3e4e09b4	0.20120889
81	0xbe6306af	-0.22170518
82	0xbe679c75	-0.22618277
83	0x3d524524	0.05133547
84	0x3ccd2349	0.02504124
85	0xbd2c6492	-0.0420881
86	0x3d8dba4b	0.06920298
87	0x3ebf5a16	0.37373418
88	0xbd04d802	-0.032432564
89	0x3e4076b3	0.1879528
90	0xbf0ab4c7	-0.54182094
91	0xbdaa6c40	-0.08321428
92	0x3ea364ac	0.31912744
93	0xbd40efc1	-0.047103647
94	0x3eac6338	0.33669448
95	0x3e217f80	0.15771294
96	0x3ef59ccd	0.47971192
97	0xbefca481	-0.49344257
98	0x3e6423d2	0.2227929
99	0x3eed9083	0.46399316
100	0xbed2ffb2	-0.41210705
101	0xbefbfaca	-0.49214774
102	0xbddf4baa	-0.10903104
103	0xbdd70846	-0.10499625
104	0xbe522e4b	-0.20525472
105	0x3ea4ea33	0.3220993
106	0xbe3f1344	-0.18659693
107	0xbdabcc65	-0.083885945
108	0xbec41d93	-0.38303813
109	0x3e579e12	0.21056393
110	0xbe024634	-0.12722093
111	0xbe08e0c6	-0.13366994
112	0x3e8f4e6e	0.27989525
113	0x3e743dcc	0.23851699
114	0x3e671238	0.22565544
115	0x3dab8e8b	0.08376797
116	0xbdd4d293	-0.10391726
117	0xbd641dfe	-0.055692665
118	0xbef68ace	-0.48152775
119	0x3e45dc94	0.19322425
120	0x3b49c396	0.0030786744
121	0xbdc68b35	-0.096945204
122	0xbe3855dc	-0.18001503
123	0xbe133a32	-0.14377668
124	0x3e4bdaea	0.19907728
125	0x3d2a462b	0.041570824
126	0xbddc5151	-0.107576974
127	0x3df71796	0.120650455
128	0x3dbd90bd	0.09256122
129	0x3edf0f32	0.4356628
130	0x3ce703ba	0.02820002
131	0x3ea3313d	0.31873503
132	0x3cdaa6db	0.026690891
133	0x3dd855d5	0.10563246
134	0xbd52f83d	-0.05150627
135	0xbebc5d22	-0.36789805
136	0x3e0639a5	0.13107927
137	0x3d1440c6	0.036194585
138	0x3e0e725a	0.13910809
139	0x3e81ce81	0.25352862
140	0x3e1bc2e0	0.15211058
141	0x3f014f70	0.50511837
142	0xbe02015a	-0.12695828
143	0x3df6de5d	0.12054131
144	0xbe9f55e9	-0.31120232
145	0xbdf277d1	-0.118392594
146	0xbd4da394	-0.05020483
147	0xbd49da17	-0.049280252
148	0xbe8be778	-0.27325034
149	0xbecfae9a	-0.40562898
150	0x3e039fd1	0.12853934
151	0x3ea5218d	0.3225216
152	0x3debaeee	0.115079746
153	0x3e34683a	0.17617884
154	0xbe6ab9f9	-0.22922505
155	0xbe733424	-0.23750359
156	0x3e6bb7a8	0.23019278
157	0x3cbfd729	0.023418026
158	0xbdd01e8c	-0.10162076
159	0x3e863b0c	0.26216924
160	0x3e7760c0	0.24158001
161	0xbe0e6d69	-0.13908924
162	0x3e0377f1	0.12838723
163	0xbe7965d6	-0.24355254
164	0xbec2e132	-0.38062435
165	0xbe165cd5	-0.1468385
166	0x3e5a808a	0.21338096
167	0x3e99df55	0.300532
168	0xbdd83327	-0.105566315
169	0x3e7ec4be	0.24879739
170	0xbe53448a	-0.20631614
171	0x3ed37dc0	0.41306877
172	0xbd929270	-0.07156837
173	0x3d96787d	0.073472
174	0x3dc50b90	0.09621346
175	0xbe3a20eb	-0.1817662
176	0xbed424cb	-0.4143432
177	0x3bd3fe6e	0.0064695394
178	0x3de63c0a	0.1124192
179	0xbe728c38	-0.23686302
180	0x3d154766	0.036445044
181	0x3e9f7a20	0.3114786
182	0xbeffe78e	-0.4998135
183	0x3db2090f	0.08693134
184	0xbe0937b5	-0.13400157
185	0x3dc522b6	0.09625761
186	0x3ec1a447	0.37820646
187	0xbea8ac3c	-0.32943904
188	0x3e7388be	0.23782632
189	0xbda7bae4	-0.081899434
190	0xbdf1a8a9	-0.117997475
191	0x3e0a96e4	0.13534123
192	0x3dad6126	0.08465795
193	0xbdbff31e	-0.09372543
194	0x3e29b7ff	0.16574095
195	0xbee50399	-0.44729307
196	0xbea7f118	-0.32801127
197	0x3f1d4b19	0.61442715
198	0x3da019fb	0.078174554
199	0xbeaaa035	-0.33325353
200	0x3ecc0122	0.39844614
201	0xbe7114e5	-0.23543127
202	0x3e1ff0c0	0.15619183
203	0xbe4ba6dc	-0.1988787
204	0x3e5556c7	0.20833884
205	0x3e369cb7	0.1783322
206	0xbe2555f8	-0.16146076
207	0x3e8c40de	0.2739324
208	0x3d3fd31d	0.046832193
209	0xbebe01db	-0.3711079
210	0x3d87e164	0.06634787
211	0xbe3fd41b	-0.18733256
212	0xbe0c75ef	-0.13716863
213	0x3e79a558	0.2437948
214	0xbe0d4768	-0.1379677
215	0xbea88085	-0.32910553
216	0xbe56767b	-0.20943634
217	0x3e3fd6bf	0.18734263
218	0x3ecc5688	0.39909768
219	0xbdfcb0fc	-0.123384446
220	0x3d9a0ba1	0.07521749
221	0x3c95da39	0.018292533
222	0x3e6393ae	0.22224304
223	0x3e917206	0.28407305
224	0xbe0c50d7	-0.13702713
225	0x3e4183cc	0.18897933
226	0x3de3deb2	0.1112646
227	0x3d53231f	0.051547166
228	0x3e99ae30	0.30015707
229	0x3ea37343	0.31923875
230	0xbe0e0317	-0.13868366
231	0x3ecac64a	0.39604408
232	0x3e8e3c1b	0.27780232
233	0xbeab169e	-0.33415693
234	0x3dc6a8e4	0.09700182
235	0xbe3a090c	-0.18167514
236	0xbddfb504	-0.10923198
237	0x3d8b1406	0.067909285
238	0x3e03ee13	0.12883787
239	0x3dc763f9	0.09735865
240	0xbe44a477	-0.19203363
241	0x3e59bd1e	0.21263549
242	0xbed0db60	-0.4079237
243	0x3e80b600	0.25138855
244	0x3dc8bcc9	0.09801633
245	0x3eeeb25a	0.46620446
246	0xbec702de	-0.38869375
247	0xbe335ca0	-0.17515802
248	0xbdaad259	-0.08340902
249	0xbe92b550	-0.28653955
250	0xbe110e26	-0.14165553
251	0xbd4e262f	-0.050329383
252	0x3e98d865	0.29852596
253	0xbbfcbbee	-0.0077128327
254	0xbec63c68	-0.3871796
255	0x3f026471	0.5093451

2.bias f4 [16]
0	0xbd8e9de6	-0.069637105
1	0x3e1f342e	0.15547249
2	0x3d6d30d7	0.057907905
3	0x3c9d4972	0.01920006
4	0x3d3c60e5	0.045990843
5	0x3bf50650	0.007477559
6	0xbd92bf43	-0.071653865
7	0x3dc98096	0.09838979
8	0xbcaabdd8	-0.020842478
9	0x3d405567	0.046956446
10	0x3cb4f842	0.022091035
11	0x3c0702b4	0.008240391
12	0x3cef5b6a	0.029218394
13	0x3e289afa	0.16465369
14	0xbd61c8ca	-0.055123128
15	0xbddb2703	-0.107008

4.weight f4 [3, 64]
0	0x3ec7d1c4	0.39027226
1	0xbd9dd1f7	-0.07706063
2	0xbe076ea2	-0.13225797
3	0xbe74b829	-0.23898377
4	0xbee0c0c2	-0.43897063
5	0x3e393520	0.18086672
6	0xbd47c022	-0.048767217
7	0xbee97fe6	-0.4560539
8	0x3f1020f6	0.56300294
9	0xbe993364	-0.2992202
10	0x3e2b3e50	0.16722989
11	0xbd23b932	-0.039971538
12	0x3ec7968f	0.38982055
13	0xbe9173ed	-0.28408757
14	0x3d8f25a9	0.06989605
15	0x3cdc97a9	0.026927786
16	0xbee06cd4	-0.4383303
17	0xbe26f73f	-0.16305254
18	0x3ebfda70	0.37471342
19	0xbe68ccb4	-0.22734338
20	0xbeea2d71	-0.45737794
21	0x3ddf897c	0.10914895
22	0xbef27ee4	-0.47362435
23	0x3e963dde	0.29344076
24	0xbd634ea9	-0.055494938
25	0x3de14b51	0.110006936
26	0x3d268565	0.04065456
27	0x3e9f8f39	0.31163958
28	0xbe67d5ea	-0.22640195
29	0xbe14b438	-0.14521873
30	0xbd71dcf4	-0.059048608
31	0xbe5de069	-0.21667637
32	0x3e8e30cc	0.27771604
33	0x3dad064b	0.08448466
34	0xbd0a3593	-0.0337425
35	0xbe521f80	-0.20519829
36	0xbe1511bb	-0.14557545
37	0x3e77eb62	0.24210885
38	0xbe8fdde5	-0.2809898
39	0xbe9784be	-0.29593462
40	0xbda90c55	-0.08254305
41	0x3e07d29b	0.13263933
42	0xbe4f5771	-0.202482
43	0xbdef2a22	-0.11677958
44	0xbe26c382	-0.16285518
45	0xbb03c9c1	-0.0020109268
46	0xbe978f48	-0.29601502
47	0xbe4a8c79	-0.19780149
48	0x3d4e54fd	0.05037402
49	0xbe3832e0	-0.17988157
50	0x3def6976	0.11690037
51	0xbc1bec63	-0.009516808
52	0xbd1dca6f	-0.038523134
53	0xbe2702c2	-0.16309646
54	0x3e9f31a0	0.31092548
55	0xbe8bf3cc	-0.2733444
56	0x3e2252ab	0.15851848
57	0xbd927f82	-0.071532264
58	0xbe9d52a9	-0.30727127
59	0xbe9e33c2	-0.30898863
60	0x3e91b9ce	0.2846207
61	0xbc09af28	-0.008403577
62	0x3e0f3127	0.13983594
63	0x3ea1a317	0.3156974
64	0x3f8ab680	1.0836945
65	0x3f02a2b8	0.5102954
66	0xbe6fe41f	-0.23426865
67	0xbf0190fc	-0.50611854
68	0x3cb52f8c	0.022117399
69	0x3e1d759b	0.15376894
70	0xbe875fe6	-0.26440352
71	0xbe0062ae	-0.12537643
72	0xbe5377f2	-0.20651224
73	0xbc15e553	-0.009148913
74	0x3e84e357	0.25954697
75	0xbcf6fdb6	-0.030150276
76	0xbe7b7d1d	-0.24559446
77	0xbe78da0a	-0.24301925
78	0x3d3addf6	0.045621835
79	0x3dfa6434	0.122261435
80	0x3eeafdfd	0.45896903
81	0xbe83be32	-0.25731045
82	0x3e648308	0.2231561
83	0xbd1d682a	-0.038429417
84	0x3eba55e8	0.36393666
85	0x3db34d6d	0.08755002
86	0x3e1ecac1	0.15507032
87	0x3f0a70d9	0.5407844
88	0xbd4fa60a	-0.050695457
89	0x3db7be4b	0.089718424
90	0x3de782bb	0.11304232
91	0x3e75556d	0.23958369
92	0x3f185e5c	0.5951898
93	0x3e1a9188	0.15094578
94	0xbcedad0c	-0.02901318
95	0x3dca030e	0.09863864
96	0x3c8a8cc4	0.016912825
97	0xbd34034f	-0.043948468
98	0xbedc2a7e	-0.4300117
99	0xbef199df	-0.47187707
100	0xbf4b1094	-0.7932217
101	0xbe31cd50	-0.17363477
102	0x3df78b9d	0.12087176
103	0xbe9ad203	-0.3023835
104	0xbf3e2c2f	-0.7428617
105	0x3de8cf64	0.113676816
106	0x3d7a0435	0.06103917
107	0xbdf6d78a	-0.120528296
108	0xbf082161	-0.5317593
109	0x3e627396	0.22114405
110	0xbe0eb69b	-0.13936846
111	0x3eb11f36	0.34594125
112	0x3f0e7541	0.55647665
113	0xbdeddb28	-0.11614066
114	0xbeaad627	-0.3336651
115	0xbeceafe0	-0.40368557
116	0xbe1eeb5e	-0.15519473
117	0xbd889113	-0.06668296
118	0x3c0b1488	0.008488782
119	0xbc954377	-0.018220646
120	0x3ea279ab	0.3173345
121	0x3ead64d9	0.33866003
122	0x3d42b399	0.04753456
123	0x3e13af81	0.14422418
124	0x3e45bd3d	0.1931047
125	0x3e2f6223	0.1712728
126	0x3e5d14ea	0.2159001
127	0xbdbe36a1	-0.092877634
128	0x3e0c929f	0.13727807
129	0x3e1b9b25	0.15195902
130	0xbc8809f6	-0.016606312
131	0xbecfb471	-0.40567353
132	0xbf314d1c	-0.69258285
133	0xbb6611fd	-0.0035105937
134	0x3ec66048	0.38745332
135	0xbe0619e8	-0.1309582
136	0xbed11342	-0.40835005
137	0x3e83db64	0.2575332
138	0x3ed14047	0.40869352
139	0xbeb75a3d	-0.35811034
140	0xbed456a2	-0.41472346
141	0xbe013a34	-0.12619859
142	0xbe6360dc	-0.22204918
143	0x3d8ea42d	0.06964908
144	0x3ee74fee	0.4517817
145	0xbe0e6120	-0.13904238
146	0x3cb1ef1a	0.021720458
147	0xbdf0b209	-0.117527075
148	0xbda4f5e6	-0.08054714
149	0x3e1c06a1	0.15236904
150	0xbe3a4168	-0.18189013
151	0xb9c9044d	-0.00038340912
152	0xbea527ad	-0.32256833
153	0x3c4abdd1	0.012374357
154	0xbc80e7f5	-0.015735606
155	0xbd3e559f	-0.046468373
156	0xbf11e07c	-0.5698316
157	0xbeac984a	-0.33709937
158	0xbdc44180	-0.09582806
159	0x3e8730c2	0.26404387
160	0xbe9fa877	-0.31183216
161	0xbde7e79e	-0.11323474
162	0x3d85af4c	0.06527576
163	0xbe33a9aa	-0.1754519
164	0x3db91a6a	0.09038241
165	0x3e73a192	0.23792103
166	0x3aac5d96	0.0013150449
167	0xbef56308	-0.47927117
168	0x3f2b4b54	0.66911817
169	0xbe848f8a	-0.25890762
170	0xbea5e126	-0.32398337
171	0x3ee24d27	0.44199488
172	0x3e9f23d3	0.3108202
173	0x3d1ce258	0.038301796
174	0x3e4ba211	0.19886042
175	0x3be6a97e	0.007039248
176	0x3efd76fb	0.49504837
177	0xbe8c2793	-0.27373943
178	0xbe34172a	-0.17586961
179	0xbf15010e	-0.58204734
180	0x3f15a735	0.5845826
181	0x3e5d3b56	0.21604666
182	0x3d97ea41	0.07417727
183	0x3dd6cc1a	0.10488148
184	0xbe0bf84c	-0.13668936
185	0x3e7a70cf	0.24457096
186	0xbd6cb349	-0.057788167
187	0xbea3391c	-0.31879508
188	0x3f08fd73	0.5351173
189	0x3d083218	0.033250898
190	0xbe7f1140	-0.24908924
191	0xbe434594	-0.1906951

4.bias f4 [3]
0	0xbd8f58d0	-0.069993615
1	0x3d9cadee	0.07650362
2	0xbe07d6a4	-0.13265473
