models/Navigator_v2_4k.pt (torch, 10044 bytes, 8 tensors)

0.weight f4 [4, 2, 3, 3]
000000 5d 2c 14 be eb f2 26 3e a7 b7 70 3b d7 54 7a bd
       -0.14470048 0.16303603 0.003673056 -0.061116066
000010 25 70 9a bd 56 b2 1a be 5f e4 48 3e fe 0a 7a be
       -0.07540921 -0.15107092 0.19618367 -0.24418256
000020 4b 1c 1c bd 8a 05 b2 3e 27 4d 54 3f 21 89 94 be
       -0.03811292 0.3476985 0.82930225 -0.2901087
000030 99 ad 03 3f d8 9d 67 3e 7f 4e ca 3d 1e 75 4a bf
       0.51436764 0.22618806 0.09878253 -0.79084957
000040 d9 dd 46 bf 52 6b c8 3e 7b 8b 27 be c1 8d ed 3d
       -0.7768226 0.3914438 -0.16361801 0.11599303
000050 7a 4a c5 bd c9 12 5d 3e 6a b5 04 be 27 f1 88 bd
       -0.09633346 0.21589197 -0.12959829 -0.06686621
000060 d0 75 29 be be 0d 2c 39 d3 34 b6 bd da 15 01 3f
       -0.16548848 0.00016408318 -0.08896794 0.5042397
000070 38 97 9c 3e 7b fb 19 3f 86 f9 58 3f bd 03 34 3c
       0.3058412 0.60149354 0.8475574 0.010987219
000080 d6 19 6a be d5 68 4a 3e 2e 39 18 3f dd 70 a1 3f
       -0.22861418 0.19766553 0.5946225 1.2612568
000090 d4 f1 df bd 82 c3 15 be 5c 1b a3 3c 5a 35 b6 3d
       -0.10934797 -0.14625362 0.019910507 0.08896895
0000a0 33 2e 07 3e f2 26 99 bd cd 7a c6 bc f4 05 ee 3d
       0.13201217 -0.07478131 -0.024228478 0.11622229
0000b0 d8 01 a3 bd 70 84 a1 3f e7 04 3e 3f b9 da c2 bc
       -0.07959336 1.2618542 0.7422623 -0.023785936
0000c0 bb 8d 58 3e 3f 61 0c 3e c9 93 fd bb 70 55 14 3f
       0.21147816 0.13708971 -0.0077385646 0.5794287
0000d0 01 20 4d 3e c4 c3 24 3f aa ed 1b be 7a 98 c2 bd
       0.2003174 0.64361215 -0.1522738 -0.09501739
0000e0 6b fa 35 3e 6b b3 ff 3d 92 9a 3d 3e da 48 65 be
       0.17771308 0.12485393 0.18515995 -0.22391072
0000f0 d0 bf 2f bc 1f 73 4b be e7 b9 77 3d 68 d9 72 3f
       -0.010726884 -0.19868134 0.060480025 0.94862986
000100 c7 82 2d 3f ab d3 a0 3f 8d 7c 27 3e 66 f3 10 bf
       0.67777675 1.2564596 0.16356106 -0.56621397
000110 49 f6 b3 3c 8e aa 3c bf 76 a3 ea 3e 7a 2d 7b 3f
       0.021968024 -0.73697746 0.45827836 0.98116267

0.bias f4 [4]
000000 e0 eb 54 3e b4 b0 58 3e f4 6b 50 3e 6b 7e 63 3d
       0.20793104 0.21161157 0.20353681 0.055540483

1.weight f4 [8, 4, 3, 3]
000000 d6 4f 78 be cb 2e b9 bd b5 a4 fb 3e 06 6c a9 be
       -0.24249205 -0.09042128 0.491491 -0.33090228
000010 a9 b5 88 be dc 28 bb 3e 01 a8 06 be 3c fc 35 be
       -0.26701096 0.3655461 -0.13150026 -0.17772001
000020 d9 3a a7 be 2f 73 6b 3d e8 c5 ee 3d 83 1f ae 3e
       -0.32662085 0.057482895 0.11658841 0.34008417
000030 eb 5d 13 be e6 98 8d 3b ba b2 7f 3e 36 83 f0 3d
       -0.14391296 0.0043212054 0.24970523 0.117437765
000040 b6 a5 ea 3e 7b 5a bd bd 9e b0 c4 bd 58 2b 40 bd
       0.45829552 -0.092457734 -0.096039996 -0.046916336
000050 e5 fc 21 3f 2a 05 fe bc 18 f5 7c be 2c d1 5b 3e
       0.6327651 -0.031008322 -0.24702871 0.21466511
000060 6d 90 74 3e b3 08 95 bd 48 8a c7 3b 20 68 8c 3e
       0.23883219 -0.0727705 0.0060894825 0.2742319
000070 42 b6 d1 3e 5f 6e 0f 3f e5 d1 44 bd 25 8a a3 bd
       0.40959364 0.5602779 -0.048051734 -0.07985333
000080 7c d9 d0 bd 86 f2 51 be 24 f0 b2 3e c5 59 98 be
       -0.10197732 -0.20502672 0.34948838 -0.2975599
000090 0d 92 1a 3f 0c ed 87 be 4c 94 47 3d 8b 2d 96 bd
       0.60379106 -0.2654804 0.04872541 -0.073329054
0000a0 39 b6 df bd 45 26 3b be b8 4e 35 3e 21 80 43 3e
       -0.10923428 -0.18276317 0.1770581 0.19091846
0000b0 77 64 03 bf ae 37 30 3e 59 59 78 be 7e ac 0f bd
       -0.5132517 0.1720874 -0.24252833 -0.03507661
0000c0 29 a8 65 bd 1a a0 62 3e a1 96 86 3e c9 2b c7 3e
       -0.056068573 0.22131386 0.26286796 0.38900593
0000d0 0b 1d 07 3f 99 c0 fb 3d b6 bb 02 3f 0c 55 ed 3c
       0.5277869 0.122925945 0.51067674 0.028971218
0000e0 f3 89 3b be 02 23 47 3e 40 8e 3e 3e de 13 e6 3c
       -0.18314342 0.19446948 0.18608952 0.028085645
0000f0 73 2d 69 3d b6 59 1c 3e e0 f7 72 3e 0e b7 76 3e
       0.05692811 0.15268597 0.2372737 0.24093267
000100 3d be 06 3e 72 70 b6 3d 6a 51 e5 3d e4 e2 89 3e
       0.13158508 0.08908166 0.11197169 0.26930916
000110 d8 60 8c 3e 93 b3 e4 3d 71 0f 75 3e 24 8c 1c be
       0.27417636 0.111670636 0.23931672 -0.15287834
000120 d5 c1 7b 3e fa c8 48 be 3c c5 39 be 74 8b a6 bc
       0.2458566 -0.19607916 -0.18141645 -0.020330168
000130 8a 61 18 bd 84 4c b7 bd a5 7c 04 bf c2 15 d6 3d
       -0.037202395 -0.08950141 -0.5175269 0.10453369
000140 d2 93 78 bd 06 70 a4 be 97 37 98 bd 19 50 dd be
       -0.060687847 -0.32116717 -0.07432478 -0.43225172
000150 57 bb e6 be b9 2b 1a 3e 46 3b 18 bd 7b f6 01 3e
       -0.45064804 0.15055741 -0.037165903 0.12691681
000160 92 3b c9 3e 91 d3 21 3e 7d 36 80 bd 41 3d 78 3b
       0.3930326 0.15803362 -0.06260393 0.0037878307
000170 c3 45 22 bf 4f c0 85 3b da bd b0 3d d8 7c 75 be
       -0.633877 0.004081763 0.08629961 -0.23973405
000180 19 32 27 bb 2c d1 a5 3e 05 11 73 be 2b 42 82 be
       -0.0025512038 0.32386148 -0.23736961 -0.25441107
000190 f5 f2 c2 3d 39 b8 ec be 4d 0e e6 be 20 e5 fa bd
       0.095189966 -0.462343 -0.44932786 -0.122507334
0001a0 59 71 98 3e 44 f5 26 be 4c ef ef bd c6 82 3c 3e
       0.29773977 -0.16304499 -0.11715564 0.18409261
0001b0 d0 4f 00 be 6c 96 a4 3d 25 c5 13 be 70 91 26 3e
       -0.12530446 0.08036503 -0.14430673 0.16266418
0001c0 58 cc 86 bd 07 f8 c2 be 4d 70 06 3f a7 bc be be
       -0.06581944 -0.38079855 0.5251511 -0.37253305
0001d0 49 67 d4 be e1 08 3c 3e fa ef b1 bd da 38 a5 3e
       -0.4148505 0.18362762 -0.0868835 0.32269937
0001e0 a9 df 38 3e 51 06 5d 3d 88 c2 86 bd ad 7d 99 3d
       0.1805407 0.053961102 -0.06580073 0.07494674
0001f0 6e f9 97 3e b1 3b 91 bb 00 aa 6d be 15 18 fa bc
       0.29682487 -0.0044321646 -0.23209381 -0.030529061
000200 4c b4 5d 3e c9 a8 50 3e 96 91 5d bd e9 f9 d9 bd
       0.21650809 0.20376886 -0.05409392 -0.1064337
000210 ee 0c 4b be a5 6b 43 3e 38 77 28 3e ea e5 0f 3e
       -0.19829151 0.19084032 0.16451728 0.14052549
000220 fb af 37 3d c9 18 17 3f f5 b6 1d 3e bc 34 28 be
       0.044845562 0.59022194 0.15401824 -0.16426367
000230 c4 f1 47 be d7 d1 99 3e 05 6d b1 3e 43 71 26 bc
       -0.1952582 0.30042908 0.34653488 -0.01015884
000240 5a a7 70 3d 17 1e a5 3e 46 d3 8b be 9d b8 00 3e
       0.05875335 0.3224952 -0.27309626 0.12570424
000250 58 6c 85 be dc d4 1a 3d b3 23 92 3e 0f f6 8b be
       -0.26059222 0.037800655 0.2854286 -0.27336165
000260 37 00 b9 be fb c8 db bd 95 c9 be bd 0b e1 e5 3d
       -0.36132976 -0.10731693 -0.093157925 0.11224564
000270 31 82 97 3b 71 af a2 3d 8c c1 6f bd da 48 2b 3e
       0.0046236743 0.07943619 -0.05853419 0.1672701
000280 cb bc c2 3e 55 45 f6 3e b1 fc b0 be e9 63 a1 3d
       0.38034663 0.4809977 -0.34567788 0.078803845
000290 80 78 af be 3f b6 93 3e d8 9e 04 be 5b c3 2e be
       -0.34271622 0.2884998 -0.12951219 -0.1706671
0002a0 f9 51 5d be e9 37 64 3e b8 6e 9b 3e 73 5d 80 be
       -0.21613301 0.22286953 0.3035791 -0.25071296
0002b0 18 7b 73 be 60 47 d1 3d 33 eb 73 3e 5c aa 90 be
       -0.23777425 0.10218692 0.2382019 -0.28254974
0002c0 57 44 08 bd 01 a1 c3 3e 66 ef 18 be ec 3d 5e 3e
       -0.0332683 0.38208774 -0.14935073 0.21703309
0002d0 25 46 68 3c 02 f9 e9 3d fb 83 f7 bd 92 f9 3d be
       0.01417688 0.114244476 -0.1208572 -0.18552235
0002e0 51 89 88 be 4c f7 23 be 49 75 be 3e e8 8b f6 bd
       -0.26667264 -0.16012305 0.37198856 -0.12038404
0002f0 f3 37 98 3e 34 9c 06 3e 6c 7c 79 3e 9f 22 53 bd
       0.29730186 0.13145524 0.2436387 -0.05154669
000300 52 6d b3 bd d0 f8 ad bd 09 ac 3a bd 9d 4d ec 3d
       -0.087610856 -0.08494723 -0.04557422 0.11538241
000310 af 67 d2 3d d4 87 a6 3e 18 15 37 be 5b f1 88 3e
       0.10273682 0.32525504 -0.1787914 0.2674664
000320 ed 78 03 3e 06 cb 76 3e c2 03 22 3d c8 bf f1 bc
       0.12839098 0.24100885 0.039554365 -0.029510394
000330 8e 71 c5 be a5 6a a0 3e 4a c5 76 3e 03 6a 19 3d
       -0.38563198 0.31331363 0.24098697 0.037454616
000340 51 0a 89 3e 89 b8 00 3f 96 16 39 3e 5b f6 a5 be
       0.26765683 0.5028158 0.18075022 -0.32414517
000350 d3 f7 59 3d c2 ef 95 3e 32 25 5d be f8 dd a7 3e
       0.05321486 0.29284483 -0.2159622 0.32786536
000360 8a a5 3f 3e 1f 98 0f be 3b f0 5a be 72 20 55 3e
       0.18715492 -0.14022873 -0.21380703 0.20813158
000370 38 59 ab 3d 32 e4 06 3d 78 0b 59 be 15 87 0a be
       0.083666265 0.032932468 -0.21195781 -0.13528092
000380 0d c7 95 be a0 75 58 be e7 02 3f bb 35 90 55 be
       -0.29253426 -0.2113862 -0.0029146017 -0.20855792
000390 e9 32 64 be 3c f4 c6 bd bc 0a 01 3d ac 3f e2 3e
       -0.22285046 -0.09714553 0.031504378 0.44189203
0003a0 db e8 6d 3d 98 1f 8a be c5 7e 30 3e dd c8 a6 be
       0.058083396 -0.2697723 0.17235859 -0.32575122
0003b0 0c a9 88 be 85 a1 80 be 41 cc fe 3d bb 24 8e bd
       -0.26691473 -0.2512323 0.12441302 -0.069405995
0003c0 a5 e4 e6 3e d7 d6 0c be 50 d9 80 3e 29 96 bd be
       0.45096317 -0.1375383 0.25165796 -0.37028626
0003d0 d8 60 54 be 56 d5 27 bf 29 57 25 be be 66 d9 bd
       -0.20740068 -0.655599 -0.1614653 -0.106153
0003e0 57 51 e0 3c b0 c2 12 3d d7 4b 91 3e ab 66 23 bf
       0.027382536 0.0358302 0.28378174 -0.63828534
0003f0 57 50 c6 be ba 4f 01 bd 2b 03 2a bd dc 83 6c bb
       -0.3873317 -0.031570174 -0.041506927 -0.0036089336

1.bias f4 [8]
000000 36 c0 99 3c 6b c4 fe bd 55 58 ea 3d 1a bf 96 bd
       0.018768411 -0.124398075 0.11442629 -0.073606685
000010 17 57 90 bd 58 26 07 be 8b bf a4 3c c9 0d be 3b
       -0.07047861 -0.1319822 0.020110866 0.005799983

2.weight f4 [16, 8, 3, 3]
000000 11 4d 15 3e 72 5f 18 bd aa 8c 83 3e 02 15 aa bd
       0.1458018 -0.0372004 0.25693256 -0.08304788
000010 5c 6c 0f 3e 1c b0 e2 3e f8 a2 2a 3e 91 fe 28 3e
       0.1400618 0.44274986 0.1666373 0.1650336
000020 17 9b 54 3e 88 36 56 bd da f2 a9 3d 4e 6c 80 bd
       0.20762287 -0.0522981 0.082982734 -0.062706575
000030 ff 03 23 be f7 04 52 3e 09 f7 13 3e ac 6c 56 3e
       -0.15919493 0.20509706 0.14449705 0.20939893
000040 ad e8 9d 3e 1c 45 75 3e 79 65 b3 bd c6 2e 1c be
       0.3084158 0.23952144 -0.08759589 -0.15252218
000050 c9 ff 00 be f3 38 44 3e cf bb 68 3e fa 5d 33 3d
       -0.12597574 0.1916235 0.22727893 0.043790795
000060 34 4a 20 3e ca 72 ac 3d 6a cf 05 be 93 0b e0 3d
       0.15653306 0.08420332 -0.13067403 0.109397076
000070 35 e4 03 3e 6c f1 28 3e 11 50 e9 bd dd 6f cb 3d
       0.12880023 0.16498345 -0.113922246 0.099334456
000080 42 79 04 3e 2f 04 60 3d 31 7b b9 bd 2d 71 e1 3e
       0.12936881 0.05469149 -0.090567 0.4403166
000090 e2 76 22 3e 8c 83 2f be a7 d8 f6 bc 42 1b 51 3e
       0.15865663 -0.17140025 -0.030132605 0.20420554
0000a0 da 17 af 3e 72 ce 0c 3e 53 ef fe 3e d6 c4 e7 bd
       0.34197885 0.13750628 0.49791965 -0.1131684
0000b0 87 7f 75 bd 06 de c2 3d ff 41 a7 ba 05 5a ce 3d
       -0.059936073 0.09515004 -0.0012760757 0.100757636
0000c0 15 dc b9 bc 69 61 58 3e 97 90 89 bd c1 cb 1d 3e
       -0.022687951 0.21130909 -0.067170314 0.15409757
0000d0 38 d1 4e bd c1 03 fa 3d 38 1d 39 bd 81 33 5a be
       -0.050492495 0.12207747 -0.04519388 -0.2130871
0000e0 76 26 9c be 1c 65 a8 bd a4 06 cc bb 12 1c f5 3d
       -0.30498093 -0.0822241 -0.0062263776 0.119682446
0000f0 0b 4d 75 3d c8 af 18 3d b9 65 91 be 77 ec c5 3c
       0.059887927 0.037277013 -0.2839792 0.024160607
000100 3a c5 fd bc 36 77 a1 ba 77 06 aa 3d fb 3a 4a be
       -0.030977834 -0.0012318853 0.08302014 -0.19749062
000110 91 be 8f be 12 fc 90 be 59 88 ba be af 00 d3 be
       -0.28075078 -0.28317314 -0.3643215 -0.4121146
000120 ac a2 60 3e 1d 49 65 3d e6 d5 c8 be 56 e4 98 bd
       0.21937054 0.05597793 -0.39225692 -0.074654266
000130 d0 fc 2b 3c 2a 85 97 be f2 1c 02 bd 0c a9 fc bd
       0.010497287 -0.29593784 -0.031765886 -0.12336931
000140 13 11 a6 be 0e 0b ee 3d d6 f9 1a 3d c5 4a e8 3d
       -0.32434902 0.11623202 0.03783592 0.11342386
000150 cb fe 95 3e 32 52 58 3b e3 a0 df be fa 5c b8 be
       0.29295954 0.0033007977 -0.43677434 -0.36008435
000160 e6 15 dd 3d 8e 99 b7 be 7b 9b 0c be 53 4d f8 bd
       0.107951924 -0.3585934 -0.13731186 -0.121241234
000170 00 fb bb 3e 5d d8 df 3d 5f 1b c6 be 38 cc 00 be
       0.36714935 0.1092994 -0.38692757 -0.12577903
000180 fe cb bd 3d 16 a2 87 be 0f 7b 2c 3e 74 e1 57 bd
       0.09267424 -0.2649085 0.16843818 -0.052705243
000190 90 db 85 3d 85 b9 cc be 93 7a e8 3d 6e a8 77 3e
       0.06536019 -0.3998529 0.11351504 0.24185345
0001a0 b6 67 65 bd 94 83 1b be 7e 1a 24 3e ee bd c0 bb
       -0.05600711 -0.15186912 0.16025731 -0.0058820164
0001b0 ac 4b 6c be 46 de 30 3e 71 01 36 be ea 4d 0b be
       -0.23075742 0.1727229 -0.17773987 -0.1360394
0001c0 3c fd 1b bd c7 fd 61 bc 99 c3 05 bf 38 f0 42 be
       -0.0380833 -0.013793415 -0.52251583 -0.19036949
0001d0 2d fb 0e 3f 3c 67 e6 bc fb 27 b0 3d db 5f 6c be
       0.55852014 -0.028125398 0.08601376 -0.23083441
0001e0 29 cc f6 bc a7 4a 9a be 4d 54 9f 3d 3c cc 3d be
       -0.030126648 -0.3013508 0.07779751 -0.1853494
0001f0 7a 5f 5a bd d4 09 d0 3e a9 fb 78 be 1d d2 ad 3d
       -0.05331371 0.40632498 -0.2431475 0.084873416
000200 53 70 a5 3e c7 24 bd bc f2 3d 9b bc 71 c5 c1 bd
       0.3231226 -0.023088826 -0.018950436 -0.09461487
000210 1d fd 01 bf b8 86 6d 3e 93 02 97 be 0e 0f b6 bd
       -0.50776845 0.23195922 -0.2949415 -0.0888959
000220 51 67 3f be d8 f7 80 3c 3c 87 ee bd ec 17 cd bd
       -0.18691756 0.015743181 -0.11646888 -0.10014328
000230 89 d4 8a 3e a3 9f 00 3f 48 4e a1 3d b1 4d 90 3e
       0.27115276 0.50243586 0.07876259 0.28184274
000240 68 ab b8 bd 04 ca 8e 3e a1 07 48 3e de ce 04 3d
       -0.09017068 0.278885 0.1953416 0.032423846
000250 18 6e 85 3e ab 97 81 3d 0a e3 15 3e 9a ef c4 bd
       0.26060557 0.063277565 0.1463739 -0.09616013
000260 dc d7 a7 3e 8b 20 63 bd e8 47 91 3d 0a d6 16 be
       0.32781875 -0.055450957 0.07093793 -0.14730087
000270 26 51 ff bc c7 7d 1d 3b 27 9d 1d be f6 91 3c bc
       -0.031166624 0.0024031268 -0.1539198 -0.011509409
000280 35 52 21 3e 0a f3 86 3c cf 70 85 3d 59 32 19 3e
       0.15754016 0.016473312 0.06515657 0.14960612
000290 da 3b c2 bb 11 b8 85 3e fc cb f9 bb 0f 8e a8 bd
       -0.005927545 0.26116994 -0.007623194 -0.082302205
0002a0 86 2e 9f 3c f2 e3 85 bc dd 3c 34 3e 69 43 08 3e
       0.019431364 -0.016344044 0.17601342 0.13306965
0002b0 2c 79 f8 bd da 07 76 bd 34 3f 46 be b2 3e 88 be
       -0.12132487 -0.06006608 -0.19360048 -0.26610333
0002c0 d9 4d 4f bd 1e 89 b9 bd 32 1e bc 3e 8c eb 65 3c
       -0.05061135 -0.09059356 0.36741787 0.0140332095
0002d0 03 5f fd bd 3b 44 26 be 65 3a 4c be 41 25 fe bc
       -0.12371638 -0.16236965 -0.19944151 -0.031023623
0002e0 d1 45 4a be bd 38 85 39 c9 1f 8f 3e c1 cd be 3e
       -0.19753195 0.0002541001 0.27953938 0.37266353
0002f0 0b 5e 93 ba 22 2a a8 bc 23 5e 23 be 83 1e 01 be
       -0.0011243237 -0.020527903 -0.15953879 -0.12609296
000300 cd e9 b9 bc 5d 6c be be 90 10 14 be 7b 6e bd bc
       -0.022694493 -0.3719205 -0.14459443 -0.02312397
000310 b5 42 57 3e cd 70 99 3b 0d e1 4b 3e 8a dc a4 3d
       0.2102154 0.0046826364 0.19910069 0.08049877
000320 b4 8f 5d ba e3 92 9c 3d 0e ca 97 3e 23 ac c8 bd
       -0.00084518944 0.07645204 0.29646343 -0.097984575
000330 eb 17 cc 3d cd 21 bd bd 91 33 cf 3d 49 4e b2 3b
       0.099654995 -0.092349626 0.101172574 0.005441461
000340 8d f5 da 3d 5a f2 3e 3e e9 2c 43 3d 7a ed f3 3d
       0.10691366 0.18647137 0.04765025 0.119105294
000350 6c 41 9f 3e 93 53 15 3e cb ff 1b bd 4c 47 a3 be
       0.311046 0.14582662 -0.03808574 -0.31890333
000360 c2 45 93 3e 28 08 b9 3e db ce b4 3e dc 79 6b 3c
       0.28764158 0.36139035 0.35314068 0.014372315
000370 66 71 10 3d 02 da ac 3e 8a 4b 71 3d 3d 8a df 3d
       0.035264395 0.33760077 0.05890993 0.10915039
000380 6d ef 1f 3e 6d cc 9c be 2b 4d 1a 3e dc 63 96 3d
       0.15618677 -0.30624714 0.150685 0.073432654
000390 83 b8 c9 bc 1e a1 63 3e 3e c0 d9 3d 18 c3 11 3e
       -0.024624115 0.2222943 0.106323704 0.14234579
0003a0 e9 b3 b6 3d 93 16 ff 3d 5b 25 b1 be 24 26 45 3d
       0.08921034 0.124554776 -0.34598812 0.048132077
0003b0 73 6c 3d be 2e b4 e0 3d c3 a3 f7 3c f6 2f fe bd
       -0.18498401 0.109718665 0.030229455 -0.124114916
0003c0 e1 89 22 3e 8a 0e 27 3e 9d 9c 5f be 49 78 e0 3e
       0.15872909 0.1631414 -0.21837087 0.4384177
0003d0 d5 53 c2 3d 2c 1e a5 3e 10 5a b9 bd 32 ce 82 3e
       0.09488646 0.32249582 -0.09050381 0.2554794
0003e0 58 f4 2f 3e aa fe 3a 3e 67 2f da bd ba 50 fc 3d
       0.17183053 0.18261209 -0.106535725 0.12320085
0003f0 80 d2 54 3e 04 23 53 3d 56 fb a8 3d 72 62 09 3d
       0.20783424 0.051547065 0.082510635 0.03354115

2.bias f4 [16]
000000 a2 65 1b 3d 37 6e 4b bc 0e b4 4c bd 13 06 60 bd
       0.03793872 -0.012416414 -0.0499764 -0.054693293
000010 fc 16 b5 bd 69 00 90 3d c9 5a ac bd 56 1e aa bc
       -0.088422745 0.07031328 -0.084157534 -0.020766418
000020 25 fb 2a 3d 53 65 3b 3d 48 cc 0a be 41 dc 05 3d
       0.041743416 0.045750927 -0.1355449 0.032680754
000030 02 0c ca 3d c9 2f 0d 3d 0e 85 98 3c 7c 9a 51 3d
       0.098655716 0.0344694 0.018618133 0.05117272

4.weight f4 [3, 64]
000000 a9 c5 54 be a0 5d 96 3d f6 0d 34 be cc 4b ee be
       -0.20778526 0.07342076 -0.1758345 -0.46542203
000010 5b 82 7c 3e c5 88 9d be 4b 68 63 3e 9f 4a 3d 3e
       0.24659102 -0.3076841 0.22207753 0.18485497
000020 60 d8 4a be 23 1a 4a be 9b 5d fc 3d ee a5 9f 3e
       -0.19809103 -0.19736533 0.12322541 0.31181282
000030 8f 19 15 be 94 ed 32 3d 1d 3f 63 be f1 a7 cd be
       -0.14560531 0.043683603 -0.22192045 -0.40167192
000040 af 85 ac bc 7a 8c 8b 3c 0a b3 c2 be 70 67 5a 3d
       -0.021059839 0.017034758 -0.3802722 0.053321302
000050 1e a4 47 3d d4 64 d7 bd f7 1e 23 3e 01 73 8e 3e
       0.0487405 -0.10517278 0.15929781 0.27822116
000060 d5 79 e0 3d 25 1d ad 3d 72 96 25 be 7f 14 9e 3e
       0.109607376 0.084528245 -0.16170672 0.30875012
000070 80 12 c5 bd 15 a4 49 bd 26 4e 89 3d f9 7b 7e bb
       -0.09622669 -0.049228746 0.06704359 -0.0038831218
000080 10 3c 83 3e 9e 72 d6 bb 34 be 83 3e ae f7 e3 3e
       0.25631762 -0.006544425 0.2573105 0.44524902
000090 30 0a d1 3d 0b 92 ee 3c 0f cf da be bf b3 33 3e
       0.10207021 0.029122373 -0.42736098 0.17549036
0000a0 87 c8 a4 3d de f7 b2 3e 5b 17 47 3e ca 56 bf bd
       0.0804606 0.34954733 0.19442503 -0.093427256
0000b0 78 be bb be 29 17 7d be 63 10 9d 3e c4 d4 a7 be
       -0.36668754 -0.24715866 0.30676565 -0.32779515
0000c0 a7 88 8c 3d 1c dc e8 bd d8 1e 9a 3e d0 a7 2d 3e
       0.06862002 -0.113701075 0.30101657 0.16958547
0000d0 b5 29 4a 3e 96 54 0c 3e 2a b3 db 3e 92 dc ef 3e
       0.19742472 0.13704142 0.4291013 0.4684797
0000e0 ea ac 89 3e db d4 ac be d7 e6 36 3e 8c eb a5 3e
       0.26889735 -0.33756146 0.17861496 0.3240627
0000f0 4c ea 9a 3e 4b 38 b4 3d bb 0c 1c 3f 2c d2 ab be
       0.3025688 0.087997995 0.60956925 -0.33558786
000100 ce 6a 2c 3e 78 36 27 3e 13 94 dd 3b 38 53 88 be
       0.16837618 0.16329372 0.0067620366 -0.2662599
000110 1f 1c 33 be 6f 39 8c be 9e 0f 62 3e 87 75 e4 bc
       -0.17491196 -0.27387568 0.2207627 -0.027888073
000120 6a 09 ba 3d 8a a7 0e 3e ad 1e 98 bd a9 d9 15 bd
       0.09083827 0.13931099 -0.07427726 -0.03658453
000130 19 f3 7e 3e 31 ae bc 3e b2 19 e2 3c 74 66 2c be
       0.24897422 0.36851647 0.027600143 -0.16835958
000140 46 98 76 3d 27 50 8f 3d 6a 53 60 be 2b fa 01 3e
       0.060203813 0.0699771 -0.2190682 0.12693088
000150 51 1e c9 3e 96 d0 83 bb ff 1c 06 3e f7 97 8e 3e
       0.39280942 -0.004022668 0.13096999 0.27850315
000160 85 46 76 3e d4 fa 93 be 59 f1 37 bf 1c ad 49 3d
       0.24050339 -0.28902304 -0.7185264 0.049237356
000170 8f b2 f4 3e 8c 5e 04 3f 3a 0a c5 3d a3 00 31 be
       0.4779248 0.5170677 0.09621091 -0.17285399
000180 f4 c4 9c be b6 e5 84 be 36 4e 0b 3e 57 02 a1 bc
       -0.30619013 -0.25956506 0.13604054 -0.019654436
000190 ea c1 65 3e 68 6f 68 bb 5a e9 d4 be 94 54 80 bd
       0.22437254 -0.0035466794 -0.41584283 -0.06266132
0001a0 1c 70 87 bd 88 45 11 bf 4e e6 8d 3d e5 e7 51 3e
       -0.0661318 -0.5674672 0.06928693 0.20498617
0001b0 21 67 9e be 8e 4a c8 be 74 9f 39 3e 1d 03 ac be
       -0.30938056 -0.3911938 0.18127233 -0.33596125
0001c0 37 49 0b bf 55 a6 c2 3c dc 24 ed bc 59 1d 99 bc
       -0.5440859 0.023760954 -0.02894824 -0.018690752
0001d0 98 ed a2 be 44 a1 09 be b0 2e 0f be b8 f9 9b 3e
       -0.31821895 -0.13440424 -0.13982654 0.30463958
0001e0 d1 2c ea 3d 99 59 ae be 02 10 97 bc 86 ef 83 3d
       0.11434329 -0.34052733 -0.01844025 0.0644217
0001f0 4f 2b cf be c2 01 c8 be e5 de e4 bd 34 b9 59 3d
       -0.4046273 -0.3906384 -0.11175326 0.05315514
000200 70 b0 74 3d f3 c8 95 3e f3 99 ae 3e f8 da 38 3e
       0.059738576 0.29254875 0.3410183 0.1805228
000210 72 e7 03 3f 9b 7e 1a bf ca 7c 7c be 03 6a ec 3d
       0.5152503 -0.60349435 -0.24656978 0.11543658
000220 82 3d 9d 3e f0 d5 81 3e 1c f8 89 bd 79 68 50 3d
       0.3071099 0.25358534 -0.06736776 0.050880883
000230 16 78 2b 3e 9a d7 88 3e 98 ad 71 bd 65 fb 12 bd
       0.16745028 0.2672699 -0.059003443 -0.03588428
000240 c1 04 d7 3d 1b 86 c0 be 72 39 0f be 29 a9 a6 be
       0.104989536 -0.37602314 -0.13986757 -0.32550934
000250 9d 36 20 3e e0 c8 05 bf 2d 23 76 bd 4b 94 f1 bd
       0.15645833 -0.52259636 -0.06009214 -0.11795863
000260 11 21 d3 be 5c 1c 8f be b4 3d 84 3d 6f d7 82 3e
       -0.41236165 -0.27951324 0.064570814 0.25554988
000270 f1 04 64 be ae 16 88 3d f8 18 93 bd 5f 46 5a 3e
       -0.2226751 0.06644951 -0.07182497 0.21315907
000280 bb ab d5 be 78 f2 ab bd ac 1e 9f 3e 0d 8d 96 bc
       -0.41732582 -0.083958566 0.31078088 -0.018377805
000290 b6 c2 06 be c4 de ca be 5e b9 4b bc a8 ee a0 3e
       -0.13160214 -0.39623082 -0.012434332 0.3143208
0002a0 c3 de a0 3e 4a 72 0d bf 10 8b d9 3c ba cd 31 3e
       0.31419954 -0.55252516 0.026555568 0.17363635
0002b0 11 86 82 be 1f 6b a5 be 41 28 70 3e e0 19 0e 3e
       -0.2549291 -0.3230829 0.23452856 0.13877058
0002c0 67 7d 86 bd 22 d8 23 3e 38 45 a9 bd 13 3b 41 3e
       -0.06566887 0.16000417 -0.082651556 0.18870191
0002d0 58 cc 8e be 86 ee b4 bd f5 dd 8a 3c 42 50 ec 3d
       -0.27890277 -0.08834557 0.01695154 0.115387455
0002e0 b7 da 8a 3d b1 38 cc be 6e 0a 28 be 9d ef 48 be
       0.06779998 -0.39887002 -0.16410229 -0.19622655
0002f0 47 5c cf be 46 3b 15 bf e0 6b 90 3d 3f 31 e2 3e
       -0.4050009 -0.5829357 0.070518255 0.44178197

4.bias f4 [3]
000000 e0 00 8b 3d b7 50 75 bd fc 62 3f 3d
       0.06787276 -0.05989143 0.04672526
