models/Navigator_v2Su_2k.pt (torch, 10128 bytes, 8 tensors)

0.weight f4 [4, 2, 3, 3]
00000000: be75 14be e338 233e b072 0abb fdae 64bd
00000010: 92e3 77bd f0e9 0ebe 1c50 4a3e b03d 80be
00000020: 3f97 8dbd 8885 f43e b729 503f 3784 b3be
00000030: 2ef2 2b3f 20eb 683c d3f2 fd3c ee5a 9bbf
00000040: 8a1e 48bf fcac 6e3e d9a7 2abe e5f5 db3d
00000050: d7cd d2bd 2a83 593e f907 07be c828 8ebd
00000060: a0b9 2dbe 75c6 b8bb 0743 c1bd 6d78 2a3f
00000070: ba37 cc3e fd00 403f bca5 823f 74df 803e
00000080: d3f2 71be f1cb e83e e913 313f cba2 7c3f
00000090: d05c e1bd 2902 1dbe 0f93 583c a67c b53d
000000a0: d319 073e 9d44 a1bd 68c0 dbbc ada6 eb3d
000000b0: e3bd aabd 8cea c23f 1d1f 753f 00fd 79be
000000c0: 7b76 273e c3c9 973e 2365 fabd 048e 473f
000000d0: 6424 05bc 373a e83e e39e 1ebe c97b cebd
000000e0: 23dc 313e 87d3 fb3d 34a9 3e3e 117a 65be
000000f0: e1f7 6ebc 1c88 51be ae68 663d fb30 9e3f
00000100: da79 3d3f 3362 a03f 897d 453e 9ae5 04bf
00000110: 0688 2b3e 1f46 51bf 4e71 2e3f 7f9d 343f
-0.1449804 0.1593967 -0.0021125488 -0.055830944 -0.060519762 -0.13956428 0.19757122 -0.25047064
-0.069136135 0.47758126 0.8131365 -0.3506181 0.6716641 0.014216214 0.030999577 -1.2137125
-0.781716 0.23308176 -0.16665591 0.1074026 -0.10293167 0.21241441 -0.13186635 -0.06941372
-0.16965342 -0.0056388923 -0.094366126 0.66590005 0.39886266 0.7500151 1.0206828 0.2517048
-0.23627786 0.45468095 0.69171005 0.986859 -0.11004031 -0.15332855 0.013218655 0.088616654
0.13193445 -0.07874415 -0.026825145 0.115064 -0.08336999 1.5227828 0.957506 -0.24412918
0.1635379 0.2964612 -0.122263215 0.77951074 -0.008126352 0.45356914 -0.15490298 -0.10082204
0.17369132 0.12296205 0.18619233 -0.22409846 -0.014585466 -0.20462078 0.056252174 1.2358698
0.74014056 1.2529968 0.19286169 -0.51912844 0.16751108 -0.8174762 0.6814164 0.7055282

0.bias f4 [4]
00000000: 415a 583e 2429 543e 901e 4d3e be7c 543d
0.21128179 0.20718819 0.2003119 0.051876776

1.weight f4 [8, 4, 3, 3]
00000000: fe8e 19be d4fa 64be 4c6b e83e 36e9 d4be
00000010: 2235 d1be b64e e53e fab0 adbe 015e 9cbd
00000020: d462 4abe cefa 8d3d d809 c03d 864b c03e
00000030: b034 e2bd 93e4 053e 7788 503d f5d0 1a3e
00000040: 614d c23e b8e8 84bd aef5 723d f69a 4cbd
00000050: b023 1b3f 4adb 6bbd 3a07 71be 6f2a 743e
00000060: 7c72 bb3e f470 b1bd f022 a13c 5f71 b03e
00000070: 4306 e33e 7851 043f 2643 58bd 8bb4 ccbc
00000080: 5567 97be 9821 b6be a99a 933e edb9 aabe
00000090: b0ab 443f 77f4 c7be eee5 33be f387 49be
000000a0: 85be 46be 9ebf ebbd 45ab 7e3d 74e8 0dbd
000000b0: 0340 cebe 72de 373e defa 9dbe b8c5 843d
000000c0: bcde f3bd 3bc2 383e e2c7 713e 5193 013f
000000d0: 908e 123f ccc4 4e3e 36aa 0e3f 2747 f8bd
000000e0: cb42 80be 7f2b 3c3e d77c 4b3d 5158 843d
000000f0: f83e e53c 9d11 293e f460 b43e bd0b a33e
00000100: 8d44 e43d 1308 0e3e 11aa 843d 8343 9b3e
00000110: 6fba 843e b65e 203e 8f8e 683e 70dc 03be
00000120: ffee c13d 35ec f8bd 5090 71be 6ed8 923c
00000130: 8836 f5bd bfcf 9abe 0c8d 54bf 3a7e 423e
00000140: 4c19 543d e003 06bf 1a22 1cbe 48f6 e8be
00000150: 98f1 f1be 1bf7 643e a1d8 d73d a895 013e
00000160: 9ad3 9c3e 33e0 263e 52cd 06bf f30a c63d
00000170: 6005 05bf 1dcf 203c c931 553d cb80 9cbe
00000180: 7b26 e43d 0adb ad3e 4c36 66be ffae ebbe
00000190: 8932 843d 2d35 e5be 4055 c8be f23f 1abe
000001a0: 4913 c53e 1423 eabe 32bb 3cbe 7061 413e
000001b0: 78d4 40be 433e 023e b97c e33b 7190 323e
000001c0: 4bcd dfbd ae7f dabe 57c8 f33e f893 19bf
000001d0: a2d1 b9be 387b 503e 9e96 f6bc 42a1 183e
000001e0: ea3a 103e ea86 7e3c f3e8 87bc 7ee7 bd3d
000001f0: 7210 a43e de31 babd f2d9 7abe 2739 5dbe
00000200: 62cc 843e 3436 693e 3ba4 95bd 5c08 dfbd
00000210: 0cde aabe 6aad 4f3e 8a92 4f3e 0fb6 4c3e
00000220: a539 f43d 282a 133f 2ed7 053e 8537 f1bd
00000230: c240 32be 479c a23e 8ea8 823e 5a89 f9bd
00000240: 240f 84be 81b2 b23e fa5c 6fbe ff06 213e
00000250: 733b e9be 3180 fabd 7a49 833d a162 9dbe
00000260: 73f6 34be 2ce2 58be 81ca dabd 20b0 2d3d
00000270: a33a d2bc 022c 823e 2640 523e c1ac 6d3e
00000280: 4dda a53e 002f 093f 54b0 37bf a7d0 f2bc
00000290: dcdd 51be 8281 8f3e 2861 20be 63fa 22be
000002a0: 6109 4ebe 5585 8c3e ad0d c33e a35b dabe
000002b0: d65d dfbd 936c e33d 622f 703e db20 3bbe
000002c0: 0a29 933d 386c 953e 2eed a3be 82ba 463e
000002d0: 23d5 2e3d 2f64 f23d ab18 39be b6e7 62be
000002e0: 8a3d d7be a400 bcbe 024e 753e 58ff 0cbe
000002f0: d481 e83e a8f6 6c3e 9052 503e e812 1ebe
00000300: 921d a2bd 5d61 c7bc c06a d13d 3b44 2e3e
00000310: 5394 e93d 0d8a 973e 9c7b 01be 2287 433e
00000320: 40f7 333e dac8 9c3e dcff 2bbc 46c2 83bd
00000330: 6e33 c5be ee9f a73e 1c69 963e c107 f93d
00000340: 0b3a 9d3e 48b2 e63e 218f 423e ae01 b4be
00000350: b36d 7b3d 027d 793e 487d 91be 3e16 913e
00000360: aadc 003e b2cc 6fbe 0eec 9abe 1eb2 a03e
00000370: 48e9 de3d 2ac3 d63d 2491 17bf b0a9 3bbe
00000380: 7324 d4bd 9cf5 c7be f738 9f3d be9d b73c
00000390: 2dbb c1be 89fd a93c fe00 05bd f045 033f
000003a0: e290 80bd 5475 7abe 9a56 2ebe 8a3a e2be
000003b0: c445 76be 043e b9be 33d1 573e 9d30 2bbd
000003c0: b916 133f 4430 01be 2891 a13e 55ff 15bf
000003d0: 02c7 2dbe 3357 21bf 48d8 d5bd 037e d0bc
000003e0: 736e 94bc 30e8 00be 2ba8 583e 5610 12bf
000003f0: 779a fabe a35e 53bd 1119 c63c dabf b63d
-0.14995953 -0.22361308 0.4539436 -0.41584176 -0.4086085 0.44786614 -0.33924085 -0.07635117
-0.19764262 0.06932603 0.093768775 0.3755762 -0.110452056 0.13075475 0.050911393 0.15118773
0.3794966 -0.064897 0.05931633 -0.04995247 0.6060133 -0.057582177 -0.23537913 0.23844312
0.36610782 -0.08664122 0.01966998 0.34461495 0.44340715 0.5168681 -0.052798413 -0.024988433
-0.29571024 -0.35572505 0.28828934 -0.33344975 0.76824474 -0.390537 -0.1756818 -0.19680767
-0.19408615 -0.115111575 0.062175054 -0.034645513 -0.40283212 0.1795595 -0.3085546 0.06483024
-0.119077176 0.18042843 0.23611405 0.5061541 0.57248783 0.2019226 0.5572847 -0.12122946
-0.2505096 0.18375967 0.049679603 0.064621575 0.027984127 0.16510625 0.3523022 0.31844893
0.111458875 0.13870268 0.0647775 0.30324945 0.25923488 0.1566113 0.22710632 -0.12877059
0.09469413 -0.12154428 -0.23590207 0.017925467 -0.11973292 -0.30236623 -0.8302772 0.18993464
0.051781937 -0.5234966 -0.15247384 -0.45500398 -0.47254634 0.22359888 0.105393656 0.12654746
0.3063019 0.16296463 -0.52657044 0.09670057 -0.51961327 0.009815005 0.052049432 -0.3056701
0.11140152 0.33956176 -0.2248165 -0.4603195 0.06454951 -0.44767132 -0.3912754 -0.15063456
0.38491276 -0.45729887 -0.18430784 0.18884826 -0.1883105 0.12719063 0.0069423583 0.17437913
-0.109278284 -0.42675537 0.47613785 -0.5999141 -0.3629275 0.20359504 -0.030101117 0.14905265
0.14084974 0.015535096 -0.016590571 0.09272669 0.32043797 -0.09091543 -0.24497202 -0.21603833
0.25937182 0.22774583 -0.07306715 -0.10890266 -0.33372533 0.20280996 0.20270744 0.19991325
0.11925057 0.574862 0.13070366 -0.11778168 -0.17407516 0.31759855 0.25519222 -0.12184401
-0.257928 0.34901813 -0.23375311 0.15725325 -0.4555317 -0.12231482 0.06410499 -0.3073931
-0.17672138 -0.21180028 -0.10683156 0.042404294 -0.025662726 0.254242 0.20532283 0.23210432
0.32393113 0.5358734 -0.7175343 -0.029640509 -0.20494789 0.28028494 -0.15662062 -0.15915827
-0.20120765 0.27445474 0.3809637 -0.42648038 -0.1090657 0.11104693 0.23455575 -0.18274252
0.07185562 0.29184127 -0.3201689 0.19407085 0.04268373 0.11835515 -0.18075816 -0.22158703
-0.42039138 -0.3671924 0.23955539 -0.13769281 0.4541155 0.23140967 0.20343995 -0.154369
-0.07915796 -0.024338419 0.10225439 0.17018215 0.11405244 0.29597512 -0.1264481 0.19094518
0.17574787 0.30621988 -0.010498013 -0.06433539 -0.385158 0.32739204 0.29377067 0.12159682
0.30708346 0.45057893 0.18999912 -0.35157531 0.061383914 0.24364093 -0.28415895 0.28337282
0.12584177 -0.23417929 -0.3025822 0.31385893 0.108843386 0.10486443 -0.5920584 -0.1832645
-0.10358515 -0.39054573 0.07774537 0.022414085 -0.37838116 0.020750778 -0.03247165 0.5127859
-0.06277634 -0.2445882 -0.17025223 -0.44185287 -0.24050051 -0.36180127 0.21075897 -0.041794408
0.5745655 -0.12616068 0.31556058 -0.5859273 -0.16970447 -0.6302368 -0.10441643 -0.025450712
-0.018119073 -0.12588573 0.21157901 -0.57056177 -0.48945972 -0.051603924 0.024181874 0.089233115

1.bias f4 [8]
00000000: e6f1 9b3c c658 11be a6d8 0d3e c814 a4bd
00000010: 3771 a2bd 2488 07be 4d0b a63c f0b4 d43b
0.019036245 -0.1419402 0.13852176 -0.08011776 -0.0793175 -0.13235527 0.02026906 0.006491296

2.weight f4 [16, 8, 3, 3]
00000000: 304f 243d 52f8 0fbd a729 2a3e d8b8 37bd
00000010: 11d4 4b3e d433 e83e 8e90 1a3e 9375 4d3e
00000020: ae5f 8a3e 0368 3fbd 7842 d33d bb2f cc3d
00000030: c8c2 ecbd 2216 363e 0c8c adbb 6e38 123e
00000040: bab1 9b3e 096f 7d3e fcbb 5f3d 7c91 59bd
00000050: 0872 e73b 9fd9 373e 640f 2e3e e038 36be
00000060: bd28 9f3e 46b6 c8bc 2b05 90be e810 f3bc
00000070: 7a1e 4e3e 4cac 153e 4949 80bc bb53 0a3e
00000080: 89b4 413c 4783 02be 62f0 4dbd 5faa f83e
00000090: d4b5 663e d451 acbd a8d0 533e 6498 823e
000000a0: c6f4 813e 66d1 0f3d 78eb cb3e 9ee2 6cbc
000000b0: c2ab 91bd 4863 913d a4ae f63c 298a 2d3e
000000c0: 7161 383d 0b71 433e 9062 083e a607 993d
000000d0: d2fb c5bc bec9 223e 685a f13c ad0c 8cbe
000000e0: b3e8 5fbe e679 0bbe 5870 f13d e26c 8bbd
000000f0: 2321 63bc 4218 33bd 522c 8bbe a389 fc3d
00000100: bbe4 e5bd 3038 d5bd 99e1 2a3d 0b39 56be
00000110: 5442 65be fc4c 4fbe cc0e 81be 15d2 b2be
00000120: de9d b83e 9539 86bc fb15 09bf 09d0 12be
00000130: 8c51 a73c e680 a9be 5675 f43c 43bd 5dbe
00000140: 5892 bebe 3893 cf3e e8c5 4a3e 8c07 713e
00000150: 07e6 c53e 80e2 1ebe 7896 c7be 014f 89be
00000160: 1a5d 623c 6767 9cbe 6a9c f3be b2a5 34be
00000170: a422 f43e ba3b bf3d 43ad abbe dfde 21be
00000180: 8a69 2cbe 8e9a 87be c2a8 843e cf81 c3bd
00000190: a9ce 733c cfa3 01bf 364c d73c 2e7e 283e
000001a0: 5fd2 413d 0f2a 2f3e 46ab 673e 4e82 0ebe
000001b0: f826 21bf 02c1 f33d a087 6cbe 0b92 45be
000001c0: cedf b6bd ecc7 e73d b645 07bf 41fd cebd
000001d0: ee72 b73e 3333 bc3d 30cb e93c 97c3 bebe
000001e0: a4a7 14bd 8eb8 b7be 87db a13d 20cf 2cbe
000001f0: 8fa5 903d cab2 c23e f227 ecbe fd20 273d
00000200: 9850 103f a823 2bbd 0e1f 06be 8a39 02be
00000210: a859 28bf 0d93 a73e c6c3 d6be ae31 e6be
00000220: e8e3 89be b6c7 9e3e 760b 13be e379 c8ba
00000230: 583f 433e 5609 063f 2efb 463c ef7d 473e
00000240: 12c1 bbbd f16a 553e 8009 ae3c 5d11 e53d
00000250: 2f11 dc3e 6101 7c3d 0060 5f3e a6cb 55bd
00000260: 6dfc 623e d520 733e 49e7 663e b7c9 f4bd
00000270: b7f3 d9bc 70ad 123d 9e6b e7bd 9272 d2bd
00000280: ac70 f9bb 330b 183d a3a1 85be 9aeb 883e
00000290: 34ad 643e fba5 813e bbef 8bbe eb93 9fbe
000002a0: 3f8d 8abb 4962 03be 6b90 2c3c 6a83 063e
000002b0: 462d 2ebd 8b36 59be 90e8 67be e342 94be
000002c0: 0c6c 5d3e b393 34bd c611 d93e b3a1 abbd
000002d0: a7ab a3be dd97 f03c b677 42be e5c7 453d
000002e0: 38c4 62be a755 eabd dd0e 643e 020d 8c3e
000002f0: 1111 50be c9e4 563c 068e d43b 08e4 bbbc
00000300: bce0 8dbd 1465 c5be 9575 1cbe 265f 2bbd
00000310: d8da 833e 3f5d acbd 7a15 173e a42b 693e
00000320: 0d53 29bd c3ed 533c 6638 753e 6155 86bd
00000330: 2ed4 df3c f8cd 7bbe 8d6e 50be 999a 36be
00000340: 1991 0f3d 2720 9d3e b51e 433d 8583 093e
00000350: db9a 8d3e 9960 563e 4a00 cfbd 395d a5be
00000360: 5456 3e3e a1b7 9c3e d6c1 873e 68ab 213c
00000370: 2527 213d 2e7f b93e 3c78 bd3d bc97 bb3d
00000380: b577 dc3d 2cd6 4abe 0373 ad3d 535f e63d
00000390: af54 21bd 0261 853e 9fd4 853d a626 843d
000003a0: add6 8e3d ca1c 023e 8a59 98be 9789 263e
000003b0: 1bc7 7d3c 3d3b 2a3e 71f4 b53d b7f4 4abe
000003c0: 2d02 b23e a796 103e c0f1 82be de56 a83e
000003d0: eab1 f83d d44e 9d3e caec 99bd 6d8b 913e
000003e0: bc32 523e c4d7 943a 9a57 29be 37b1 123e
000003f0: 6a40 f33d c37b e03d cdd0 8b3e 1c16 903d
0.04011458 -0.035148926 0.16617452 -0.044854015 0.19905116 0.45352042 0.15094206 0.20064382
0.27026123 -0.046730053 0.10315412 0.09970041 -0.11560589 0.1778188 -0.005296236 0.14279339
0.30409032 0.24749388 0.054622635 -0.05311726 0.007063154 0.1795411 0.16998059 -0.17795134
0.31085768 -0.024500977 -0.28128943 -0.029671147 0.20128813 0.14616507 -0.015659945 0.13508503
0.011822828 -0.12745391 -0.050278075 0.48567483 0.225303 -0.08414045 0.20685065 0.2550689
0.2538206 0.035111807 0.39828086 -0.014458327 -0.07112838 0.070990145 0.030112572 0.16947235
0.045014802 0.19086091 0.13318849 0.07472162 -0.024167929 0.15897271 0.029462054 -0.2735342
-0.21866111 -0.1362072 0.11789006 -0.06807877 -0.013862881 -0.043724306 -0.2718225 0.123309396
-0.112252675 -0.104111075 0.041719053 -0.20920198 -0.22388583 -0.20244211 -0.25206602 -0.34925905
0.36057943 -0.01638488 -0.53549165 -0.14337172 0.020424627 -0.33106154 0.029841106 -0.21654229
-0.37221026 0.40542006 0.19802058 0.23538035 0.3865206 -0.1551609 -0.38981986 -0.26818088
0.013816142 -0.3054764 -0.47580272 -0.17641333 0.4768268 0.09337564 -0.33530626 -0.15807675
-0.16837135 -0.26485103 0.25910002 -0.095462434 0.014880815 -0.5064058 0.026281457 0.16454384
0.047319766 0.17105888 0.2262393 -0.13916895 -0.62950087 0.11902048 -0.23098612 -0.19293992
-0.08929406 0.11317429 -0.52840745 -0.10106898 0.35829872 0.09189453 0.02853927 -0.37258598
-0.036292687 -0.35882992 0.079032 -0.16875887 0.07062828 0.3802703 -0.46124226 0.040802944
0.56372976 -0.04178205 -0.13097784 -0.12717262 -0.65761805 0.32729378 -0.41946238 -0.44959778
-0.2693169 0.31011742 -0.14359841 -0.0015295114 0.19067132 0.52357996 0.012144847 0.19481634
-0.091676846 0.20841576 0.021244764 0.111849524 0.4298186 0.061524753 0.21813965 -0.052196167
0.22166605 0.23742993 0.22549166 -0.119525366 -0.02660547 0.035809934 -0.11299823 -0.10275759
-0.0076123085 0.037120055 -0.26099882 0.2674225 0.22331697 0.25321946 -0.27331337 -0.3116754
-0.0042282636 -0.12830462 0.010532479 0.13136068 -0.042523645 -0.21212213 -0.2264731 -0.2895728
0.21623248 -0.04408617 0.42396373 -0.08380451 -0.31966898 0.029369289 -0.18990979 0.048286337
-0.22145164 -0.11442118 0.22271295 0.27353674 -0.2031901 0.01311607 0.006486657 -0.022935882
-0.0692763 -0.3855368 -0.15279229 -0.041838787 0.25752902 -0.08416223 0.14754286 0.22770554
-0.04133897 0.012935105 0.23947296 -0.065592535 0.027322855 -0.2459029 -0.20354672 -0.17832412
0.035050485 0.30688593 0.047636706 0.13429077 0.27657208 0.20935287 -0.10107477 -0.32297686
0.18587619 0.30608848 0.26515073 0.009867527 0.03934397 0.36229843 0.092514485 0.091598004
0.1076502 -0.19808263 0.08469202 0.112486504 -0.0393874 0.26050574 0.06534695 0.06452684
0.0697454 0.12706295 -0.29755813 0.16263424 0.015489365 0.1662416 0.08884514 -0.19819914
0.34767285 0.1411997 -0.25575066 0.32878774 0.121433094 0.30724204 -0.07515867 0.28426686
0.20527166 0.0011355807 -0.16537324 0.14325415 0.118775204 0.10961106 0.2730774 0.07035467

2.bias f4 [16]
00000000: 66b5 673c 1257 90bc cc0b 9cbd c6bf 5cbd
00000010: acf8 72bd a8ff e13d a5b4 bdbd 0492 0e3c
00000020: 0522 0e3d c828 503d b4f2 19be 4d77 ba3c
00000030: 19d9 8a3d 31f9 003d 6437 273d b820 3b3d
0.01414237 -0.017619643 -0.076194376 -0.053893827 -0.059319183 0.11035091 -0.09262971 0.008701805
0.034700412 0.050820142 -0.1503399 0.022761965 0.06779689 0.031487647 0.04082431 0.0456855

4.weight f4 [3, 64]
00000000: c1f5 82be b59a e33d 1053 0fbe 924e e3be
00000010: 9503 2b3e 2880 99be fcfc 8b3e 4afe 673e
00000020: cfda 9cbe 10ca 7dbe 5254 a63e 23b3 aa3e
00000030: a8d2 0dbe 9885 483d ee38 6fbe e436 d5be
00000040: c484 d4bc fcb5 82bb 1aac b4be d02d 4dbd
00000050: db7b 8a3d ac03 e0bd a8f7 af3e d7c5 643e
00000060: b2f2 d13d 32c7 c4bc b82a 07be 6179 9d3e
00000070: 8741 52bd b830 49be 5204 003e 926b febb
00000080: 5721 7e3e 31ef 9dbb be7a 3a3e 513f 093f
00000090: 0286 003e 7f7d b1bd ea0c 6dbe b000 933e
000000a0: 75fe 173d e68f ec3e 83d5 683e c490 63be
000000b0: 5e10 0abf 062e 0fbe e96a 3d3e 8e86 a4be
000000c0: b580 b4bb 62dc 9dbd dcb6 3e3e 5094 733e
000000d0: 6cf7 733e 745f e33d 9876 e03e 9958 fa3e
000000e0: 57ed 483e 54fe cfbe 46cf f03d c7e7 8d3e
000000f0: bcea 893e 3293 d73d f755 0f3f 167d a2be
00000100: a836 893e 515e 9f3c 63ce 2bbe 881c b6be
00000110: 90a5 d5be 7e7a 18be bce0 9c3e 477f 95be
00000120: 9371 5d3e a7dd c33d 99da e2bc 9ecb dfbd
00000130: 4253 983e cbe6 613e 1c5c d0bd dbff 43be
00000140: ccc8 12be 0580 943d 6a6b a3be 9b99 4b3d
00000150: 1ba9 263f c2f0 3b3e eaca 4f3e a023 213e
00000160: d7c5 b83e de22 84be 9e15 38bf 22c9 3ebd
00000170: 2c62 5d3f 7047 1c3f 7a1c 113e 0074 6cbe
00000180: 2e10 a9be 527a 37be d2f6 313e c983 1fbe
00000190: 4adb a23e f401 5b3d cec9 14bf 6055 f0be
000001a0: 3345 dcbd 912d fabe 0196 7e3c 5ffe bc3d
000001b0: 4c48 d6be 32c8 c1be 8bd3 833e a2a4 1ebe
000001c0: 5163 58bf a07a 163e 8f95 3e3d 5152 503d
000001d0: e035 9dbe 856a 9e3c 0f5b 46bd fd05 a43e
000001e0: c0da fc3d e34f 64be 5dea 0c3e d009 1c3e
000001f0: eb27 ffbe 8641 92be 1826 0fbe 6685 31bd
00000200: ec4c 81bd 457e 843e af19 8d3e 5d5e 383c
00000210: 642e 583f 56f3 1fbf 32de 8bbe 7a6d 453e
00000220: 36c8 e83e 7602 413e dae9 23be 1c2b ecbc
00000230: 0486 ed3d 9348 913e 956b 99bd 5560 38be
00000240: 2169 ae3e 2cc4 cebe 6fd1 9dbe ce9f 3cbe
00000250: da1c f23d 3a31 01bf ad97 21bd 8475 8f3d
00000260: 09a6 0fbf 0d5a 83be b9e9 0fbe 1e00 3e3e
00000270: d670 1fbf 9fd6 5e3e ac67 773d b3dc 253e
00000280: 4cc0 ffbe 7664 9cbd 4ac5 c93e 5009 d73d
00000290: 016f 6bbe 4679 a9be 7ba9 7dbe 185d 973e
000002a0: 1cd3 193f 9891 21bf bc1b 16be 1932 ad3e
000002b0: 7c09 0abf ba63 a0be d67f b13e c2f4 6fbc
000002c0: cf3d 3b3e 278c da3d 2599 603d d451 4a3e
000002d0: e23f 70be 9e0e 29bd 0a54 6b3d 6a9c 5c3e
000002e0: 18be db3d 740a e0be 00d7 16be f5ae e7bd
000002f0: ad86 c1be 9f47 08bf 871e 963d 0b39 b93e
-0.2557812 0.111134924 -0.1399653 -0.44395882 0.16700585 -0.29980588 0.2734145 0.22655597
-0.30635688 -0.24784112 0.32486206 0.33339795 -0.1384989 0.04895553 -0.2336156 -0.4164344
-0.025942214 -0.0039889794 -0.35287553 -0.05009252 0.06761905 -0.109382 0.34368634 0.22341095
0.102513686 -0.024020765 -0.1319989 0.30756667 -0.051332023 -0.19647491 0.12501648 -0.007764288
0.24817406 -0.0048197736 0.18210885 0.5361224 0.1255112 -0.086665146 -0.23149458 0.28711462
0.037107904 0.46203536 0.22737698 -0.22223192 -0.53931224 -0.139824 0.18497814 -0.32133907
-0.005508507 -0.0770805 0.18624443 0.23787045 0.23824853 0.111021906 0.4384048 0.4889572
0.19621788 -0.40623724 0.11758284 0.27715895 0.269369 0.10526122 0.55990547 -0.31736058
0.26799512 0.019454153 -0.16777949 -0.35568643 -0.41727877 -0.14890477 0.3064021 -0.29198667
0.21625356 0.09563761 -0.027692126 -0.10927509 0.2975102 0.22060697 -0.101738185 -0.1914057
-0.1433441 0.0725098 -0.31917888 0.049707036 0.65101784 0.1835356 0.2029225 0.15736246
0.3608844 -0.25807852 -0.71907985 -0.046578534 0.86477923 0.61046505 0.14171019 -0.23091125
-0.33020157 -0.17917755 0.1737931 -0.15577616 0.3180793 0.05346866 -0.5812043 -0.46940136
-0.10755386 -0.4886289 0.015538693 0.09228205 -0.41852033 -0.3784805 0.25747332 -0.1549249
-0.84526545 0.14695215 0.04652935 0.050859753 -0.30705166 0.019337902 -0.048426684 0.3203582
0.12346411 -0.222961 0.13761277 0.15238118 -0.49835142 -0.28565615 -0.13979375 -0.04334011
-0.063135 0.25877586 0.27558658 0.011252967 0.84445786 -0.62480676 -0.2731796 0.19280043
0.4546525 0.18848595 -0.16007176 -0.02882915 0.11597827 0.28375682 -0.07491223 -0.18005498
0.34064582 -0.40384042 -0.30823848 -0.18420336 0.11821909 -0.5046574 -0.03945129 0.07004836
-0.56112725 -0.2565464 -0.14054002 0.18554732 -0.6228155 0.21761559 0.060401604 0.16197471
-0.49951398 -0.07636349 0.39408332 0.10499823 -0.22991563 -0.33100337 -0.24771683 0.29563212
0.6008775 -0.63112783 -0.14659017 0.33827284 -0.5392072 -0.31326085 0.34667844 -0.014645757
0.18285297 0.10671263 0.05483355 0.19757777 -0.2346187 -0.041273706 0.057453193 0.21544042
0.10729617 -0.43757975 -0.14730453 -0.11312667 -0.37798062 -0.53234285 0.073300414 0.36176333

4.bias f4 [3]
00000000: 4d8d 7d3d 85d9 f3bc c396 8d3c
0.061902333 -0.029766807 0.017283803
