models/Navigator_v2Sd_2k.pt (torch, 10116 bytes, 8 tensors)

0.weight f4 [4, 2, 3, 3]
000000 3b 74 34 be fe 5a 23 3e 92 c9 0e bd 45 d6 91 bd
       -0.17622463 0.1595268 -0.0348602 -0.07120947
000010 e0 64 9a bd 59 c5 1a be a2 64 30 3e 1f 97 93 be
       -0.07538772 -0.15114345 0.17225888 -0.28826234
000020 5b 9a cb bd 08 94 fb 3e 9c 92 3a 3f d0 6d df be
       -0.0994155 0.49136376 0.7287996 -0.43638468
000030 81 30 fd 3e 85 ca 09 3e 82 db 16 3c dc ce 94 bf
       0.49451068 0.13456161 0.009207608 -1.1625628
000040 ed eb 57 bf 72 d4 9a 3e 0b 0e 29 be 30 ac e7 3d
       -0.8434437 0.30240208 -0.16509263 0.11312139
000050 17 35 cb bd 89 66 52 3e ec d0 09 be 71 50 8c bd
       -0.099222355 0.20546927 -0.13458604 -0.068512805
000060 c3 41 2a be 07 22 ea ba aa a7 b2 bd 1a 64 49 3f
       -0.16626649 -0.0017862924 -0.08723386 0.7866837
000070 a5 7b 38 3e aa 8c f6 3e 0e 2b 83 3f cf 00 4d 3e
       0.18015917 0.48154193 1.0247514 0.2001984
000080 10 05 ef bd 86 17 d1 3e 18 24 01 3f 6b 85 9c 3f
       -0.116708875 0.4083826 0.504457 1.2228216
000090 15 bd e6 bd a8 24 15 be c6 b1 2c 3c 28 7e ac 3d
       -0.11266533 -0.14564764 0.010540431 0.084225
0000a0 7f 5c 09 3e 4f 53 9e bd e6 c2 e0 bc 99 e5 f0 3d
       0.1341419 -0.077307336 -0.027436685 0.11762542
0000b0 49 07 a8 bd f9 18 cb 3f 6f 11 fa 3e 83 eb 0d be
       -0.082045145 1.5866996 0.48841426 -0.13859372
0000c0 6c 89 ae 3d c0 82 c7 3e 0e 8f 1d 3e bf 39 3c 3f
       0.08522305 0.38966942 0.15386602 0.73525614
0000d0 27 8c 85 3c ef eb 3e 3f 32 90 22 be 6e 2e da bd
       0.016302181 0.74578756 -0.15875319 -0.10653387
0000e0 b4 21 29 3e f5 69 e3 3d 62 e8 34 3e ce e5 6a be
       0.16516763 0.11104194 0.17666772 -0.22939226
0000f0 32 d3 8f bc 47 0d 59 be 70 7d 48 3d 3c 44 a5 3f
       -0.01755676 -0.21196471 0.04894775 1.2911448
000100 b8 5d fa 3e 0b f2 89 3f 06 40 52 3e 6b 37 09 bf
       0.48899627 1.0776991 0.20532236 -0.53600186
000110 3b ef 64 bd dd 16 6c bf 2c bb cd 3e ca aa 75 3f
       -0.05589221 -0.92222387 0.40181863 0.9596373

0.bias f4 [4]
000000 1c 7c 3f 3e 38 c6 53 3e 6a dc 4b 3e 1c d6 35 3d
       0.18699688 0.20681083 0.199083 0.044393644

1.weight f4 [8, 4, 3, 3]
000000 87 7f 37 be b5 ab 53 bd e1 8a f9 3e 1c 13 cb be
       -0.17919742 -0.051677424 0.4873877 -0.39663017
000010 40 ed cc be 8c bf a2 3e 53 27 d0 be e9 1c 56 be
       -0.40024757 0.31786764 -0.40655002 -0.20909466
000020 9f d3 8d be e0 5c ee 3c cc c7 bf 3d 29 7b 8d 3e
       -0.27700517 0.02909702 0.0936428 0.27633026
000030 54 03 fb bd a0 d8 a8 3d 20 4d d9 3e e1 7e 1c 3e
       -0.12256494 0.08244443 0.42441654 0.15282775
000040 46 4b f5 3e e9 41 e5 3c f3 33 27 be 8d 90 c7 3c
       0.47908992 0.02798553 -0.16328411 0.02436092
000050 e8 66 24 3f 7e 23 8e bc 0b ef 77 be 1f 17 8f 3e
       0.6421952 -0.017350908 -0.24212281 0.27947327
000060 70 d4 bd 3e 1b 3b 99 bc 1b 51 4a 3d 7f f6 ab 3e
       0.3707614 -0.018704941 0.049393754 0.335865
000070 ae 15 ca 3e da 46 cc 3e 09 a3 49 bc f4 9f c4 bd
       0.39469665 0.39897805 -0.012306937 -0.09600821
000080 b3 03 89 bd 06 e5 d6 be fa 13 96 3e 76 02 53 be
       -0.06690159 -0.41971606 0.29312116 -0.20606408
000090 8b b7 4b 3f 7f 21 2f be 1c f2 01 3e 06 70 0b be
       0.7957694 -0.17102621 0.12690014 -0.13616952
0000a0 7d 55 27 be 5e 85 50 be 61 c2 dd bd 08 43 d5 3d
       -0.16341205 -0.20363376 -0.108280905 0.10413176
0000b0 a6 90 d2 be 10 5e 3b 3e 61 3f 98 be 9a a4 96 bc
       -0.41125983 0.18297601 -0.29735854 -0.018389035
0000c0 e1 18 fc bd a6 90 32 3e 32 4f 89 3e 36 52 e0 3e
       -0.12309433 0.17437991 0.26818234 0.43812722
0000d0 a4 86 ee 3e c7 dd 32 3e 22 e8 15 3f e6 93 6d be
       0.46587098 0.17467414 0.5855733 -0.2320095
0000e0 57 f9 30 be 75 33 4f 3e 0f bc 39 3e 20 43 83 3c
       -0.17282616 0.20234473 0.18138145 0.016023219
0000f0 ec b3 e3 bc 6b ab 4b bc e2 2a 62 3e d6 0a b6 3e
       -0.027795754 -0.012431006 0.22086671 0.35555142
000100 c0 5c 2d 3e cc 9d 01 3e 6b 87 f9 3d 49 24 87 3e
       0.16929913 0.12657851 0.12184032 0.2639487
000110 0b e5 78 3e 22 8e d3 bd d1 96 15 3e 7c 89 f9 bd
       0.24306123 -0.10329844 0.14608313 -0.12184426
000120 b3 66 71 3d e6 b1 9a be 0c 06 80 be 99 3b 42 bd
       0.058935832 -0.3021385 -0.25004613 -0.047420118
000130 40 c8 80 bb ee 3f 5e be a9 08 51 bf e1 6a 68 3e
       -0.0039301217 -0.21704075 -0.8165384 0.22697021
000140 93 5b a3 3c 9d 40 06 bf 9d 31 0c 3c 14 07 ba be
       0.019941127 -0.5244234 0.008556751 -0.36333525
000150 4e fc d3 be 79 5f 63 3e 0c 0a ac 3c 14 d1 74 3e
       -0.4140343 0.22204389 0.021000884 0.23907882
000160 06 23 ae 3e 02 a9 67 3e 76 7e ec be 63 88 58 3e
       0.34011096 0.22623065 -0.46190232 0.21145777
000170 c1 bd d1 be 5f a7 15 bb c2 11 f0 3d 38 7f 8c be
       -0.40965083 -0.0022835357 0.11722137 -0.2744081
000180 26 17 8b 3e 0a ec d6 3e 99 51 09 be 15 4a f4 be
       0.27166098 0.4197696 -0.13410033 -0.4771277
000190 47 90 12 3e be 72 bf be 10 d6 ee be e4 94 8f be
       0.1431285 -0.3739223 -0.46647692 -0.28043282
0001a0 e2 71 2d 3e 4a b0 d2 be f3 57 b8 bd f9 5f 8c 3e
       0.16937974 -0.41150123 -0.0900115 0.2741697
0001b0 93 46 cd bb c1 02 03 3e 82 48 dd 3d 38 76 93 3d
       -0.0062645166 0.1279402 0.108048454 0.07200283
0001c0 32 a1 65 be c2 9f 8f be e5 76 11 3f 93 91 d4 be
       -0.22424772 -0.28051573 0.56822044 -0.41517314
0001d0 5d 13 0d bf 2a 2c 6e 3e a3 ae 27 be 4a 3d bc 3e
       -0.5510767 0.23259035 -0.16375212 0.3676551
0001e0 7f 5c 94 3e c6 79 63 3d 90 f3 60 3c 43 a2 b3 3d
       0.2897682 0.055536054 0.013729945 0.08771183
0001f0 8c e3 93 3e 6f 18 02 bd 9b 64 a7 bd 8b d3 14 be
       0.28884542 -0.031761583 -0.08173486 -0.14533822
000200 6e 97 64 3e 31 fb 79 3e 26 75 b7 bd 4e 5c 85 bb
       0.22323391 0.24412228 -0.08957891 -0.0040698415
000210 ae 57 5e be 9c 12 10 3e c6 50 5c 3d 5d 35 84 3e
       -0.21713135 0.14069599 0.05378797 0.25821963
000220 fb 48 ec 3c 39 6e 16 3f 56 d5 4a 3e c1 10 03 be
       0.028843394 0.58761936 0.19807944 -0.1279936
000230 76 5e f0 bd 40 02 76 3e f2 75 85 3e 4e 0b 4f bc
       -0.11736767 0.24024296 0.26066548 -0.012636973
000240 6f bd 65 3c 8e af 94 3e be 05 23 be ac 18 55 3d
       0.014022215 0.29040188 -0.15920159 0.052025482
000250 9c fa db be f9 16 e8 bb b1 f7 08 3e 51 55 51 be
       -0.42964637 -0.0070828167 0.13375737 -0.20442702
000260 c9 1e 6c be 05 fa 82 be 32 12 03 be 12 6d 1b 3e
       -0.23058619 -0.25581375 -0.1279991 0.15178326
000270 a8 b0 cc 3d cf 52 4a 3e c3 26 27 bc 06 3f 02 3e
       0.09994632 0.19758151 -0.010202113 0.12719354
000280 31 2e ae 3e 94 60 ef 3e c0 58 45 bf 27 1c c1 3d
       0.34019616 0.4675337 -0.77088547 0.09429198
000290 3e 41 75 be ff 5e b9 3e f9 41 53 be f1 51 23 be
       -0.23950669 0.3620529 -0.20630635 -0.15949227
0002a0 fa c2 70 be d9 28 8d 3e 8b d6 62 3e 1b f6 9d be
       -0.23511878 0.27570227 0.22152154 -0.30851826
0002b0 cc 1e 1b be 7e 14 e7 3d 04 3f 81 3e 38 48 b1 be
       -0.15148467 0.112832054 0.2524339 -0.3462541
0002c0 9d 90 5f be 79 5e 3c 3e 8b ca a0 be 39 f5 8a 3e
       -0.2183251 0.18395413 -0.31404528 0.27140215
0002d0 0c 01 1e 3e e7 04 fd 3d 03 d9 6a bd b8 86 7c be
       0.15430087 0.12354451 -0.057335865 -0.24660766
0002e0 e8 5e 94 be d8 50 4c 3c b4 c0 f5 3e a3 f3 92 bd
       -0.28978658 0.0124704465 0.47998583 -0.07175376
0002f0 a6 d2 8f 3e fe ef 5c 3e 7d 28 61 3e 36 73 10 3d
       0.280904 0.21575925 0.21988101 0.035266124
000300 92 eb 32 3d 81 bf c9 bd 65 7e 86 bd fb b6 ea 3d
       0.04368169 -0.098509796 -0.065670766 0.11460682
000310 ce 9a ed 3d f3 50 a5 3e 89 ce 2f 3d 66 f3 9e 3e
       0.11601792 0.32288322 0.042921577 0.31045073
000320 79 3d e4 3d 10 03 91 3e 8b 86 c3 3c 72 ec 45 3d
       0.111445375 0.2832265 0.023867866 0.048321195
000330 b8 4e c3 be ad 9f 8c 3e ce 5e 5a 3e 3c 9e d1 3d
       -0.38145995 0.27465573 0.21325228 0.10235259
000340 25 9f 82 3e 8a fc 04 3f 6a 8b 8b 3e 5a a9 94 be
       0.25512043 0.51947844 0.27254802 -0.29035455
000350 16 e0 1a ba b4 48 86 3e b6 83 53 be d2 11 c4 3e
       -0.0005908025 0.26227343 -0.20655712 0.38294846
000360 62 e9 0a 3d e4 6d 08 be a8 c9 be be 0f 80 8f 3e
       0.033913977 -0.1332317 -0.37263227 0.28027388
000370 3e c1 91 3d d4 69 83 bd 8f 7b 00 bf d2 6a 43 be
       0.07116936 -0.064166695 -0.50188535 -0.19083717
000380 e0 7a 3d be 74 0e a3 be c1 a6 d1 3d 04 11 62 be
       -0.18503904 -0.31846964 0.10236884 -0.22076803
000390 e8 3e 74 be 8f 1a 8b 3d ef 70 77 b9 61 fb 0c 3f
       -0.23852122 0.06792175 -0.00023597827 0.55071074
0003a0 6c 18 8e 3d 35 3a 92 be 69 75 96 bb d3 04 81 be
       0.06938252 -0.28560033 -0.004591633 -0.25198993
0003b0 e5 3d 6a be a1 ed 9a be 9c f1 34 3e f7 fe 03 be
       -0.22875173 -0.3025942 0.17670292 -0.1289023
0003c0 d6 e1 21 3f ee d2 1c bd a0 f1 96 3e 64 9b 0c bf
       0.63235223 -0.038287096 0.2948122 -0.5492461
0003d0 ca dd 10 be 7c 28 2a bf d0 dd 1a be 66 b2 df bd
       -0.14147106 -0.66468024 -0.15123677 -0.10922699
0003e0 59 f1 e1 bd 27 09 4e be dd d6 75 3e 2a c5 2e bf
       -0.110323615 -0.20120679 0.24007745 -0.682696
0003f0 ae 87 ce be b7 00 76 bd dc 3e 21 be 1b 9e 9d 3d
       -0.4033789 -0.060059275 -0.15746635 0.07696172

1.bias f4 [8]
000000 e0 2e fe 3c 6b f6 22 be 8c 8c 11 3e 91 02 ae bd
       0.031028211 -0.15914313 0.1421377 -0.08496583
000010 9b 54 b7 bd cc d3 0d be 4b fb dc 3c 84 84 b3 3b
       -0.08951684 -0.13850325 0.026975295 0.0054784436

2.weight f4 [16, 8, 3, 3]
000000 05 dd 0d 3e 08 ff 9b 3c f3 8d 75 3e bd fb a8 bc
       0.13853844 0.019042507 0.2397993 -0.02062785
000010 84 e7 8c 3e e3 96 02 3f f2 c5 0f 3e bb a1 5a bc
       0.27520382 0.51011485 0.14040354 -0.013344224
000020 e2 e4 e1 3d 16 6d 06 3c 04 2d 80 3d b5 e8 bd bc
       0.11029984 0.008204719 0.06258586 -0.023182252
000030 49 ad 26 be 8c dd 13 3e f0 69 60 3e 19 cc 48 3e
       -0.1627704 0.14439982 0.21915412 0.19609107
000040 9d ad 57 3e 8c ea ab 3d 87 3e c1 bd 0b 20 19 be
       0.21062322 0.08394346 -0.09435754 -0.1495363
000050 e2 83 80 be 3e de 19 3e 92 4a 76 3e 7a 68 33 bb
       -0.2510062 0.15026185 0.24051884 -0.0027375505
000060 3c 28 9b 3e d0 23 8e 3e 08 c4 95 3c 77 c8 34 3d
       0.30304134 0.27761698 0.018281952 0.04413649
000070 06 ca 99 3d 3c 87 3e 3e 44 43 0b bd 0f f1 4d 3e
       0.07509236 0.18606275 -0.033999696 0.20111488
000080 49 24 16 3e 8c 90 56 bd 72 c0 b7 bd 88 81 e2 3e
       0.14662279 -0.052383944 -0.08972253 0.4423945
000090 56 13 53 3e 77 25 46 be 54 db 9e 3d 64 dd 66 3e
       0.20612845 -0.19350229 0.07756677 0.22545391
0000a0 23 ad 9c 3e ec 46 d5 3d ad fb ff 3e 70 e4 87 3c
       0.30600843 0.10413918 0.499967 0.01658842
0000b0 55 a5 10 3e 96 66 cb 3c 68 77 2c be a0 f6 45 3b
       0.14125569 0.02482919 -0.16842425 0.0030206814
0000c0 b7 40 4a 3c 54 64 38 3e 68 e2 95 bc 88 4a 11 3e
       0.012344531 0.18007022 -0.018296435 0.14188588
0000d0 39 ec 4b bd eb 0a e6 3d 48 e4 40 bc 6d 68 33 be
       -0.049785826 0.11232551 -0.0117731765 -0.17520304
0000e0 0c 0f 86 be 84 da 1c be b7 06 00 bd 10 a1 07 bc
       -0.26183355 -0.15317732 -0.031256404 -0.008278146
0000f0 66 88 fa 3d 27 7f ce 3d ec 85 fe bd 07 b5 d6 3d
       0.12233047 0.10082846 -0.12427887 0.10483747
000100 a9 d7 c3 3c 54 62 4e bb 39 73 d5 3c 9c 85 83 be
       0.023906546 -0.0031491714 0.026055919 -0.25687873
000110 68 fc c2 be 5c 26 64 be 76 cf 4b be d8 4b 94 be
       -0.38083196 -0.22280258 -0.19903359 -0.28964114
000120 13 29 f6 bd 8f 59 14 3e a6 69 de be ce f9 67 be
       -0.12019553 0.14487289 -0.43439978 -0.22653887
000130 4d 91 ef 3d 02 b3 c2 be 04 e5 98 bd fa 3f 84 be
       0.11697636 -0.38027197 -0.07465556 -0.2583006
000140 d7 1b 3e be d8 fe cb 3e 52 44 12 3e 78 33 b3 3b
       -0.18565308 0.39842868 0.14283875 0.005468782
000150 ef 46 c7 3e b5 83 5a 3d 2f 48 0e bf 51 01 96 be
       0.38921306 0.053348262 -0.55578893 -0.2929788
000160 2b ee 49 3c 32 c8 d2 be 91 8d aa be 2e 19 1d bd
       0.01232485 -0.41168362 -0.33311132 -0.03835409
000170 2e 7d f4 3e 53 c9 56 3e 55 c9 d9 be 34 0c 39 be
       0.47751755 0.20975237 -0.42536417 -0.18071061
000180 a2 9a 8c bd 34 0b aa be 75 72 1e 3e 09 32 87 3c
       -0.06865431 -0.33211672 0.1547335 0.01650335
000190 3a a7 5a 3d c5 ce bf be 8e 26 2c bd 92 00 ae 3e
       0.053382136 -0.3746244 -0.042028956 0.3398481
0001a0 b9 45 b4 bd 7d e1 99 3d 79 33 89 3e 49 47 b2 bd
       -0.08802361 0.075137116 0.26797083 -0.08705003
0001b0 9b 6a c4 be f1 21 17 3e fb 0a 6d be f8 7f 09 be
       -0.38362584 0.14759041 -0.2314872 -0.13427722
0001c0 2c 8a 0f be 49 b6 47 3d e5 fc d8 be 44 c0 aa bd
       -0.14017552 0.048757825 -0.42380443 -0.08337453
0001d0 45 f0 16 3f de dc 31 3e fe c3 12 3d 90 6e c0 be
       0.5896037 0.1736941 0.035831444 -0.37584352
0001e0 4f e8 df bd 4b c2 c9 be 2c 0e 88 3d 0f 5c 43 bd
       -0.10932981 -0.39406046 0.06643328 -0.047695216
0001f0 a7 8f be 3c 95 ef e0 3e c9 2f 0c bf 41 34 b4 3d
       0.023261858 0.43932787 -0.54760414 0.08799029
000200 8b ee d8 3e a0 62 c9 3c 69 db fb bd 57 7a 4d 3c
       0.42369494 0.02458316 -0.122977085 0.012541375
000210 64 9e 2b bf 42 94 82 3e 11 a5 b4 be b3 24 84 be
       -0.6703856 0.25503737 -0.35282186 -0.2580925
000220 a0 e0 89 be 87 be 02 3e e2 da 05 bd 5f 90 e5 bd
       -0.26929188 0.12767993 -0.032679446 -0.11209177
000230 d0 16 a2 3e 81 c9 20 3f ef 3b db 3d 78 aa 8e 3e
       0.3165803 0.6280747 0.10704791 0.27864432
000240 38 7a d8 be f1 e8 74 3e f6 ae 2d 3e bf 01 51 bb
       -0.42280746 0.23916985 0.16961274 -0.003189191
000250 c4 d0 65 3e ac 74 a1 bb 29 c2 8a 3d c0 50 f6 bd
       0.22442919 -0.0049272384 0.06775314 -0.120271206
000260 b2 9c a2 3e cc 0b 60 3e fc ae 86 3d d2 2f 91 be
       0.31760174 0.218795 0.06576344 -0.28356797
000270 b1 b3 63 bd b6 01 05 3e 12 c5 35 be c8 e2 81 bd
       -0.05559129 0.12988934 -0.17750958 -0.06342083
000280 f7 d0 25 3d 2b e8 29 3d c6 73 76 be ea 96 8e 3d
       0.040482488 0.04148118 -0.24067602 0.06962378
000290 b6 86 9c 3e a1 e9 9e 3e e2 c8 1e 3e 96 5a 09 3e
       0.30571526 0.3103762 0.15506318 0.13413462
0002a0 36 49 12 3e 44 c3 cb 3b 65 43 c7 3d bf 8d 51 3e
       0.1428574 0.006218346 0.09729651 0.20464228
0002b0 9b 61 be 3d 06 32 bc bd 97 d3 5e be d6 d7 a1 be
       0.092959605 -0.09189229 -0.21760403 -0.31609982
0002c0 f6 8d 16 be 0e 84 b2 be b1 16 93 3e 70 6d 04 3e
       -0.14702591 -0.34866375 0.2872825 0.12932372
0002d0 d2 39 ad be a7 06 16 3e 4d cd 83 3d 0e 87 48 3c
       -0.33833176 0.14650975 0.064356424 0.012239231
0002e0 4f a9 28 be 0c 85 0c 3e d9 24 a5 3e c5 96 cf 3e
       -0.16470836 0.13722628 0.32254675 0.40544716
0002f0 dc 7c 02 3e 6a ba 02 bc cf 5c 27 be 67 9b 29 3d
       0.12742943 -0.007979015 -0.16343997 0.04140797
000300 20 ee 97 bd 6f 6d d3 be f4 f8 48 be 28 a5 b4 bc
       -0.074184656 -0.4129443 -0.19626218 -0.022051409
000310 80 67 76 3e 02 b9 bd 3d 1a 50 4b 3d cc 51 91 3d
       0.2406292 0.09263803 0.049636938 0.0709568
000320 79 a9 c5 3d 01 76 cc 3d 6b 56 f4 3e 7d 7f 09 3d
       0.09651465 0.09983445 0.47722182 0.033568848
000330 29 76 34 bd 64 58 5c be f4 db ce bc 4a 3e 5b bd
       -0.044058 -0.21518093 -0.025251366 -0.0535262
000340 38 be 02 3e ce 4c 5e 3e 79 54 9c 3d 5f 86 c1 3d
       0.12767875 0.21708986 0.076332994 0.094494574
000350 40 5c bc 3e d8 fa a9 3e 72 40 d2 3d ae dd a7 be
       0.3678913 0.3319919 0.10266198 -0.32786316
000360 b8 76 33 3e c6 36 ef 3e 5b 67 b0 3e 7a a1 b0 3d
       0.17525756 0.46721476 0.34453854 0.08624549
000370 14 a8 33 3e b8 64 bf 3e dd b1 98 3d a8 2a 55 3c
       0.17544585 0.3738153 0.074558 0.013010658
000380 5b c7 60 3e 84 ae 25 be 87 a9 d4 bd 4b 1f 83 3d
       0.21951048 -0.16179854 -0.10383897 0.06402453
000390 d7 33 b0 bd 4e 65 4b 3e af 13 41 3e 35 5a d2 3b
       -0.08603638 0.19862863 0.18855165 0.006419445
0003a0 6c 9b 35 bd 9e 53 86 bc 27 5e de be 7e 46 8a bd
       -0.044337675 -0.016397294 -0.43431208 -0.067517266
0003b0 1a a6 53 be 9d 7b be 3d df db 14 bd 89 e7 52 be
       -0.20668831 0.09300921 -0.036342498 -0.20596136
0003c0 68 2a c8 3e a6 95 a6 3e 4f dc 35 be 4c 09 bb 3e
       0.39094853 0.32536048 -0.17759822 0.3653053
0003d0 41 54 c1 3d aa 63 af 3e 4a 61 b3 bd 67 13 91 3e
       0.09439898 0.34255725 -0.08758791 0.28335115
0003e0 2a 7a 33 3e 44 4b c9 bc 9a 9d e6 bd 25 31 4d 3e
       0.1752707 -0.024572022 -0.11260529 0.20038278
0003f0 e6 59 1b 3e 55 5f 2f 3e 7c 03 50 3e 84 8e 14 bd
       0.15171012 0.1712621 0.20313829 -0.036268726

2.bias f4 [16]
000000 67 d6 bc 3b 8b a6 2f bd 37 3b 92 bd 49 d1 55 bd
       0.0057628634 -0.042883437 -0.071402006 -0.052201543
000010 cc fe 5c bd 0d 5d 0d 3e 4e 53 ca bd 66 49 27 3d
       -0.05395393 0.13805027 -0.0987917 0.040841483
000020 d6 dd 0b 3d 04 43 7d 3d 2a 19 22 be 74 22 15 3a
       0.034147106 0.06183149 -0.15829912 0.0005689033
000030 24 e2 11 3d 99 f1 0d 3d e6 d3 f8 3c 86 1e d5 3c
       0.035616055 0.034654234 0.030374479 0.026015531

4.weight f4 [3, 64]
000000 91 e6 c6 bd c6 98 10 3e dd 65 12 be 9a e0 0e bf
       -0.09711946 0.14120778 -0.1429667 -0.55811465
000010 42 f2 10 3e 75 c1 be be 42 87 f3 3d 93 23 bf 3e
       0.14154914 -0.3725697 0.11891033 0.37331828
000020 57 ee 13 be 9d 79 0b be 0e 59 84 3e f3 b0 cb 3e
       -0.14446388 -0.1362061 0.25849193 0.3978344
000030 60 a3 b0 bd e2 2e f7 3d e6 f4 af bd 37 a7 de be
       -0.08624911 0.12069489 -0.085916325 -0.4348695
000040 01 31 c1 bd c2 12 cd 3c a2 bf 89 be 6b 03 df 3d
       -0.09433175 0.025033358 -0.26904017 0.10889324
000050 68 99 cb bc cc ea 73 be 82 a8 a2 3d e2 c3 e9 3e
       -0.024853423 -0.23820037 0.079422966 0.4565726
000060 74 9d 61 3e b0 6d a5 3d d5 0e b0 bd 25 9b ca 3e
       0.2203272 0.08077562 -0.08596579 0.3957149
000070 f1 22 2a bd 9d 41 37 bd 45 e0 98 bd d0 97 21 bd
       -0.04153723 -0.044740308 -0.07464651 -0.03945142
000080 bf c7 87 3e 38 c1 0c be fd d9 f3 bc ad 62 f2 3e
       0.26519582 -0.13745582 -0.02976703 0.4734091
000090 df ce 82 3d 89 c5 13 bd 5e 2f cf be 97 ff 2a 3e
       0.06387114 -0.036077056 -0.40465826 0.16699062
0000a0 5a e5 96 3e 67 6c e3 3e 13 9c 22 3e 24 2e b2 3c
       0.29471856 0.44418642 0.1587985 0.021750517
0000b0 0b e9 09 bf e7 49 f7 bd b6 f7 a4 3e 8a 0f 57 be
       -0.5387122 -0.12074643 0.32220238 -0.21002021
0000c0 d7 74 4c bd 5f 5a ad bd a7 89 84 3e c7 e8 76 3e
       -0.049916115 -0.084645025 0.2588627 0.24112235
0000d0 73 97 84 3e 8a 35 87 3d 32 ea a3 3e 73 e7 f8 3e
       0.25896797 0.06602009 0.32014614 0.48614082
0000e0 f0 80 66 bd 86 fd 15 bf 70 b9 30 3e 4c 14 fa 3e
       -0.056275308 -0.5858997 0.17258239 0.4884361
0000f0 0b 61 53 3e 68 1c ad 3d bd 1d 09 3f b2 e5 98 be
       0.20642488 0.08452684 0.53561 -0.29862744
000100 8d aa 80 3e f8 cb 3b 3c 7b 59 3b be 65 72 76 be
       0.2513012 0.011462204 -0.18295853 -0.24067076
000110 1d 5b d5 be 88 5e 27 be c6 b5 ae 3e 9a a0 be be
       -0.41671076 -0.16344655 0.34123057 -0.37231904
000120 5e cc 59 3e 34 39 25 3e 6a 16 a0 bd 6d bf 00 be
       0.21269366 0.16135103 -0.07816775 -0.12573023
000130 d4 47 a0 3e 96 9a a1 3e f8 c3 11 be 34 f2 bd be
       0.313048 0.31563252 -0.14234912 -0.3709885
000140 d6 3b 81 bd f0 c8 e5 3d 6b 87 5f be 1b 58 24 3d
       -0.06310241 0.112199664 -0.21829002 0.040123086
000150 9e c6 3a 3f 8a 61 11 3e 73 43 7c 3e b4 60 46 3e
       0.72959316 0.14197364 0.24635105 0.19372827
000160 c9 32 c3 3e 30 4e 40 be 37 7f 25 bf b7 03 29 3d
       0.38124683 -0.18779826 -0.6464724 0.04126331
000170 17 e2 32 3f cf 9f 36 3f 37 69 80 3e 2b ea 21 bd
       0.69876236 0.713376 0.25080273 -0.03952996
000180 50 36 f0 be a9 9d 4d be 1d 8a d6 3e d8 b4 05 3e
       -0.46916437 -0.20079674 0.41902247 0.13057268
000190 cc 53 ad 3e d4 b4 22 3e 68 b9 7f be 3e 30 90 bd
       0.33852994 0.15889293 -0.2497307 -0.070404515
0001a0 92 df 37 be 70 b1 19 bf 2a 7d 85 3e ea 0c 63 3e
       -0.17956379 -0.60036373 0.26072055 0.22172895
0001b0 e1 e3 03 bf 4e 89 d3 be 19 b3 e7 3d 6d 10 82 be
       -0.5151959 -0.41315693 0.11313457 -0.25403157
0001c0 1a 5c 44 bf 01 38 1e 3c 66 2d 08 bd e5 4a d3 bc
       -0.76703036 0.009656907 -0.03324642 -0.025792548
0001d0 de 49 84 be ae 55 53 bd db f6 a8 3c 57 f7 e5 3e
       -0.25837606 -0.051595382 0.020625522 0.44915268
0001e0 d8 77 2b 3e 8c da 42 be 64 de 8c bd f5 20 f5 bc
       0.16744936 -0.19028682 -0.06878355 -0.029922942
0001f0 00 3b fb be 5e fe c8 be b6 b1 e0 bd 62 49 72 3d
       -0.4906845 -0.39256567 -0.10971396 0.059152015
000200 b5 c8 91 bc 42 44 52 3e 4d c2 90 3e 62 51 53 3d
       -0.0177959 0.20533851 0.2827324 0.051591285
000210 4e 36 4a 3f 12 2a 12 bf 6e 26 8f be 1e 69 a8 3e
       0.7898911 -0.57095444 -0.27959007 0.32892698
000220 be c5 13 3f 12 f8 94 3e 47 2d 77 bd ec a2 26 3e
       0.57723606 0.29095513 -0.060345914 0.16273087
000230 a4 66 01 3e 62 ff 46 3e de 45 c1 bd 93 18 3e be
       0.1263681 0.19433358 -0.09437154 -0.18564062
000240 12 5f 0c 3e bc f5 b3 be 3a af 1e be f1 0a db be
       0.13708141 -0.35148418 -0.15496531 -0.42781785
000250 0f 01 58 bd fe 9e 0d bf ba da ee bc f9 f1 c8 bd
       -0.052735385 -0.5532073 -0.029157031 -0.098117776
000260 b7 41 03 bf 66 e7 60 be 45 f2 e8 3d 3a d2 a2 3e
       -0.5127215 -0.21963271 0.11374334 0.31801015
000270 5e b5 09 bf cf 0b 29 3d 2b 8f 7c 3d 42 48 aa 3e
       -0.5379237 0.041271027 0.061659973 0.33258253
000280 67 f4 fa be 60 0d 65 bd b0 82 c6 3e b6 19 29 3e
       -0.4901459 -0.05592096 0.38771582 0.16513714
000290 65 e1 02 bf 41 f6 e5 be 4e 03 b4 3c b6 6f c6 3e
       -0.51125175 -0.4491444 0.021974232 0.38757104
0002a0 47 ac f4 3e eb c1 c8 be 10 96 59 bd df 02 11 3e
       0.47787687 -0.39210448 -0.053121626 0.14161251
0002b0 6d 9b 81 be a2 88 8b be 46 61 64 3e f9 6f 73 3d
       -0.25313893 -0.2725268 0.22302732 0.059432957
0002c0 2f 3b 53 3e e8 40 5b 3e 1a 00 12 bd 63 2c 93 3e
       0.20628045 0.21411479 -0.035644628 0.28744802
0002d0 fc 40 95 be 4f d1 2b bc e7 f8 04 3e 79 b2 2d 3e
       -0.29151142 -0.010486915 0.12985574 0.16962613
0002e0 ae f6 28 be 88 df d7 be 13 ae c6 bd 59 98 21 bd
       -0.16500351 -0.42162728 -0.09701171 -0.03945193
0002f0 b2 f1 db be 49 e5 03 bf ea 2a 18 3e d2 7c e2 3e
       -0.42957836 -0.51521736 0.1486012 0.44235855

4.bias f4 [3]
000000 7e d0 88 3d 5d cf 88 3b f5 37 9c 3b
       0.06680392 0.0041751103 0.004767413
