models/Pilot_v1.5.pt (torch, 60706 bytes, 10 tensors)

0.weight f4 [4, 2, 3, 3]
00000000: 81ea 4ebd 3ff1 d13d b416 84be 4335 a93c
00000010: be52 babd faf9 473e 5d7c 8a3e 9614 fb3d
00000020: 8e0d 93be b5f3 b63d 5be4 563f a097 953f
00000030: e72d 06bf b479 c3bd 6b2f 03c0 f980 923f
00000040: 687b 1dbf 91b5 123f 6591 8ebe 12ae 2f3e
00000050: f466 013e a747 253e e6a7 803d d8ad 1e3d
00000060: 87d9 09bd 308c 443d 1be2 ce3d 82bd 78bf
00000070: 2963 cf3e a727 94bf 8e80 f43e c017 3e3d
00000080: 560e 9d3f 2313 61bf 8ecd 05bf 6e68 edbd
00000090: 0264 6d3e 817d dabb 3112 c6ba 7e77 803e
000000a0: 0b76 063e 7824 acbc e502 5e3e 63ac 633d
000000b0: 3940 84be eb65 b93f 9249 36c0 f058 1fc0
000000c0: 8967 abbd e6e6 08bf 0409 a93f 5420 833f
000000d0: d915 a3bf 635e 2fbf 6e81 a4bd 6f20 313b
000000e0: 45c8 13bd eb5d 123e c002 1bbe fe69 53be
000000f0: d1dd 14be 7fd3 803e 744f e33c da8b 04bf
00000100: 7aa9 efbd 3747 92bf 0e68 42be 2aed ebbd
00000110: bb71 313f f7af aabf c36e 2abf 8c67 a9bf
-0.05051661 0.10251092 -0.2579857 0.02065528 -0.09097813 0.19528952 0.27048007 0.12259786
-0.2872128 0.08933202 0.8394219 1.1686897 -0.5241379 -0.095446974 -2.0497692 1.1445609
-0.6151643 0.573083 -0.27845302 0.17156246 0.1263693 0.16140614 0.06282024 0.03874001
-0.033654716 0.047985256 0.1010172 -0.97164166 0.4050534 -1.1574601 0.4775433 0.04640937
1.227 -0.87919825 -0.52266777 -0.11592184 0.23182681 -0.0066677933 -0.0015111623 0.25091165
0.13130967 -0.021013483 0.21680792 0.055584323 -0.25830248 1.4484228 -2.8482404 -2.4898033
-0.08369357 -0.53477323 1.3205876 1.0244241 -1.2741042 -0.685034 -0.08032499 0.0027027389
-0.036079664 0.1429364 -0.15137768 -0.20645902 -0.14537741 0.2516136 0.027747847 -0.51775897
-0.11702247 -1.1427983 -0.18985006 -0.11519845 0.69314164 -1.333495 -0.6657526 -1.3234725

0.bias f4 [4]
00000000: dae5 a9bd dbb1 ebbc 24f4 c13d 6d36 7bbd
-0.08295794 -0.028771332 0.09470394 -0.0613312

1.weight f4 [8, 4, 3, 3]
00000000: de84 53be e458 3dbe 3e51 3a3e 483b 5b3d
00000010: b8aa 7bbd fb73 13bd e2ff a9bd 927e 89bd
00000020: bd54 f6bd 2fb2 043d e8c0 833e 2f6a f1bd
00000030: fbe2 4bbe 9366 5bbd e64a 183e 96c6 023e
00000040: c3ad 6c3d 3024 0b3d 4856 203e 4b26 803e
00000050: a0c1 67be d63a 733d f8c2 4bbe 9b09 7abc
00000060: d14c d6bd 3b7a 23bd 1a96 bc3e ea52 633e
00000070: 945f b23d 6ab3 c7bd fc6d 71be 5503 b3be
00000080: 8ad9 6bbd 99db 6a3d a205 8d3e 0cd5 b33d
00000090: 2a57 53be 928d dcbd 22d4 f03d 0a30 5b3d
000000a0: 73b3 2bbe e46d edbd 2f81 b8be 5b2b 783e
000000b0: b1d5 c93d 6ce5 27bd affc 243e 7e86 82be
000000c0: 9032 37be 49d4 193e 80ea 5c3e 0e90 343e
000000d0: 3ec5 e83c 7cce 4abe bcfe 973d eecf 5f3e
000000e0: f18d 2a3f e75e 413e d877 7ebe fe0f c5bd
000000f0: bddd 8abe 20bd ebbc d5ad 263e 0dc3 e8bd
00000100: 8679 033e 7de4 05be e663 adbe 40f2 58bd
00000110: 839f 223e a8bf 0e3f 6a16 84be f925 3abe
00000120: 2e14 f2bc e554 6ebd b648 92bd b1fb 113e
00000130: 6ce8 373c 4cdd dbbe b9ca 77bd a01c 3dbc
00000140: 344f 0e3f 2339 8f3e fe45 253c 3eaa 88bd
00000150: bf1b 00bf 7eb8 b53d 4111 0e3e a07e 823e
00000160: 9890 5bbe 2669 92be 2f36 e1bd 95aa cdbc
00000170: 024b 383e 47cd e83d b57a 573e 72f7 483c
00000180: b764 8bbe 5287 71bd b2f5 02bf 83af 3e3e
00000190: da40 80bd 17e6 2bbe ec41 bfbe e945 28be
000001a0: c0df 843e a021 89bd 5a83 80be c15f 0dbe
000001b0: cfe6 9abe 0487 e23d 5a9c 113e 12ab 853e
000001c0: 58e7 1f3e 2a12 74be eb2f 70be 29fc 9ebd
000001d0: 5716 5d3e 5008 893e 2b2e 103e cbad f1bd
000001e0: 20bf 5ebe e27c e3bc cbbb a0bb 9a49 503d
000001f0: 90d6 0fbd 0fb1 6fbe 355c b23e 367c 093d
00000200: ce86 80be 7a0e 8bbe ba8f 933e bc83 853e
00000210: 7c94 093e 9d08 ac3e b0f2 adbe 7248 293e
00000220: dc47 7bbd 55d9 0cbe 410a 2bbe b8fa 62be
00000230: cd75 7cbd cd03 1b39 60b5 2ebe 1e97 82be
00000240: b557 033e 1c78 9b3e af8a 793d 9920 26be
00000250: 1530 69be 92ec 0fbd d3b4 353d ca06 8c3d
00000260: 5b48 f13c 802e 603e 5b71 92bd f48a 20bc
00000270: e398 ad3c d0d0 983e 109b 393e 80bd 233e
00000280: bd12 58bd d064 95bd 96d5 f0be 3520 d23d
00000290: b2a8 11be 349f a23e 8ec7 b93d 1e96 4ebe
000002a0: 1327 68bd a93c 9a3e 3abc 5f3d cc46 c03d
000002b0: f511 1ebe 0329 dfbd 8eab d43c ca7f 173e
000002c0: a4dd 773d 4d8d be3e 5529 923d 3f5e 20bc
000002d0: eb3f 3c3e 8a63 d7bd 528d abbd e8bf b5be
000002e0: 6e48 313e 03ed d33c e161 e23e d52f 88bc
000002f0: eaf2 3fbd 070a 88bd c4d7 dbbd dc3e 873e
00000300: caee 3d3e d241 303d 903b 913d a232 cabe
00000310: 64e7 573e 6580 0bbe 7b6e b13e b6b1 d3bd
00000320: 62cd bbbd e490 d33d 7a89 873d 3c65 fd3c
00000330: 687c 8c3d c954 1a3d 253b 6e3d 44cd 8ebe
00000340: 680e 32be e3b8 3c3d 03e7 983e e82d bd3d
00000350: 43de 03be 46d3 60be 447e b43d 67cb 3b3e
00000360: ed81 573e 3ba7 2e3d 6c56 083f bd62 a23d
00000370: 7f61 803d 1ac4 3ebe 50c2 dfbc 78a1 813e
00000380: 2107 8c3e 8e1c ee3b 65ae 2abd 2951 61bd
00000390: c4e4 e7bd db87 533e 7eb5 073d 95ea 9c3d
000003a0: cf3e f2bd b30c 30be 95c5 0a3e e64b 493e
000003b0: ae42 ec3d 0736 963e e704 6e3e 4592 5b3e
000003c0: 88cb a73d 484e 833e e9ec 63bd d9fb 23bd
000003d0: 96da 9ebc bc6a 2f3d 4478 d6bd ba4f 093e
000003e0: cc31 a03e b216 923e 20e4 353e 20f2 853e
000003f0: cabd 15be f27e 40be 1876 cabc 371a f83d
-0.20656154 -0.1849094 0.18195054 0.053523332 -0.061442107 -0.03599928 -0.08300759 -0.067135945
-0.12027881 0.03239649 0.25733113 -0.11787831 -0.19910805 -0.05356462 0.14872321 0.12771067
0.0577829 0.033970058 0.15657914 0.25029215 -0.22632456 0.059382282 -0.19898593 -0.015261079
-0.1046387 -0.03991149 0.36833268 0.22199598 0.08709636 -0.097510174 -0.23577112 -0.3496348
-0.05758051 0.05733833 0.2754336 0.0878087 -0.20638719 -0.1076919 0.11759211 0.05351261
-0.16767673 -0.115932256 -0.3603606 0.24235289 0.098552115 -0.040990278 0.16112016 -0.25493234
-0.17890382 0.15022387 0.2157383 0.17633078 0.028414365 -0.1980533 0.074216336 0.21856663
0.66622835 0.18883859 -0.24850404 -0.09622191 -0.27122298 -0.028776705 0.16277249 -0.11365328
0.12839326 -0.13075443 -0.3386528 -0.052965403 0.15881161 0.55761194 -0.2579835 -0.18178548
-0.029550638 -0.05818643 -0.07142775 0.14256169 0.011224847 -0.42942274 -0.060496066 -0.011542469
0.55589604 0.2797328 0.010087488 -0.06673096 -0.5004234 0.0887308 0.1387377 0.25487232
-0.21441877 -0.28595847 -0.10996663 -0.025105754 0.17997363 0.113672785 0.21042903 0.012266027
-0.27225277 -0.058966942 -0.5115615 0.1862164 -0.062623695 -0.16786991 -0.37354982 -0.16432919
0.25951958 -0.066958666 -0.25100213 -0.13806058 -0.30254218 0.110609084 0.142198 0.2610708
0.15615594 -0.23835054 -0.23455779 -0.077629395 0.21590553 0.26764154 0.14080112 -0.118007265
-0.21752596 -0.02776951 -0.004905199 0.050851442 -0.035116732 -0.23407386 0.34835973 0.033565722
-0.25102848 -0.27159482 0.28820592 0.26077068 0.13435549 0.3360032 -0.33974218 0.16531542
-0.061347827 -0.1375478 -0.1670313 -0.22165954 -0.06163578 0.00014783368 -0.17061377 -0.25505918
0.12826426 0.30365074 0.060923275 -0.16223373 -0.22772248 -0.03513772 0.0443619 0.068372324
0.029453447 0.21892738 -0.07150527 -0.009798754 0.021191066 0.2984681 0.18125558 0.15990257
-0.052752245 -0.07294619 -0.47037953 0.10260049 -0.14224508 0.31762087 0.09071265 -0.20174453
-0.05667789 0.30124405 0.054622866 0.093885034 -0.15436538 -0.10896494 0.02596071 0.14794841
0.060514107 0.3721718 0.0713679 -0.009788095 0.18383758 -0.105170324 -0.08376564 -0.35497975
0.17312786 0.025869852 0.442153 -0.01662437 -0.04686252 -0.066425376 -0.107345134 0.26415145
0.18548122 0.04303152 0.07091439 -0.39491755 0.21084362 -0.13623197 0.34654602 -0.1033663
-0.09170033 0.1033037 0.066180184 0.030932061 0.06859666 0.037678514 0.058161873 -0.2789098
-0.17388308 0.04607476 0.29863748 0.092372715 -0.12877755 -0.21955594 0.08813146 0.1833931
0.21045657 0.042639952 0.5325687 0.07928989 0.06268596 -0.18629494 -0.027314335 0.25318503
0.2734919 0.0072665876 -0.04167022 -0.05500904 -0.113229305 0.20657293 0.03313207 0.076619305
-0.11828386 -0.17192344 0.13551934 0.19657859 0.11536156 0.29338095 0.23244058 0.21442516
0.081931174 0.2564566 -0.055645857 -0.040035103 -0.01939134 0.0428264 -0.104721576 0.1340932
0.31287992 0.2853294 0.17762804 0.2616129 -0.1462318 -0.18798426 -0.024714515 0.12114375

1.bias f4 [8]
00000000: a35c 583d cfbc 503d 2dbf c7bd a7be 0c3e
00000010: 6c7e b6bd f66f 33be 5ee6 0e3e 3488 213e
0.05282272 0.050961312 -0.09753261 0.13744603 -0.08910832 -0.17523178 0.13955066 0.15774614

2.weight f4 [16, 8, 3, 3]
00000000: 30af 24bd ee00 58be 62ec 69bd 6ca1 803d
00000010: 2c14 813e e844 29bc 0640 b1bd 26ea 39bd
00000020: a760 94be 4ca1 203e d8a2 50bc bc2d c13d
00000030: b75d 23be 259a 963d 01ba 02be e6ba d23e
00000040: 81fd 42bd 156f a4be 097d 883c c829 e5bd
00000050: 80bc 3abe d668 91bd 6398 babd 5001 27be
00000060: f978 b23e f002 94bd de7e 55bd 3ef0 713d
00000070: dbbf 673c 0e44 0bbe 83e4 803d 9298 e2bd
00000080: a864 9b3d a645 94bd 0203 a5bd 446e 873e
00000090: f30f 043e 831f cb3a 8b1d 07be 7350 28be
000000a0: d611 9d3c 4a61 413d 4c46 ad3d a870 b93c
000000b0: ba10 0d3c e8d2 07be 3823 d2bc c298 9bbd
000000c0: 2e55 733e c007 11be f36f 193e 6a75 62be
000000d0: b010 063e d9eb bc3e a8ea 69bc 2713 41be
000000e0: a9f7 fabd e67b 4b3b cbb1 40be c548 10be
000000f0: f669 e83d 25a1 e1bc ecb2 9fbc a75b 0fbe
00000100: 8f61 6abd 9fca 1f3e 90de a43d 5aff 55be
00000110: 55cf c93d ce41 ee3c 2ed6 86be 52b2 71be
00000120: b4c1 433e c324 813d 84b6 293e 6206 25bd
00000130: f082 cdbc c0e5 98bd 224e 493e c5e7 b5bd
00000140: b062 27bd 85ad 473e f04e 1c3e f6e2 88be
00000150: 1ec0 03bf e8a8 943d 1a6c c03d ffeb 10bc
00000160: c957 f73d 05c3 d4bd 3a31 09bd 8e17 54bc
00000170: a0bd 49be 18b4 0fbe f20f 0c3e 78e9 4b3e
00000180: 634a be3e 7cd0 2dbe fd03 08be ba5f 943d
00000190: 1c81 c83d a00c 7c3d 11e7 3e3d 30c3 163e
000001a0: af75 913d 31da f03d 42e0 d2bd 3bca 58be
000001b0: ede2 afbc fd32 69bd 6518 5fbd 5a81 30bd
000001c0: 58ee b4bd f2d4 7dbd 1e6f 473e 1bd0 483d
000001d0: f840 dbbd 80f5 54bd ba3a 803d 45d0 a33d
000001e0: 53d0 6e3e dcef c63b 9f97 d0bd 464f d8bd
000001f0: 48f0 e8bd 07f9 4b3d 42d5 fabd 881c b7bd
00000200: 3da4 26be 9262 96bc 6293 d6bd a687 6dbd
00000210: 58fc 283e 7169 a2bd ada8 2dbe a9cf 5b3e
00000220: 9765 0ebe 23bb e1bd 7e05 823d aee5 11bd
00000230: 2e5d 0abe 0e76 4d3e 7633 93bd 42c2 87bc
00000240: aff9 0d3e ab42 73bc 7c4d 9e3d aef6 38be
00000250: 36ba b0bc 92bf d0bb 7c18 1f3e d306 8f3d
00000260: 07da b7bd 1a90 bdbc cc8c 873d 0b78 043d
00000270: 53c1 debd 7c2b 8a3d 6be6 3ebe 315b 313d
00000280: d432 da3d 774a 113e 4d85 59bc b4d3 a2bb
00000290: 0c1f ba3d 3734 ae3d 29ef a7b9 7de6 313b
000002a0: 7d31 ebbd 2560 71bd bb17 763d e0e0 0b3c
000002b0: cde5 183e c089 dbbd fe9b adbd fdec 3cbd
000002c0: f234 0c3e 8fc8 043e b39e 903d 582b 1b3d
000002d0: 4c02 99be 82ef dabd f9fe c73d f8e1 a2bd
000002e0: ec11 0d3d c41a 313c 7c82 b83d 5b35 24bc
000002f0: c7b6 e33d f331 823d c4e5 0fbd 955b 0abe
00000300: 2936 afbd 455b 08be d224 2e3e c3b8 60be
00000310: e7a1 bd3d 9892 54be 26d1 68bd 0709 ccbd
00000320: 00e2 8cbb ae56 69be 24b1 553e 1dc4 9d3e
00000330: 40c0 f2bd 8636 ca3c 81c1 443e 723b 6c3e
00000340: 2435 94bd 1d36 503d 7543 45be 6acc d9bd
00000350: 1879 d1bd 9941 8d3d 87a0 9a3d 5073 c33c
00000360: b8e6 acbb 1869 0f3e d4f2 2d3d 10a9 86bd
00000370: a2d9 7b3e f7c8 4a3d 0d31 b3bd f086 ccbd
00000380: 6cc6 86be c2a7 a03d 7dae 97bd d8d0 a0be
00000390: bf4f 313d be15 2c3e fdb1 033e 9d1c 7b3e
000003a0: 492e 18be 46f9 b8bd 2cb0 843e 5270 efbc
000003b0: 5216 9cbe 88b6 97bd d4be 973d 2d7e 8c3e
000003c0: 13dc 463d cfaa 54be fff0 19be 15a9 9ebd
000003d0: fc40 afbd 155a 07be a9f2 54bc 448f e0bd
000003e0: dac3 733e d8b6 4abe d8db 62bd c917 47bc
000003f0: 62f1 053e fac4 eb3d 1170 07be 0176 18be
-0.040206134 -0.21094105 -0.057110198 0.06280789 0.25210702 -0.01033137 -0.086547896 -0.045389317
-0.2897999 0.1568653 -0.0127341375 0.09432551 -0.15953718 0.073536195 -0.12766267 0.41158217
-0.04760504 -0.32116 0.016661184 -0.1118961 -0.1823597 -0.07100074 -0.09111097 -0.16309094
0.3485792 -0.07227123 -0.052122943 0.059067003 0.014144863 -0.1360018 0.06293585 -0.11064257
0.07587558 -0.07239847 -0.08057214 0.26451313 0.12896709 0.0015497062 -0.13194863 -0.16436939
0.019173544 0.047211923 0.08460674 0.022636726 0.008609945 -0.13264048 -0.02565156 -0.075974956
0.23762962 -0.14163113 0.14984111 -0.22115102 0.13092303 0.36898687 -0.014277138 -0.18854962
-0.12254269 0.003104919 -0.18817823 -0.1409026 0.113483354 -0.02754266 -0.019494496 -0.13999806
-0.057221945 0.15604638 0.08050263 -0.2089819 0.098539986 0.029084112 -0.2633528 -0.2360318
0.1911686 0.0630584 0.1657353 -0.04028929 -0.02508685 -0.07465696 0.19658712 -0.08882097
-0.0408656 0.19499786 0.15264487 -0.26735657 -0.5146502 0.07258779 0.09395619 -0.008845328
0.120772906 -0.103887595 -0.03349421 -0.012945069 -0.19701242 -0.14033544 0.13677958 0.1991328
0.37166128 -0.16974062 -0.13282771 0.07244821 0.09790251 0.061535478 0.04660708 0.14722896
0.071025245 0.11760367 -0.1029668 -0.21170895 -0.021470511 -0.05693339 -0.054466624 -0.04309211
-0.08834523 -0.06197066 0.19475982 0.04902659 -0.10705751 -0.05199194 0.06261201 0.07998709
0.23321657 0.006071074 -0.101851694 -0.10561995 -0.11373955 0.049798038 -0.12247707 -0.08940989
-0.1627359 -0.018357549 -0.1047733 -0.057990693 0.16502512 -0.079302676 -0.16958876 0.21465935
-0.13905941 -0.110220216 0.06348704 -0.03561943 -0.13512108 0.20064566 -0.0718755 -0.016572122
0.13864778 -0.014847438 0.07729623 -0.18062851 -0.021573167 -0.006370493 0.15536684 0.069837235
-0.08977132 -0.023140002 0.06618652 0.032341044 -0.108767174 0.06746575 -0.18642585 0.043299858
0.10654226 0.14188562 -0.01327641 -0.0049690846 0.09087953 0.08506053 -0.0003203091 0.0027145438
-0.114840485 -0.05892958 0.060081225 0.008537501 0.14931412 -0.10719633 -0.08477019 -0.046124447
0.13692072 0.12967132 0.070615195 0.037883133 -0.29884565 -0.10690214 0.09765429 -0.07953256
0.03444092 0.010809604 0.09009263 -0.010022487 0.111188464 0.06357183 -0.03513123 -0.13511498
-0.08555252 -0.13316067 0.17006233 -0.21945481 0.09259396 -0.20759046 -0.056840084 -0.09962659
-0.0042994022 -0.22786972 0.20868355 0.30813685 -0.11853075 0.024684202 0.19214441 0.23069552
-0.07236698 0.050832856 -0.19264014 -0.10634692 -0.10228175 0.068972774 0.075501494 0.023858696
-0.0052765273 0.14004934 0.042467907 -0.06575215 0.24594739 0.04950806 -0.0874959 -0.09986675
-0.2632326 0.07844497 -0.07406328 -0.31409335 0.043288942 0.16805169 0.12860866 0.24522634
-0.14861406 -0.0903192 0.25915658 -0.029228363 -0.3048578 -0.07407862 0.074094445 0.27440014
0.048549723 -0.20768283 -0.15033339 -0.077470936 -0.08557317 -0.13217957 -0.012997308 -0.10964826
0.2380518 -0.19796312 -0.05538544 -0.012151667 0.13080361 0.1151218 -0.13226344 -0.14888765

2.bias f4 [16]
00000000: f90f 503c b7ad b63d fc47 ccbd fbc8 183d
00000010: bc1f dcbd 14a7 e43d 9f1e e73d 0aeb 35bd
00000020: 32ac 88bc e51a cf3d a36a bc3d 06b3 dc3d
00000030: 5e32 ff3d 3230 babc 268c e43d 82c1 3d3d
0.012699121 0.08919852 -0.099746674 0.037301045 -0.1074824 0.1116468 0.112851374 -0.044413604
-0.016683672 0.101125516 0.09200027 0.107763335 0.12460779 -0.02272806 0.11159544 0.04632712

4.weight f4 [64, 192]
00000000: ddd5 9dbd 1aa6 ec3c 7a6d ff3b bb70 4a3d
00000010: 9383 6cbd d69f 623d 92cf 8dbd 0c8c 49bc
00000020: be24 54be 0e17 e8bc 6336 833d b15c 01be
00000030: cb13 6e3d 4586 8a3d a137 dc3d dbe8 9a3d
00000040: 4086 663b 2587 4c3d 8277 efbd 56f0 ce3d
00000050: 8705 0dbd 9b56 5d3c f203 9a3d b200 c8bd
00000060: 9db1 643e 950c 873d 7027 56bd 2204 153e
00000070: 4c11 803c e629 46bd 9889 153d 454e 30bd
00000080: 5658 7a3e 4e19 0b3d ac4e a2bd 38b5 a13d
00000090: 0b5c 6dbd 3c06 02bc f0f1 12bd 4fe6 5dbd
000000a0: eb22 0ebc bfc3 4bbd 4a97 99bd ab4f b53b
000000b0: 4a78 b6be 0d62 b9bc 52b2 00bd 3049 f7bb
000000c0: b653 493d dde0 143b 6fea 54bc 37c8 28bc
000000d0: fb0e f03c 97d8 7f3e 4059 2dbd cfc1 7ebd
000000e0: 3d43 1ebe 0734 d6bc 2736 373c 4b23 fdbd
000000f0: ce70 ce3c 8d1e 733a b42e 043d 6081 a7bb
00000100: 96cd 39bd 0950 d83c de05 50bc a879 89bd
00000110: 77f7 973d f5b8 103d 9454 993c 86cd 7e3d
00000120: d222 c43d c23a 6fbc 86fa 53bd 6f20 193d
00000130: b783 8a3d 8e33 e93c 6c8d 6c3d 7435 8e3c
00000140: bae2 e63d ae7e dfbc 266c 6e3d f62d 96bd
00000150: 37a7 853d 9d2e c93e bebb cb3c eb7e 0e3d
00000160: e22b acbd 3e35 7bb9 2caa 483d a83e 013d
00000170: a89d c0bd 145b 3ebe 4005 473d 7e64 09bd
00000180: c4b6 2c3d 1abd 1ebd 9082 f3bc 1c9c 6bbb
00000190: 9ba3 933e 52c5 f73c 0a9b b73d 1ebd bebc
000001a0: 0106 a6bc 9ff8 37bd f4d5 21bd 340f 6ebc
000001b0: e68f 95be b391 373c ff6a e6bb aa20 88bd
000001c0: 15ff 1bbd ed6b b3bc 3c72 0f3d d624 c7bd
000001d0: f595 cabd 9e63 9abd 3cd6 573d 4e33 1c3d
000001e0: 4423 01be 325d 85bd a510 e6bc 0ab7 dfbc
000001f0: 070a 93be 40ce c0bc db3e 3c3d 3e21 383d
00000200: d7d0 d7bd 2e34 22bd 535b a83d c80b 413d
00000210: f6c2 59be 73d7 aebd fa1e babb e120 c0bd
00000220: 58fe 8ebd b4ed 26bb 2010 db3a 42c9 2a3b
00000230: ec01 98be b813 2d3c b033 fbbc 683d 25bd
00000240: 2e17 04bd 9c87 6dbd ac20 41bd 98f4 0f3e
00000250: 9903 513d e8c6 ef3b 844e 923d 2830 293d
00000260: 5296 2abe e868 00bc 894d 44bd 2ddf 453b
00000270: a380 353e ed26 0d3d b464 a1bd c380 ffbc
00000280: 2008 fb3c 6354 483b 19a0 41bd 9f78 50bd
00000290: 9035 453e b115 1bbd 5da9 0b3d 50d5 febd
000002a0: 224a 6fbe 404c 08be 6bf0 b0bd 334b bb3c
000002b0: 53f3 3bbd 3c2c a13c 83ea 883d 0c7f 9a3d
000002c0: 7399 1fbe 7087 fdbc 1ecd 1c3d c2cd 253d
000002d0: d5ee d5bd 32ce 52bd e2b8 0f3e fe64 b4be
000002e0: 080c 5fbe 765b 7bbd fabe ab3c ec11 943d
000002f0: 5b8f e1bd 3112 acbd 8c6c 30bd df7f 9a3d
00000300: 9870 eb3c 71f5 ffbc c423 a43d c4c3 97bd
00000310: 5800 a93c 72de adbc 4554 ecbc 4a3c 6b3d
00000320: 7c51 7ebd d406 0dbd 800f e6bc 0642 153d
00000330: 7892 71bd dd24 76bc 492f ae3b 809a 4e3c
00000340: cbe5 263c 9061 403d 81c1 353c 5075 4f3d
00000350: 8a01 4d3b 23cf f73c 3c3d bc3b b914 023d
00000360: 4903 413c bc63 4e3c 1ce2 3d3d be3f 35bd
00000370: ab0a 9abd 6047 71bd b4b0 edbc 74f1 15bd
00000380: aa84 26bd 7b14 8d3b 7514 d4bc 5318 85bd
00000390: 62a0 57bd d734 62bd b7e5 21bb fab5 95bc
000003a0: 8851 babc 9892 943c b8b5 033d 38b2 65bc
000003b0: 0ce9 73bd b691 993c 3ed0 893b c501 623d
000003c0: 04a8 59bc fec9 0b3d 68b7 2c3d c86a e43c
000003d0: fa7b 1cbd f3fa 3ebd b6f7 2e3d 6653 b73c
000003e0: 41c2 db3c b009 47bd bd58 263d 30d5 4fbb
000003f0: 9c12 163d 78a3 343d 84df 48bd 987f 483d
-0.07706807 0.028887797 0.007795033 0.049423914 -0.057742666 0.055328213 -0.069243565 -0.012301456
-0.20717141 -0.028331306 0.06406858 -0.12633015 0.058124345 0.06763891 0.10752798 0.07563945
0.0035175234 0.04993357 -0.11692716 0.10104434 -0.0344291 0.013509418 0.07520284 -0.097657576
0.22333379 0.06594197 -0.052283704 0.14552358 0.015633248 -0.0483798 0.036508173 -0.043043394
0.2444776 0.03395968 -0.07925162 0.07895893 -0.057949107 -0.007936057 -0.03587526 -0.054174718
-0.008675317 -0.049747225 -0.07499559 0.005533179 -0.35638648 -0.022629762 -0.03142006 -0.0075465664
0.0491521 0.0022717037 -0.012995346 -0.010301641 0.029304018 0.24984966 -0.042321444 -0.06219655
-0.15455337 -0.026147855 0.0111823445 -0.12360247 0.025200274 0.0009274267 0.032271102 -0.0051118582
-0.045362078 0.026405351 -0.012696711 -0.06712657 0.07420247 0.03533264 0.018717088 0.06220772
0.09576954 -0.014601411 -0.05175259 0.037384447 0.06763404 0.028466966 0.057752058 0.017359473
0.112737134 -0.027282085 0.058208607 -0.07332985 0.06526034 0.39293376 0.024869796 0.034789007
-0.084068075 -0.0002395706 0.048990414 0.031553894 -0.094050705 -0.18589431 0.04858899 -0.033543102
0.042166486 -0.03875456 -0.029725343 -0.0035951203 0.2883576 0.030245457 0.08965118 -0.023283537
-0.020266535 -0.044914838 -0.039510682 -0.014529992 -0.29211348 0.011204171 -0.007031798 -0.06646855
-0.038085062 -0.021902049 0.03502105 -0.09723823 -0.09891883 -0.07538532 0.052694544 0.038134865
-0.12611109 -0.06511916 -0.028084109 -0.02730896 -0.28718588 -0.023535848 0.04595838 0.044953577
-0.1053788 -0.039600544 0.08220544 0.047130376 -0.21265778 -0.085371874 -0.005679962 -0.09381271
-0.06982106 -0.0025471272 0.001671318 0.00260599 -0.29688966 0.010563783 -0.030664295 -0.040341765
-0.03224867 -0.057990655 -0.0471503 0.14058149 0.05102882 0.0073174126 0.07143882 0.04130569
-0.16658905 -0.007837512 -0.047925506 0.0030192838 0.17724852 0.03446095 -0.07880536 -0.031189328
0.030643523 0.0030567877 -0.04727182 -0.050896283 0.19258714 -0.037862483 0.034097064 -0.1244303
-0.23368123 -0.13310337 -0.08639606 0.022863006 -0.04588635 0.019674413 0.066853546 0.075437635
-0.1558588 -0.03094837 0.038281552 0.04047943 -0.10445944 -0.051466174 0.14035371 -0.352333
-0.21781933 -0.06136652 0.020965088 0.07229981 -0.11013671 -0.08401907 -0.04307227 0.07543921
0.028740212 -0.031244965 0.08014634 -0.07410386 0.020630047 -0.021224234 -0.028848777 0.057430543
-0.06208943 -0.03443034 -0.028083563 0.036439918 -0.058977574 -0.015023437 0.0053156954 0.012610078
0.010186623 0.046968043 0.011093498 0.050648987 0.0031281435 0.030250138 0.0057446044 0.031758044
0.011780568 0.012597021 0.046358213 -0.044250242 -0.07521566 -0.05890596 -0.029014923 -0.03660722
-0.040653862 0.00430542 -0.02588866 -0.0649878 -0.052643187 -0.055226173 -0.002470357 -0.01827525
-0.022743955 0.018136308 0.032155722 -0.014019541 -0.059548423 0.018746238 0.0042057326 0.05517747
-0.013284687 0.03412818 0.042167097 0.027882949 -0.03820417 -0.046626043 0.042716704 0.022378635
0.026826026 -0.048593223 0.04061197 -0.0031712763 0.03663884 0.04410121 -0.049041286 0.048949808

4.bias f4 [64]
00000000: 4ffb e93a 5e5b b73c 2216 55bb f463 bf3c
00000010: 035a 08bd 9ca8 393c e645 72bd 74cf 7e3d
00000020: 9c93 3e3c 64a4 12bd df32 67bd e0c0 e43b
00000030: 9b92 4c3d 6d32 dc3c ea39 8fbc 20a0 84bc
00000040: c299 0e3d 1cf0 433d d673 7fbd 84d5 6dbd
00000050: b939 8cbd 5167 093d 33b9 2fbd 609b 27bd
00000060: f605 c1bc 647a 573d 6bff ac3c 80be 50bb
00000070: 18d2 1fbd 9c52 243d 1e3d 7dbb d260 4f3d
00000080: 522c 23bd 87eb 653d 10cc 28bc 492d a13d
00000090: ffc1 253d c5e1 623d c719 5cbd 7e51 4b3d
000000a0: 567d 373d 67bc 9cbd 264b 393d a7a7 a0bd
000000b0: 34e9 ee3b 914e 1bbd d855 0ebc 2bc9 01bd
000000c0: 4a03 a7bc e16f 08bd 109c b53c e448 833d
000000d0: 288a 3739 20ff aa3d 6a94 1fbd 6e09 87bc
000000e0: acf0 ed3c ae12 3f3d a809 6b3c 972e 403d
000000f0: 1797 8fbc 0b06 d33c 0d5f 283d 9271 57bd
0.0017851385 0.022382434 -0.0032514413 0.023363091 -0.033288967 0.0113317035 -0.05914869 0.06220956
0.0116318725 -0.035801306 -0.056445 0.0069810003 0.0499445 0.026879514 -0.01748367 -0.016189635
0.034814604 0.047836408 -0.06236633 -0.058064952 -0.06846947 0.033545796 -0.04290123 -0.04091966
-0.023562413 0.052606955 0.021117887 -0.0031851828 -0.03901872 0.040117845 -0.0038641165 0.050629444
-0.03983719 0.05613282 -0.010302559 0.078699656 0.040468212 0.05539109 -0.05373552 0.049638264
0.044797264 -0.076531224 0.045237683 -0.07844477 0.0072909836 -0.037916724 -0.008687459 -0.03168599
-0.02038731 -0.03330982 0.022169143 0.06410387 0.00017503707 0.083494425 -0.038959898 -0.016483989
0.029045425 0.046648674 0.014345564 0.04691943 -0.0175281 0.025759717 0.041106272 -0.052598543

6.weight f4 [5, 64]
00000000: 031b 293e 3167 d33c 7593 363e 6ec4 753e
00000010: 2be1 1ebd 43ed b7bd 8cac 91bd bca3 71bd
00000020: d00e 593d 1ae0 1abe f27f e33d 5c5b cabd
00000030: 21ba 13bf b400 ebbd f942 4a3e 8c7c a03c
00000040: 8b42 6fbd f8b5 c1bc 05b1 823e dcf4 f13d
00000050: b57d a2bd ee90 7d3e 2f48 21be 54b5 34bf
00000060: e035 debc 4c38 693e 85dc 7d3e 3037 a1bc
00000070: 649b 6e3d 824b 553d 423f d13d 675a a5be
00000080: f08e 82bc 3d9a c7be 9adb 433d 4a30 b1bd
00000090: e271 85bd 4665 9dbe 54b0 c1bd 9426 0c3c
000000a0: b0e9 27bc 7b05 be3d e807 f53d 165b 2b3d
000000b0: f04c 16bd 3205 d2bd 685f fb3c 75e0 3cbc
000000c0: 4de0 c9bb a0c6 9abb 2a25 6b3d 8cfb c93e
000000d0: d705 343e 4e55 dabd aecf cd3d d99e 3ebe
000000e0: 8a82 c63d 2e3a 36bf 1b55 143c 7b88 743e
000000f0: 5ea7 c73d eb4b a83d d4d8 683e f2fe f23d
00000100: eeb8 30be 9a0b 56bd f44e 38be f81a c23d
00000110: 499c a53b be2d 643e 4c25 403d 751d f33d
00000120: 2a5e c53d c1a4 12bd 485e 53bd 268f f6bd
00000130: 3b1d 61bf 68b1 763d 5600 f03e 3ca1 40be
00000140: 5ce4 863b 8049 6f3b e86a e83d 8077 1a3c
00000150: eac4 b73d e810 8bbe e744 9b3b ab78 10be
00000160: 1a05 84bd 506d 30bf 4076 453f 0858 95bc
00000170: f601 9dbd 8022 7abd 6001 803d 1fbb ed3c
00000180: a6b4 d3bd cb0f 0c3b a8cd 5d3e 5284 543e
00000190: 5aaf 1d3d e246 2ebe 4dcb bc3d 3cda f03d
000001a0: 846d e7bd 4cbd 4cbc ff3d 733d 65ba dd3d
000001b0: e759 d53c 90f0 63bd 34ec e33d 72c1 983e
000001c0: 8bf8 c53d 5cf3 00bd a7e7 8fb9 8b7b 373f
000001d0: 4ef2 47be 4c17 cbbe a439 8c3d a449 9abf
000001e0: f015 c13c 042d 43bf 0867 433e 3a42 07bf
000001f0: 6916 223d da9b 7b3d 4e80 95be f5e8 e33d
00000200: 9730 06bf 9476 93bc 59bc 0c3e 53ef c5be
00000210: 4b52 273e 6ec8 03bf 9878 94bc 5443 fa3d
00000220: 6c26 243d 853a 39be 1abb e1bd 01be 73ba
00000230: dd14 ac3e c857 e4bd 2a2b 013f d6dc abbe
00000240: d82b 333d 7232 963d f5a1 c4bc 0624 d9bd
00000250: a8f2 b1bd 9c79 8bbd 1c53 ce3d 40d5 a1bf
00000260: d054 d2bd dabb ca3e cd0e 993e 6236 b93d
00000270: f1ac 5ebe 603c e63c 9377 b13d db29 50be
00000280: d4ab 17bd 35c3 27be 8d4c f83e 92be 9c3d
00000290: 8b5b a33c be24 6abe 32b8 efbd 8ac1 263e
000002a0: d818 d83c be96 ea3d c434 0d3e be7a 21bc
000002b0: 9205 123d a1c1 6bbc 38a7 d33d 1f55 a3bd
000002c0: 3ed7 593e 461b 9bbd 563d 9f3d b7e0 103e
000002d0: a4d0 99bd 91d3 103e 446d 1e3d d2fc a83e
000002e0: 01bf 4aba dac2 03bf 4ba0 933d 1c20 633e
000002f0: 0b3e e13d 3817 db3c c307 0b3e 53da 8f3d
00000300: 6e38 1b3d c64e b0bd 39c8 6f3c 3566 d33e
00000310: ca02 3fbe b614 a7be 00be 9f3a 6849 95bd
00000320: be76 b0bd 6d3d 34bd 18a4 c63c 542f ad3d
00000330: 8f50 83bd 0461 e7bd 26dc 183f 726d ebbd
00000340: 75a7 963d d999 513d 8e3f 393e a058 493c
00000350: 2b4a bbbd 08e5 4fbe f15b 863e 2f80 38bf
00000360: 58c9 813d 2e2d d43d f020 3e3f 7136 63bc
00000370: 9517 ce3b 6117 d6bb 5e17 c1bd c95d 97be
00000380: 308b df3c 95f2 bdbd c3f4 17bf e2c1 2fbd
00000390: b1ae 5ebe 9001 8d3c 9fa3 a7bd 1cb1 2bbe
000003a0: a030 fb3c 81d2 cdbc 47ba 0a3e 3ad5 cbbd
000003b0: 71d3 57bd b1a6 213c 00a6 133c 2418 70bc
000003c0: 0513 fdbd 8894 c6bd 442b d43d 07d3 f1be
000003d0: bb9b 00bd 3583 103e ba89 f73d 3faa a0bd
000003e0: 306b aa3c 5046 1d3f 588f b13e 755a 7e3e
000003f0: 60a4 7e3d 4895 a73d cebe 0cbd c0ec 713d
0.1651421 0.025806041 0.17829688 0.24000713 -0.038788956 -0.08980801 -0.07112989 -0.05899404
0.052992642 -0.1512455 0.11108388 -0.09880707 -0.57705885 -0.114747435 0.1975211 0.019590639
-0.05841307 -0.02364634 0.2552568 0.11814281 -0.07934133 0.24762318 -0.15750192 -0.70589185
-0.027125299 0.22775382 0.24791153 -0.019679636 0.05825366 0.052073963 0.102171436 -0.32295534
-0.015937299 -0.38984862 0.04781685 -0.086517885 -0.06515862 -0.30741328 -0.0945746 0.00855412
-0.010248587 0.09278389 0.119643986 0.041834913 -0.036694467 -0.10254897 0.030685142 -0.011528124
-0.006160772 -0.004723385 0.05740849 0.39449728 0.17580353 -0.10660802 0.100493774 -0.18615283
0.09692867 -0.71182525 0.009053494 0.23880188 0.0974872 0.08217605 0.22738963 0.11865033
-0.17258045 -0.052257158 -0.17998868 0.094778 0.005054031 0.22283074 0.04691057 0.11870853
0.09637101 -0.035801653 -0.051603585 -0.12039022 -0.8793523 0.06022778 0.46875256 -0.18811506
0.004116578 0.0036512315 0.11348516 0.009427905 0.08973105 -0.27161336 0.0047384384 -0.14108531
-0.064462855 -0.689168 0.7713356 -0.018230453 -0.0766639 -0.061068058 0.06250262 0.02901989
-0.1033719 0.0021371718 0.21660483 0.20753601 0.038497306 -0.17019227 0.09218464 0.11760375
-0.11300185 -0.012496304 0.059385296 0.108265676 0.026043845 -0.05564934 0.111290365 0.29835087
0.096665464 -0.031482086 -0.0002744768 0.71672887 -0.19526026 -0.39666212 0.068469316 -1.2053723
0.02357003 -0.76240563 0.19082272 -0.5283543 0.039572153 0.06142793 -0.2919945 0.111284174
-0.5241789 -0.018000878 0.13743724 -0.38659152 0.16339986 -0.51477706 -0.01812391 0.12219873
0.040075704 -0.1808873 -0.11022015 -0.0009298027 0.33609667 -0.111495554 0.5045649 -0.33566922
0.043742985 0.073338404 -0.024003008 -0.10602574 -0.08688861 -0.068103045 0.100744456 -1.2643204
-0.10270083 0.39596444 0.29894105 0.09043576 -0.2174566 0.02810496 0.08665385 -0.20328467
-0.037029102 -0.1638306 0.48495904 0.07653536 0.019941112 -0.22865579 -0.11705054 0.16284767
0.026379034 0.11454533 0.1378966 -0.009855924 0.035649844 -0.014389426 0.10334629 -0.0797522
0.21273515 -0.07573561 0.07775371 0.14148222 -0.07510498 0.14143206 0.038678423 0.33005387
-0.000773415 -0.51469195 0.07208308 0.22180218 0.10998162 0.02674447 0.1357718 0.07024064
0.037895612 -0.08608775 0.014635139 0.41288915 -0.18653408 -0.3263299 0.0012187362 -0.07289392
-0.08616398 -0.044003893 0.024248168 0.08456293 -0.0641185 -0.11297801 0.5971092 -0.114954844
0.07356159 0.05117211 0.1809065 0.012289196 -0.09145006 -0.20302212 0.2624202 -0.7207059
0.063372314 0.1036018 0.7426901 -0.01386796 0.0062894323 -0.0065335487 -0.09428285 -0.2956374
0.02728805 -0.092747845 -0.5935785 -0.04290951 -0.21746327 0.01721266 -0.08185505 -0.1676678
0.030662835 -0.02512479 0.13547622 -0.09952779 -0.05269188 0.0098664025 0.009011745 -0.014654193
-0.12357143 -0.09696299 0.10359815 -0.47231314 -0.031398516 0.14112552 0.12086816 -0.07844972
0.020803064 0.61435413 0.34679675 0.24839194 0.06216848 0.0818277 -0.034361653 0.059063673

6.bias f4 [5]
00000000: 0a71 d63d 65e2 893c ca26 69bd 12d9 88bd
00000010: 20f0 183e
0.10470779 0.016831586 -0.056921758 -0.06682028 0.1493535
