models/Pilot_v1.5_test.pt (torch, 105128 bytes, 10 tensors)

model.0.weight f4 [8, 2, 3, 3]
000000 e3 9d f1 3c 37 75 d7 3b df 33 78 3e 4f 4f 8a 3e
       0.029494232 0.0065752524 0.24238537 0.27013633
000010 15 d6 f9 bd 24 23 cf 3c 57 e5 1d 3e 39 5e 11 3d
       -0.12199036 0.025285311 0.15419517 0.03549025
000020 cc 47 1c be fb 5c ed 3e 8e d6 58 bf ea 5b 6a 3e
       -0.15261763 0.4636 -0.84702384 0.22886625
000030 ce 1d d9 3e 1f 58 4b bf 68 46 56 3d 33 ce cf 3e
       0.42405552 -0.7943134 0.05231324 0.40587005
000040 30 bc 0e 3e 20 4a 69 3e 2a a6 34 be b8 87 71 3e
       0.13938975 0.22782183 -0.17641512 0.23586929
000050 d9 85 be bd 09 ef 4d 3e 9f c3 f5 3d 40 5e 2c 3e
       -0.09302873 0.20110716 0.120002024 0.16832829
000060 06 04 0b 3e 53 db 6f 3d 58 f9 77 3e 00 18 54 3e
       0.13575754 0.058558773 0.24216211 0.2071228
000070 46 cf 53 bf f4 9a e3 3b 44 e2 08 3f 79 fd 2f 3f
       -0.8273815 0.006945962 0.53470254 0.68746144
000080 bb 2e 4f bf 94 ec 2b 3e 2e 29 78 3e 82 5d e1 3d
       -0.8093068 0.16789466 0.24234459 0.11004163
000090 53 2e f4 ba 72 69 21 bd 28 48 66 3d 14 c5 a2 3d
       -0.0018629528 -0.0394072 0.056221157 0.07947746
0000a0 1a 7a 30 be 80 58 f2 bd 14 6c 38 bd be e6 4e 3e
       -0.17234078 -0.11833286 -0.045024946 0.20205209
0000b0 32 8e 10 be 71 52 f4 3d 33 e2 f2 be 1e d5 df 3e
       -0.14116743 0.11929787 -0.474382 0.43717283
0000c0 42 7d 3c be d7 a8 0c 3f da 33 90 bd 9c 27 0b bf
       -0.18407157 0.5494513 -0.0704114 -0.54357314
0000d0 1b 11 a8 3e d2 69 9f 3b 48 41 c6 bd a9 bd 3a 3e
       0.3282555 0.0048649097 -0.0968042 0.18236412
0000e0 33 83 90 3e 66 87 18 3d e8 14 73 3e 44 57 a8 3d
       0.28225097 0.0372385 0.23738444 0.082197696
0000f0 16 41 bf bc 2e 9c d4 3d 8c 95 13 bd 65 e6 27 3f
       -0.023346465 0.103813514 -0.03603129 0.6558593
000100 e4 f5 55 3f e1 4e f8 be 54 a3 03 bf e8 e0 e1 3e
       0.83578324 -0.4849768 -0.51421094 0.44116902
000110 8a 7d 38 3e 8a 47 41 3e 50 2c 28 3e 1b b9 ca 3e
       0.1801664 0.18874946 0.16423154 0.3959435
000120 69 93 23 3d 97 ca 69 3d 33 5f e1 3d 12 8a d0 bc
       0.039935503 0.05707797 0.11004486 -0.025456462
000130 31 3b 2c 3e fa cc 7f 3e 78 33 57 be 84 9a f1 3d
       0.16819455 0.24980536 -0.21015728 0.1179705
000140 4c d3 d2 3d 8c dd 8c 3e 5f 3a 7a 3d 92 49 9d bf
       0.10294208 0.27512777 0.061090823 -1.2288077
000150 36 8d 64 bd 30 2f 12 3f c5 83 e7 bc ee 7f 85 3e
       -0.05579873 0.5710325 -0.028261075 0.26074165
000160 86 1f 85 be dc 9f c9 3d 80 c0 60 bd 5c a3 13 bc
       -0.26000613 0.09844944 -0.054871082 -0.009011116
000170 cf 71 af 3e b7 70 12 3e 9e 04 9b bd 8a f5 7b 3e
       0.34266517 0.1430081 -0.0756924 0.24605384
000180 8a 19 b1 3d 3c 39 b6 3c 25 51 c6 3b c2 df 1a 3f
       0.08647449 0.022244088 0.0060521537 0.6049768
000190 e5 39 51 3f d9 5d c3 3c 88 e1 d0 be 40 65 0a 3f
       0.81728965 0.023848461 -0.40797067 0.54060745
0001a0 3a 7a 52 bf c1 a9 f0 3e 2e 85 4c be 58 75 2e 3e
       -0.8221775 0.47004512 -0.19972679 0.1703695
0001b0 cd 91 38 bd 50 5c 25 3c ae 72 41 3e 18 0d 85 3e
       -0.04506092 0.01009281 0.18891403 0.25986552
0001c0 ee 4e 33 bd f7 b1 74 3e ca 12 66 3e 3a 78 40 3e
       -0.043776445 0.23896013 0.22468105 0.18795863
0001d0 61 27 10 3d c0 37 4b bf 5c e3 3f 3e 33 ad 32 bb
       0.035193805 -0.7938194 0.18739074 -0.002726388
0001e0 12 bb 88 3d d8 41 91 3e c6 ec a8 bb d3 8a e2 bd
       0.06676306 0.28370547 -0.0051551787 -0.11061635
0001f0 45 e7 9b bd c1 7a a3 3e e8 d6 19 3e 50 33 dd 3d
       -0.076124705 0.3192959 0.15023386 0.10800803
000200 13 34 61 3d 9d 95 5f 3d bf d2 6e 3e 1f b3 13 3e
       0.054981302 0.05458604 0.23322581 0.14423798
000210 24 69 95 bd 00 52 47 3d 70 2b d1 bd 4f b1 51 bf
       -0.072954446 0.048662186 -0.10213363 -0.81911176
000220 2a 43 2c 3f 6b f9 6d 3e 99 a1 9c 3e 3b d3 3a be
       0.67289984 0.23239677 0.3059204 -0.1824464
000230 4c dc 64 bf fb e8 01 bf ae d6 f8 be 93 61 37 3e
       -0.89398646 -0.50746125 -0.48601288 0.17908315

model.0.bias f4 [8]
000000 6f 2c af bd 74 67 91 3c 4a b4 ba 3d cf 92 c2 3d
       -0.08553397 0.017749526 0.09116419 0.09500658
000010 af 0e 24 be 0b 59 22 3e 9b a2 c0 3d e3 86 d5 bd
       -0.16021226 0.1585428 0.094060145 -0.10426118

model.2.weight f4 [16, 8, 3, 3]
000000 f0 7c 60 bc 0a 1f 44 bd 62 24 93 3c 03 8c b1 bd
       -0.013701662 -0.047881164 0.017961685 -0.08669283
000010 72 36 be bc d3 ce 17 3e 92 1c d2 bc 65 20 ce bd
       -0.02321932 0.14824991 -0.025648389 -0.100647725
000020 4e a9 95 bd a1 b3 12 3d 0d af 56 3d 54 dd e0 3d
       -0.07307683 0.03581584 0.052413035 0.10979715
000030 6a 90 69 3d 0a 25 91 bd f2 e5 75 3d a1 ce 81 bb
       0.05702249 -0.07087143 0.060033746 -0.0039613997
000040 bb 94 eb bc 4a ed 19 3e 58 af 81 bd e2 3c e5 3d
       -0.028757444 0.15031925 -0.06332272 0.11193253
000050 d7 93 09 3e 23 7e e6 bd 5a 3a 53 be ea e4 b5 3d
       0.13435303 -0.112545274 -0.20627728 0.088815525
000060 cf 62 ad 3d 32 2b ba 3d 2c 00 75 3e e2 da bf bd
       0.08466112 0.0909027 0.23925847 -0.093679205
000070 3d 66 28 3b 89 39 b1 3d be a1 74 bd 26 04 8f 3d
       0.0025695704 0.08653552 -0.059724562 0.06983213
000080 ba 97 c8 bc 3e 50 74 bd 96 3e 0a 3e c5 87 51 bc
       -0.024486411 -0.059646837 0.13500437 -0.012788718
000090 84 b3 31 bc 62 33 3b 3d e6 54 08 bb e0 46 f8 3d
       -0.0108460225 0.0457033 -0.0020802557 0.12122893
0000a0 cd ae 14 bc d1 62 29 3e 3b e6 1a be ae 73 40 3e
       -0.009074879 0.16541602 -0.15126888 0.18794128
0000b0 56 f6 e0 bd ba 07 d3 bd 38 9e c1 bd e4 b2 5e 3e
       -0.10984485 -0.10304208 -0.09454006 0.21747929
0000c0 83 28 3d bd 3d da 53 3d 82 88 af 3d 3b b6 72 3d
       -0.046181213 0.0517218 0.08570959 0.05925582
0000d0 a4 82 ef bc e4 be fa 3d 55 92 ec 3d da 19 cb 3d
       -0.029237099 0.12243441 0.11551348 0.0991704
0000e0 87 55 6d bd a9 f7 df 3d 99 af f3 bc d0 16 cd bc
       -0.057942893 0.10935909 -0.029746817 -0.025035292
0000f0 c0 8e c9 bc 0c 04 76 3d 52 b0 f2 bd 70 15 d3 3e
       -0.024604201 0.060062453 -0.11850037 0.41227293
000100 45 22 73 bc 5c 0b 7b 3d 43 03 93 3c 2a af 28 bd
       -0.014839713 0.06129013 0.017945891 -0.041182674
000110 bd e1 a6 bd 36 20 15 be f2 c3 15 bd a9 95 87 3d
       -0.08148525 -0.14563069 -0.03656382 0.06620342
000120 8d 1f 15 3c 07 8f 96 bd 24 0c c5 3d 83 14 30 3e
       0.009101761 -0.07351499 0.09621456 0.17195325
000130 cb 31 31 bd d0 ef 39 3e 2f a9 0d 3e 89 33 28 bd
       -0.043260377 0.18157887 0.1383407 -0.041064773
000140 1a 20 ea bd 0d 1b 1b 3d 5f 4f 85 bd 48 2e 93 3d
       -0.11431904 0.037867595 -0.065092795 0.07186562
000150 4c 29 30 bd ad 09 46 bd a8 cd 61 3d 68 8b 85 3b
       -0.043008134 -0.04834907 0.05512777 0.0040754564
000160 bf 8c 13 3e 6a cf 9a 3d 09 a2 44 3e 31 ea ac 3d
       0.14409159 0.07559092 0.19202437 0.08443106
000170 45 c6 99 bd 70 26 83 3e 8e a9 15 bd fe 05 3c 3e
       -0.0750852 0.25615263 -0.036538653 0.18361661
000180 aa 55 95 3e b1 7e 8e 3e 1a d0 a9 bd 36 f5 29 3d
       0.2916692 0.27831033 -0.08291645 0.041493617
000190 72 ec 18 3d 3a 66 18 3e 9c b4 91 bd f3 b9 6e 3d
       0.037334867 0.14882746 -0.07114527 0.058282804
0001a0 46 23 44 3b f2 b8 96 3d 24 bb 63 bd 32 79 48 bd
       0.0029928251 0.07359494 -0.055598393 -0.048943706
0001b0 38 1f 49 be 8c 94 af bc b7 71 98 be 40 9e 9b 3c
       -0.19640815 -0.021433137 -0.29774258 0.018996358
0001c0 b3 f7 a7 3d 61 ec 24 bd 02 6a e5 3d e0 6c 14 be
       0.08201542 -0.04026449 0.1120186 -0.14494658
0001d0 a2 59 73 3d 76 07 91 3d 62 d4 76 3e 44 a9 37 3d
       0.059411652 0.07081501 0.24104455 0.04483916
0001e0 8c 09 b5 3d 9a bf bd 3d b1 df 80 bd f9 3e eb bb
       0.088397115 0.09265061 -0.06292666 -0.007179138
0001f0 78 6d d3 3d fc 1f 29 3c 8b fb d2 bd c7 4a b0 3d
       0.10323614 0.010322567 -0.10301884 0.08608013
000200 4e 6f c6 bc 1c 2c 94 bc e2 6e 07 3e 90 4f b3 3d
       -0.024222996 -0.01808744 0.13225892 0.0875541
000210 95 34 98 bd e5 10 ff 3c 5a 68 2a 3d b2 62 1d 3e
       -0.07431904 0.031135986 0.041603424 0.1536968
000220 29 a4 6a bc db dd 93 bd 24 55 29 3e 01 f5 c3 3d
       -0.014321365 -0.0722005 0.16536385 0.09568215
000230 88 4b 3f be 6d 28 f2 bd a3 10 2a be 94 80 85 3d
       -0.18681157 -0.11824117 -0.16607909 0.06518665
000240 ad 47 bd bd 30 d8 99 3c ce a5 a2 3d f7 41 96 3c
       -0.09242187 0.018779844 0.07941781 0.018342001
000250 da 86 62 3d 5f eb 1b bd 2f b2 8c 3c f8 b6 d1 bc
       0.055304386 -0.038066264 0.017174808 -0.025599942
000260 d5 18 58 3e b1 05 0c 3e 5d 7a b9 3c 32 1f f0 bd
       0.21103223 0.13674046 0.022641355 -0.117247
000270 81 8d 94 bd 1e 12 a0 bd 09 89 dd bc 1b e8 9d 3a
       -0.07253552 -0.078159556 -0.027042883 0.0012047322
000280 a2 c1 da 3d f5 2b ab bd 06 ae 33 3e a9 0e 16 3b
       0.10681464 -0.083579935 0.17546853 0.0022896922
000290 b6 30 20 3d 35 f9 15 3d cb 69 8a bc a2 fe ef 3b
       0.039108954 0.036614615 -0.01689615 0.007324056
0002a0 f3 3c 06 3f 7d 75 8c 3e 28 22 e5 3d 22 4a 0e 3d
       0.5243675 0.27433386 0.111881554 0.034738667
0002b0 8e 4b 17 3e 05 c2 df 3c 6c e2 70 3d ba 96 a5 3d
       0.14774916 0.027314195 0.058809683 0.080853894
0002c0 85 17 00 3e b3 85 f8 3d 4a dd 62 bd 98 77 f2 bc
       0.12508972 0.12134876 -0.05538682 -0.029598042
0002d0 a0 81 10 3c 76 8e 4d 3d 64 f1 0d 3e ab 94 51 3d
       0.0088199675 0.05018469 0.13861614 0.05116717
0002e0 68 f3 09 be 9a 07 f4 bc 3f b5 09 3e ee 2c da 3c
       -0.13471758 -0.029788781 0.13448046 0.026632752
0002f0 e4 eb 91 3e fd 54 7d bc 84 75 38 bd 15 5c 90 3c
       0.28500283 -0.015462157 -0.045033947 0.017622033
000300 f0 6a ae 3c 67 fc 3f 3d 82 63 a9 ba c2 cc 30 bd
       0.021291226 0.04687157 -0.0012923332 -0.043164022
000310 25 52 e3 3d d4 5b ca 3d 41 33 ad bc 02 d6 33 bd
       0.11099652 0.09880796 -0.021142604 -0.043905266
000320 3f e0 cf bd ff 8b 4b 3d 82 83 c6 3c 50 67 99 bb
       -0.101501934 0.049694058 0.02423263 -0.0046815053
000330 bc cc 82 3d 72 38 4c bd 46 c7 ca 3c 88 72 18 bb
       0.06386706 -0.049858518 0.024753224 -0.0023261625
000340 ee 17 9c be aa ea 70 be 62 eb 03 bd 50 1f 1c be
       -0.30487007 -0.23527017 -0.0322069 -0.1524632
000350 9e eb 21 bd f5 65 46 3e 95 29 d1 3d 2c 15 74 bd
       -0.039531343 0.19374831 0.10213009 -0.059590504
000360 90 1d 00 bd a0 4e 14 3c 77 66 1a be b4 66 fe bc
       -0.031278193 0.009051949 -0.1507815 -0.031054832
000370 e5 04 68 3d 10 35 a0 3d 58 54 bd 3c 3a b0 b4 3d
       0.056645293 0.07822621 0.023111507 0.08822675
000380 aa 5c 75 3d 10 01 a7 3d 5e de 14 be 00 2a 48 3d
       0.059902824 0.081544995 -0.14537951 0.04886818
000390 57 4c 12 3d 41 a5 fc 3c 82 e2 1e bd 17 8b 8c bd
       0.035717335 0.030840518 -0.038790233 -0.06862467
0003a0 91 90 9b 3d 3e 8b b7 3c 6d 11 96 3e c7 e2 29 be
       0.07595933 0.022405263 0.2931017 -0.16590415
0003b0 10 9c ec bd be 99 b1 bd 46 74 0e bd 9a 8e aa 3d
       -0.11553204 -0.08671902 -0.034778856 0.0832798
0003c0 ee ff 60 bd 90 40 fb 3d 86 8d 97 3d 40 ef 3f 3c
       -0.054931574 0.12268174 0.0740004 0.0117147565
0003d0 21 07 09 3e e7 29 be 3d 7e ca b3 3d e5 d8 1d 3c
       0.13381626 0.09285336 0.08778857 0.009634231
0003e0 9e 0a ab 3c 12 c7 9c bd b7 9f 8f bd 21 da 9e 3d
       0.020879086 -0.07655157 -0.07012885 0.077564485
0003f0 14 da 16 3d 73 ad ea bd ee 89 e2 bd b6 3a e7 bd
       0.03682907 -0.11458864 -0.11061464 -0.11290495

model.2.bias f4 [16]
000000 00 d4 9a 3d c0 4b 2e bc c4 49 6e bc e0 da 11 bd
       0.07559967 -0.010638177 -0.014543954 -0.035609126
000010 4f 3a da 3d 46 c4 e0 3d 09 20 3f bd 6a 8c dc bd
       0.10655653 0.10974936 -0.04666141 -0.10768969
000020 64 a4 18 3c 72 2c da 3c 4e 52 54 3d fb 1b 97 bc
       0.0093165375 0.026632521 0.051836304 -0.01844596
000030 0e 26 4e bd 53 40 3c bd 79 94 07 3d 40 80 3d 3d
       -0.05032926 -0.04595978 0.03310058 0.046264887

model.4.weight f4 [32, 16, 3, 3]
000000 d2 84 84 bc 34 9d 86 3d 32 ab c8 3d a5 f5 8c 3d
       -0.016176615 0.06572953 0.09798278 0.068827905
000010 cc 52 bb bc 8c 5c dc bc 2d 66 01 3e bb 8b 5d 3c
       -0.022866629 -0.026899599 0.12636633 0.013522084
000020 db 3d 6c bb e4 eb 17 3d 66 8f e3 3b 2d ae 73 bd
       -0.003604761 0.037090197 0.0069445847 -0.05949228
000030 0c 23 6b 3d 00 b3 db bd 48 43 bf bd 34 d3 78 3d
       0.05740647 -0.10727501 -0.09339005 0.060748294
000040 c7 88 d0 3c 51 a0 92 bc 4b 4f 94 bd 1e 0d a3 3d
       0.025455846 -0.01789871 -0.072416864 0.07961486
000050 dd 4d a3 bd a9 84 c3 bc 2e 01 3c 3c 5c 85 89 3d
       -0.079738356 -0.023866968 0.011474891 0.067148894
000060 d3 70 00 bd cc d4 16 3d 24 48 e0 bd 91 11 ac 3d
       -0.031357598 0.036824033 -0.1095126 0.08401788
000070 48 c4 fb 3c 32 1e 35 bd 8b 32 54 3d f7 8d 94 bc
       0.030733243 -0.04421825 0.051806014 -0.0181341
000080 6b b9 26 bd 84 d2 67 bb ca d9 a1 3d e0 05 8a 3c
       -0.040704172 -0.003537328 0.07902868 0.016848505
000090 3b d6 97 3d 51 bd df bb f8 90 df 3c df e7 45 3d
       0.07413908 -0.006827988 0.027290806 0.048316833
0000a0 0c df b5 bd 1e 96 ab bd 99 ed fa bb 7d 83 18 3c
       -0.088804334 -0.08378242 -0.0076577184 0.009308693
0000b0 32 e5 16 bc 18 58 bf 3d 14 5e 50 bd c3 f6 ae bc
       -0.009209918 0.093429744 -0.05087097 -0.0213579
0000c0 3f eb 36 bd 73 79 d1 3d 28 98 a3 3d b4 9e a0 3d
       -0.044657942 0.10228243 0.07988006 0.0784277
0000d0 bd 0e bb 3b 99 b3 96 3d 7c f5 8d bd 0c 01 0c 3e
       0.005708544 0.07358474 -0.06931588 0.13672274
0000e0 2d f8 89 bb de ec b6 bd b2 68 20 be c5 70 07 be
       -0.004210493 -0.089318976 -0.15664938 -0.13226612
0000f0 ee 8e 1f 3c 24 b3 e8 bc b3 13 53 be 38 d8 44 be
       0.009738667 -0.028405733 -0.20612983 -0.19223106
000100 63 52 b9 bd d6 d6 e0 3e 52 31 8d be 2c 55 9d 3e
       -0.09048917 0.43913907 -0.2757669 0.30729043
000110 2c 6f 94 bd b2 de 64 bd ea 4d 17 3e ea a0 0e be
       -0.07247767 -0.05587644 0.14775816 -0.13928571
000120 14 ea 4f 3d 9e 47 7a be dd 36 4b bf 19 8c 8b be
       0.050760344 -0.24441382 -0.7938059 -0.27255324
000130 44 ec d9 bc 9d 7c a2 be 49 4f bf 3d 68 25 3d 3e
       -0.026601918 -0.31735697 0.09341294 0.184713
000140 1a 96 0d 3e 6b dd 1b bd d9 bc 27 be d9 26 1f 3d
       0.1382679 -0.038052958 -0.16380633 0.038855407
000150 ef 26 5e bc ec 4c 7e bc c8 a5 61 bd 4c 75 87 bd
       -0.013559087 -0.015521269 -0.055089742 -0.066141695
000160 d9 9e 86 3d ea 4c 90 3d 97 6c ab 3d 09 86 db 3d
       0.065732665 0.0704592 0.08370321 0.107189246
000170 5e 5a ab 3d 0c 1b 0b 3e 33 4f 9a 3d b9 df 90 3c
       0.083668455 0.13584536 0.07534637 0.017684804
000180 22 92 88 bc 24 66 a2 3d b8 02 4c 3d cb c7 0d bd
       -0.016671244 0.07929638 0.04980728 -0.034614366
000190 81 c3 a7 bc ce a2 f4 3d 5c 92 11 3e a6 27 8b bd
       -0.020478966 0.11945115 0.14215988 -0.06794672
0001a0 49 12 2f 3d 6c 6b 17 3d 42 02 f1 3d 1c 78 05 3c
       0.042742047 0.03696768 0.11768009 0.008146312
0001b0 4a e7 58 bd f8 44 09 3d 65 f4 38 be 1e c1 64 bc
       -0.05295495 0.03351304 -0.18061979 -0.013962058
0001c0 cc 4d a2 bd be 8d 8b bd 25 92 ac 3d fd 27 77 3d
       -0.07924995 -0.068141446 0.08426312 0.06034087
0001d0 5f 73 b6 bb 06 49 1b 3c 9e 88 17 3c 3c 23 c6 3d
       -0.0055679525 0.009477859 0.009248881 0.09674689
0001e0 4d 66 1a 3e 08 e2 0a 3e 66 98 d6 3b eb 74 c0 bd
       0.15078087 0.13562787 0.006548929 -0.093973
0001f0 5b 7e 91 3c b0 51 9b bd ba 9d 07 3d b8 24 08 bd
       0.017760446 -0.0758394 0.033109404 -0.033238143
000200 50 12 91 3d 19 f5 ec 3c 9d b3 84 bc 65 55 a2 3d
       0.07083571 0.028925465 -0.016198928 0.07926444
000210 8f 76 4b bd 22 bb 73 3c 29 23 de bb 31 77 8b bd
       -0.049673613 0.014876159 -0.0067790938 -0.06809843
000220 7e d1 a7 3d 5e 73 26 bd aa 2d f1 3d 53 7f 9f 3d
       0.08194254 -0.040637366 0.11776288 0.07787957
000230 41 8d de 3d 6a 55 75 3d e6 0f ea 3b 86 fa 1c 3c
       0.10866786 0.05989591 0.0071430085 0.009581214
000240 2e 85 58 bd 87 42 a3 bd 1a 3f 1a 3d e2 05 b3 bd
       -0.052861385 -0.079716735 0.037657835 -0.087413564
000250 0a c2 d6 3c 0d d2 7b bc a9 aa 85 bc f4 5d 82 bb
       0.026215572 -0.015369904 -0.016316729 -0.0039784852
000260 a9 8e d5 bc d0 e3 07 bd b8 e0 03 3c 46 70 ee bc
       -0.026069002 -0.033176243 0.008049183 -0.02910627
000270 4b 55 8e bd 0d c5 e0 bc 7b 60 43 bd 4e 02 8d 3d
       -0.06949862 -0.027437711 -0.047699433 0.06885205
000280 88 ea c2 bc 27 ac a3 bd 87 f7 3a 3d 4c 29 14 bb
       -0.023793474 -0.0799182 0.045646217 -0.0022607623
000290 54 6d bd 3a ba c6 95 3d 58 6f 0d bd 3c cc 8d bd
       0.0014452138 0.07313295 -0.034530014 -0.0692372
0002a0 32 55 01 3c 0b f0 28 bd 1d dd 16 bc 35 af 6b 3d
       0.007893847 -0.041244548 -0.009207991 0.057540137
0002b0 4b 42 32 bd 8a 7a ae bc 91 83 4b bd 68 ea 82 3d
       -0.043520253 -0.021298666 -0.04968602 0.06392366
0002c0 b0 b0 93 3b 7a 3a d6 bc 84 76 00 bd 14 f2 8d 3d
       0.004507147 -0.02615093 -0.031363025 0.06930938
0002d0 5e 09 d2 3b be b7 89 bd 0f ae 0c 3d 2f bc 78 3d
       0.006409808 -0.06724499 0.034345683 0.06072634
0002e0 e3 d4 aa bc 39 7b 87 bd 8e 3f 74 bb 60 f9 0f bd
       -0.020853465 -0.066153 -0.0037269327 -0.035149932
0002f0 aa a2 ad bd 56 ed 8f 3d 18 57 54 3d 03 a2 86 3d
       -0.08478291 0.0702769 0.05184087 0.0657387
000300 5e f7 5a bb 97 f9 84 bd 7c 0f 99 bc 9a 82 f5 b8
       -0.0033411602 -0.06492918 -0.018684141 -0.00011706837
000310 5c d6 82 3d c1 fe 81 3d 92 ce 16 3d 1e 13 71 3d
       0.06388542 0.063474186 0.036818095 0.058856122
000320 8f dc a6 bd 75 87 9f 3c f3 a5 4f bd 50 ef 8d 3c
       -0.08147537 0.01947377 -0.05069537 0.017326027
000330 c8 8a 99 3d 92 65 28 3d 8e c4 ab bc 93 ef 4b bd
       0.074971735 0.04111249 -0.020967748 -0.049789023
000340 06 be 75 bd 60 07 30 bd b3 e0 20 3d dd 93 99 3d
       -0.059995674 -0.042975783 0.03927679 0.07498906
000350 fc 41 a7 bd 03 4a 4a bd bc 0b 24 3d fc f4 8d bd
       -0.081668824 -0.04938699 0.040050253 -0.06931493
000360 d3 93 d2 3c 9f 57 19 3d 50 2d f1 bc 1a a0 18 3d
       0.025705254 0.037437078 -0.029440552 0.03726206
000370 2f 19 59 bd 3c b8 95 3d a9 0b 65 bd 1f b4 2c 3d
       -0.053002533 0.073105305 -0.055919323 0.042163964
000380 40 2b 5a bc 29 ad 57 bb d8 fe 81 3d 70 27 d8 bb
       -0.013315976 -0.0032909608 0.06347436 -0.006596498
000390 7c 5d 16 bd c2 49 d2 3b 3a d3 aa bc e8 2d 49 3d
       -0.036710247 0.006417484 -0.020852674 0.049116045
0003a0 cc 92 04 bc 75 45 91 3d 8a f1 aa bd 47 1f 84 3d
       -0.00809164 0.07093326 -0.08346851 0.06451278
0003b0 81 bb 95 bc 4e 57 9c 3b fa 1a a8 bd 4e 2e a5 bd
       -0.018277885 0.0047711497 -0.0820827 -0.080654725
0003c0 1c 80 78 bc cc 9f 97 3b 5a 83 10 bc 3c cb ac bd
       -0.015167262 0.0046272036 -0.008820379 -0.084372014
0003d0 d7 16 8c bd 9c f1 04 3c a9 44 07 bd 46 b7 fe 3c
       -0.06840294 0.008114245 -0.033024464 0.031093251
0003e0 0f 83 5a 3d 1d c3 99 3d 72 6d 6b 3d 16 02 96 3d
       0.053347643 0.07507918 0.057477422 0.073246166
0003f0 57 3a 82 bd 5f 65 78 bd 5a 3f 26 bd 3f 4a e3 ba
       -0.06358784 -0.06064355 -0.04058776 -0.0017340853

model.4.bias f4 [32]
000000 9d 8f 80 bb 25 e7 7a 3c a0 5b 45 bd 03 42 89 3c
       -0.00392337 0.015313898 -0.048183084 0.01675511
000010 dc b6 22 3d 69 02 80 bc d0 2d 52 3d d7 f7 22 bd
       0.03972517 -0.01562615 0.05131322 -0.03978714
000020 cf f6 e9 bc ac fa 89 3d 8a b1 a5 bc 6c df 4e 3d
       -0.02856007 0.06737265 -0.020226259 0.05050604
000030 c2 90 1c 3c d4 1e 60 3d 76 7c 27 bd 3d 26 c7 3c
       0.009555997 0.0547169 -0.04089018 0.024310226
000040 46 0e ce bc a8 df 39 bd d7 5b 92 3d c9 f1 93 bd
       -0.02515329 -0.04537931 0.07146423 -0.07223851
000050 f2 83 ec bc f8 0c 1c 3d c4 e8 8d 3d c6 0b 6d bd
       -0.02887151 0.038098305 0.06929162 -0.057872556
000060 b8 4e f7 bc 7f 18 85 bd 27 0a b0 3d 33 4f b9 3d
       -0.030188903 -0.06498813 0.085956864 0.09048309
000070 92 c4 72 bd e7 43 ec 3c ce 3d 6a bd b2 d3 81 bd
       -0.059269495 0.028840972 -0.057187848 -0.06339206

model.6.weight f4 [64, 32, 3, 3]
000000 58 dd 9e 3b c9 4d 67 bd fe f5 3e 3d 7c 36 14 bd
       0.0048481636 -0.056470666 0.046621315 -0.036184773
000010 9e 5e 25 3d 24 2c 2e 3d 92 7e cd bd 83 23 a7 3d
       0.040373437 0.042522565 -0.10033907 0.0816107
000020 4d c8 c1 bc a0 81 32 bd ec 8b 18 3c 2f 94 62 bd
       -0.023655081 -0.04358065 0.009310704 -0.0553171
000030 b2 bb 21 bd c5 1c 00 bd b8 9b b4 bb 4e 7f bb 3c
       -0.03948564 -0.031277437 -0.005511727 0.022887852
000040 c9 10 31 bc c0 dc 9e bc 61 ae 88 3d 11 da 93 bd
       -0.010807225 -0.019392371 0.06673885 -0.07219327
000050 52 af 4a ba b5 4d 64 bd 4f 68 94 3c c9 c9 4c bd
       -0.0007731813 -0.05573817 0.018116144 -0.049997125
000060 af 4d 96 bd 74 09 cb bd ac b6 dc bc 5e 52 0e 3d
       -0.07339036 -0.099139124 -0.026942573 0.03474652
000070 4a 0c 5f bd a7 42 48 bc 46 01 06 bd 6f 8b e1 bc
       -0.05445508 -0.012222922 -0.03271606 -0.027532307
000080 e8 0e cc bb 74 8f 62 bd e4 5a cd bc e2 b5 4c 3c
       -0.006227363 -0.05531259 -0.025067754 0.012494536
000090 07 91 3c 3d fa ba 39 bd 0a d4 37 3c d4 9f ba 3d
       0.046036746 -0.04534433 0.011219988 0.09112516
0000a0 3a c5 55 3c 33 9e 92 bd 6d 66 25 bd ab 0c e7 bd
       0.013047511 -0.0715908 -0.040380884 -0.11281713
0000b0 0a 97 9d 3c bb b9 c6 bc c1 c9 fd bd 8d de a9 3d
       0.01923706 -0.024258485 -0.12391997 0.08294401
0000c0 92 e6 87 3d 14 3b 9c 3d b1 56 b6 3d d6 ef b1 3d
       0.06635775 0.07628456 0.08903254 0.08688323
0000d0 13 b5 e2 bd 54 19 70 bc d0 84 c8 3b 20 10 e9 bd
       -0.110696934 -0.014654476 0.006119348 -0.11380029
0000e0 ed a6 08 bd 59 46 1f 3c ef 01 7f 3d 1b 3a a3 3d
       -0.033362318 0.009721362 0.062257703 0.07970067
0000f0 5e f5 13 bd a0 e4 a4 bd e8 51 75 bd fa 38 15 3d
       -0.036122672 -0.08051419 -0.059892565 0.03643129
000100 88 82 bd 3c 9a 38 b7 bd 4a bf a3 3c 19 56 5b 3c
       0.023133531 -0.08946343 0.019988675 0.0133872265
000110 4b 2b 2b 3d 06 87 9a bd 39 f7 a6 3c 1d d0 86 bd
       0.041789334 -0.07545285 0.020381557 -0.06582663
000120 e6 7c fe 3c 49 86 d8 bc 4b 20 a8 be cb 7b 3d bd
       0.031065416 -0.02643122 -0.32837138 -0.046260636
000130 70 df fb bb 80 e2 3c bd cd c7 bc bd 3f 87 0a be
       -0.007686548 -0.046114445 -0.092177965 -0.13528155
000140 d6 14 0c bd 8d 11 64 3d 9a 32 75 bd f9 44 1e bd
       -0.03419956 0.0556808 -0.05986271 -0.038639996
000150 bc fe 88 bd c2 8c b1 3d 12 76 6a bd 8d e7 c4 3d
       -0.06689212 0.086694255 -0.057241507 0.09614477
000160 24 0c 46 bc 2c fd 32 3e 26 a0 f4 bc 36 e6 93 3d
       -0.0120878555 0.1747939 -0.029861521 0.072216436
000170 d2 7f d7 3d 9e ca fe 3b 90 9d 36 3d 72 f9 ea bd
       0.10522427 0.0077756187 0.044583857 -0.11473359
000180 c5 cc 08 3d 7d 3a 03 3e ac 2e c2 3d 57 02 80 3d
       0.03339841 0.1281528 0.09481558 0.06250446
000190 e9 4b d7 bd d1 37 f6 bd b7 85 70 3d 7e 14 67 3b
       -0.105125256 -0.12022365 0.05872127 0.0035260017
0001a0 c8 ca 1a be f0 53 b4 bd f0 37 37 be e0 38 25 be
       -0.15116417 -0.08805072 -0.17892432 -0.16134977
0001b0 86 0c 30 bd 81 75 17 3d 94 df 1b 3c 52 ed a0 bc
       -0.042980693 0.036977295 0.009513754 -0.019644413
0001c0 1a 74 c7 3c 46 07 c8 bc 40 f0 d3 3a 5e 97 2e 3d
       0.024347354 -0.02441753 0.0016169623 0.042624824
0001d0 bb ed 62 3d 9a 62 79 3d 31 99 8c bd 1e 2b 7c be
       0.0554025 0.06088505 -0.068651564 -0.24625823
0001e0 07 38 1e 3d fb 7b 81 3c 2e 1a 04 3e 41 67 0c bd
       0.03862765 0.015806189 0.12900612 -0.034278158
0001f0 21 58 1b 3d 72 2e 82 3c 88 c4 dc 3b 2b b5 4a bd
       0.037925843 0.015891287 0.0067372955 -0.04948918
000200 9a 03 da bc e5 1e 4f 3d ed a3 2b 3d 54 e2 50 3d
       -0.026613045 0.050566573 0.04190438 0.050997093
000210 00 07 de b9 c0 72 51 bb 91 ae 4d bc 28 a6 8a 3c
       -0.00042348355 -0.0031959265 -0.012553827 0.016924933
000220 46 f9 9d bd f8 84 0b 3e bd f4 db bc 5d 5d 38 3d
       -0.07713561 0.13624942 -0.026850099 0.045010913
000230 ff a4 af bc 17 92 0f bc 11 77 fe 3b 3b a4 84 3c
       -0.021440981 -0.008762858 0.0077656587 0.016191592
000240 52 f5 66 3c 47 fb 90 3d d4 cf 85 3c 36 0e 6f 3d
       0.014096575 0.07079177 0.016334452 0.058363162
000250 c0 0f 59 bd b6 43 a1 3d 64 dc 3f 3b 6d 35 ea 3c
       -0.052993536 0.07874243 0.002927565 0.028589929
000260 a2 a5 c2 bc 4d 43 76 3d 74 66 17 bd b3 07 a9 bd
       -0.02376062 0.060122777 -0.03696294 -0.08253422
000270 42 b0 72 bd 72 7f d8 bd be f1 6f 3c 55 a5 80 bd
       -0.059250124 -0.10571183 0.014645038 -0.062815346
000280 e6 4d 57 bd 58 3c da bd 94 70 0b 3d c8 45 25 3d
       -0.052564524 -0.10656041 0.03404291 0.04034975
000290 a6 b3 78 3d fd aa 99 3d ae 22 30 bc d0 0b 3a bd
       0.0607182 0.075033166 -0.010750456 -0.04542142
0002a0 cf 57 79 3d 7c 1b e0 bd 71 c4 7a 3d bf 8c d7 3c
       0.060874756 -0.10942742 0.061222497 0.02631223
0002b0 17 46 9d 3d 3c c4 c8 3d 6e eb 1d 3d ac 31 f7 bd
       0.07679384 0.09803054 0.0385546 -0.12070021
0002c0 45 c7 39 bd 4f 3c bf 3d 3c 8c 8b 3d 3c 54 d1 3d
       -0.045356054 0.09337675 0.06813857 0.102211446
0002d0 8f fb e4 bd 70 11 9c bd a5 23 08 3e 1d bb fa bc
       -0.111807935 -0.076205134 0.13294847 -0.0306068
0002e0 98 16 55 3b b6 51 25 be 96 50 36 bc 37 05 21 3e
       0.0032514688 -0.16144451 -0.011127612 0.15724646
0002f0 b7 3e 02 3e 90 06 b5 3d bd 7a 7d 3d 31 82 17 3d
       0.12719236 0.08839142 0.06188463 0.036989395
000300 be 29 63 bd bd 2c c9 bd de f6 06 bd 03 a4 44 bd
       -0.05545973 -0.09822986 -0.032950275 -0.048007976
000310 92 e1 9a 3c cd 8f 92 bd 4c 81 91 3d 54 19 d2 bd
       0.018906388 -0.07156334 0.071047395 -0.10258737
000320 56 6f 03 bb 7e 66 fb 3c 6e 31 66 bd 20 d8 12 be
       -0.0020055375 0.03068852 -0.056199484 -0.14340258
000330 4c 89 2e bd 52 9c 9c bd e0 54 2e 3d ad e3 80 3d
       -0.042611405 -0.07647003 0.04256141 0.06293426
000340 86 5e 05 3e d5 3c cb 3d 20 3a 32 3d f2 c7 95 3d
       0.13024339 0.09923712 0.043512464 0.07313527
000350 3e 01 1e be ac bf ff 3b 14 9a 67 3c 6a af d1 bc
       -0.15430161 0.0078048315 0.014135856 -0.02559634
000360 00 f9 c1 3d c9 64 71 3c 8c a8 0c be 53 54 03 3e
       0.09471321 0.014733502 -0.1373617 0.12825136
000370 e3 e4 5e bd a1 6a 94 3d 4d 04 1a be 14 f7 2f bd
       -0.054417502 0.072469 -0.15040703 -0.04296024
000380 10 e5 19 3d 66 64 1a be 2a 63 12 be 34 07 8f 3c
       0.037571967 -0.15077361 -0.1429564 0.01745949
000390 49 17 88 3c c3 18 54 bc 60 be 51 3d 65 8a 58 3c
       0.016612666 -0.012945357 0.051206946 0.01321659
0003a0 0a db 18 3d e0 6e 77 3d 3b 24 c0 bc 2a b3 df 3c
       0.037318267 0.060408473 -0.023454776 0.027307112
0003b0 30 8d 03 be 09 b8 e0 bd b0 b9 02 bd 9d 98 43 bd
       -0.12846828 -0.10972602 -0.031915367 -0.047752965
0003c0 96 08 0f 3d 66 6b ad bd 12 00 01 3e ba db b2 3d
       0.034920298 -0.0846775 0.12597683 0.08733316
0003d0 a8 04 ba 3c da b3 e3 3b a8 6a 7f bc 01 6c 4a be
       0.022707298 0.00694893 -0.015589394 -0.19767763
0003e0 40 eb 27 3d e3 59 3c bd 8c 97 c0 bd c0 8c 03 3e
       0.040995836 -0.04598416 -0.09403905 0.1284666
0003f0 20 42 14 bd 24 06 a5 3d b3 45 98 bc 5d eb f9 3c
       -0.036195874 0.08057812 -0.018587923 0.030507738

model.6.bias f4 [64]
000000 65 8c a7 bb e0 ad 93 3c 88 bb a6 3c 95 19 38 3d
       -0.005113172 0.018027246 0.020353094 0.044946272
000010 41 39 05 bd 94 ff 6f 3d 4b 94 6c bd c5 9e b9 bc
       -0.032525305 0.058593348 -0.05775861 -0.022658715
000020 98 fc 65 3c fd ab 48 3c a0 49 ae 3c 82 a9 b4 bc
       0.014037274 0.012248036 0.021275342 -0.022053484
000030 d9 e0 4c bb 9a 61 1a bd 57 a2 92 bc 52 cb 40 3d
       -0.003126195 -0.037690736 -0.017899675 0.0470689
000040 f2 80 84 bd 60 a2 7a 3d c9 6a 22 3d 9e 04 b5 3c
       -0.06469907 0.06119001 0.03965262 0.022096928
000050 9c fc ff 3c 3a 44 22 3d 46 23 a0 bc cf 10 70 3a
       0.031248383 0.039615847 -0.01954807 0.0009157778
000060 6f cb cf bc ee 90 0d 3d 17 60 66 bd 47 f5 48 3d
       -0.02536556 0.034562044 -0.056243982 0.04906204
000070 d2 71 18 bc 80 18 fb 3c 6c f7 3d bd 86 f5 09 3d
       -0.009304481 0.030651331 -0.046378538 0.033681415
000080 01 ac ae 3c e0 ce 90 3c 0f 17 67 bc 45 56 6d 3d
       0.021322252 0.01767677 -0.014104619 0.0579436
000090 74 07 39 3d 1e 2d d2 3c 0f 1a ec 3c de 4e 87 3b
       0.045173123 0.02565628 0.02882102 0.0041292747
0000a0 3b 0c 5a bc a4 89 79 bc 9f 97 2a 3d 1e b8 f8 3c
       -0.01330858 -0.01523057 0.041648503 0.030361231
0000b0 c3 6e 3c 3c 30 2d 10 bb ae 25 88 bc cb 11 38 bd
       0.011501017 -0.002199959 -0.01661953 -0.044938844
0000c0 23 c5 cf 3b 27 50 02 3d 55 73 9c 3c d2 10 36 3d
       0.006340639 0.03181472 0.019097963 0.044449635
0000d0 46 d6 26 3d cd 98 34 3d de 6e 7a 3d 08 48 50 3d
       0.04073169 0.044091035 0.061140887 0.050849944
0000e0 84 d5 45 3d 20 63 03 bd b0 5e 26 bb 84 58 22 3d
       0.048299327 -0.032076955 -0.0025386028 0.039635196
0000f0 12 c6 d8 3b 48 ac 14 bd c2 3a 52 bc 50 82 0d 3c
       0.0066154087 -0.036297113 -0.012831392 0.008637026

fcs.0.weight f4 [6, 128]
000000 cc b0 96 bd 1b 56 d7 3c 74 32 0c be 9d f7 76 3e
       -0.0735794 0.026286175 -0.13691121 0.24117894
000010 59 8f d7 3d f8 09 b6 bd 9a 0e 4d bb 01 08 98 bd
       0.10525388 -0.0888862 -0.003128922 -0.074234016
000020 5a ba a0 bb 74 81 09 3d 43 77 2d be 36 cc 4a 3d
       -0.0049050273 0.03357072 -0.16940026 0.049511157
000030 38 b3 5f 3d 96 28 9e bd 6d 05 99 3d 20 3e b7 bd
       0.054614276 -0.07722585 0.07471738 -0.08947396
000040 0a d4 45 bc 52 16 23 3c cc 32 01 3d dd 54 d5 3d
       -0.01207448 0.009954052 0.031542584 0.10416577
000050 a9 1e bd 3d d0 a9 2f 3e a1 c4 d4 3b 04 84 b2 3d
       0.092343636 0.17154622 0.0064931666 0.08716586
000060 e5 8c bb 3c 6b 05 18 3c f6 9c b1 3d c0 df 87 ba
       0.022894332 0.0092786355 0.08672516 -0.0010366365
000070 4d d5 e7 3e 31 a0 0c 3e 20 1e e0 bd 6a bf 6f bd
       0.45279923 0.13732983 -0.10943246 -0.058532156
000080 60 eb 24 3b 1e 75 44 bd 4b 99 a1 be a0 ce 59 3e
       0.0025164708 -0.047963254 -0.31562266 0.21270227
000090 55 b4 41 3e 99 7b 1a be 00 c8 33 3d f8 58 1d bc
       0.18916447 -0.15086211 0.043891907 -0.009603731
0000a0 98 b0 b6 3d 19 f7 88 3d 74 3f a4 3d 80 63 e7 3c
       0.08920401 0.06687755 0.08019915 0.028245687
0000b0 25 5c 97 bc 49 39 85 bd 72 36 2c bd 03 2e 2a bc
       -0.018476555 -0.06505067 -0.04204411 -0.010386947
0000c0 41 03 c5 bd 8a c8 82 be c2 ca a2 3d 9d 29 b9 be
       -0.09619761 -0.25543624 0.07948829 -0.3616456
0000d0 bf e9 2f bd 78 4e fc bc bb 30 65 3e da 5a 92 3d
       -0.042947527 -0.030799136 0.2238187 0.07146235
0000e0 94 1e d0 3d 4b 79 4b be 4a ef ea bc 17 71 f5 bd
       0.10162082 -0.19870488 -0.028678555 -0.11984461
0000f0 82 d2 d8 bc 13 a9 6b 3d ba 22 ce 3d 88 d9 d3 3c
       -0.026467565 0.05753429 0.10065217 0.025860563
000100 79 d7 ba 3d 02 47 60 3e cb f2 90 bd 53 d2 96 3d
       0.091231294 0.21902087 -0.07077559 0.07364335
000110 3a f9 8f bc 96 62 b0 bc 65 50 c6 bd 06 fd fc bd
       -0.017574895 -0.021531384 -0.09683303 -0.12352948
000120 fa 4a 1d 3c 24 e7 7b 3d 98 82 82 3c d4 8a 98 bd
       0.009600395 0.06149973 0.015931413 -0.07448354
000130 f9 3b 90 bd 1b 50 a6 3b be 47 c3 bd 68 b8 30 3e
       -0.07042689 0.0050754673 -0.09535168 0.17257845
000140 b2 17 99 3b 52 72 08 3d a2 bf 37 bc 19 39 19 3e
       0.004672014 0.03331215 -0.011215122 0.14963187
000150 8d c7 06 bd 59 91 40 bd d8 bf c1 3d c0 59 ba 3b
       -0.03290515 -0.047013614 0.094604194 0.0056869686
000160 b4 34 c5 3c 50 99 3d bd cd 3f 90 bd 8c 50 8d be
       0.024072982 -0.04628879 -0.07043419 -0.27600515
000170 cd 71 a0 3d e5 e2 9e 3d 1e 7e 46 3d 82 ca 57 bd
       0.07834206 0.077581204 0.04846012 -0.05268336
000180 f0 38 ff 3d 80 0f 3a bd 83 14 82 3d 19 bd a9 be
       0.12462032 -0.04542494 0.063515685 -0.33152083
000190 da 8d 96 bc 9a 11 ac bd 37 28 d1 bd 54 59 64 3c
       -0.018378187 -0.08401795 -0.102127485 0.013937313
0001a0 46 b6 c0 bc f1 56 59 be bb 5b 3e 3e d4 7a 84 3e
       -0.023524415 -0.21224572 0.1858968 0.2587496
0001b0 95 3c 89 3d 2f ca af bd 69 0e 83 bd 6a d2 34 3c
       0.06701008 -0.08583485 -0.06399233 0.011036495
0001c0 a2 e2 31 be 02 92 ee 3d 80 79 5f bd cd 5d 12 bd
       -0.1737161 0.116489425 -0.05455923 -0.035733987
0001d0 ef a0 be bd ee fd 51 be 8f ba fa bd 51 6d d9 bd
       -0.093080394 -0.20507023 -0.122426145 -0.106165536
0001e0 62 70 df 3b e2 a9 ef 3c 5f a0 7a 3d ae 07 17 bd
       0.006818817 0.029255811 0.061188098 -0.03687256
0001f0 ec 08 b7 bd 72 bb 21 be 2c c4 be bc bd 3b 97 3d
       -0.089372486 -0.15794161 -0.023286901 0.07384441
000200 39 44 17 3e be 4e f9 bd 5a 48 98 3e b6 9e 72 3d
       0.14772119 -0.12173222 0.297427 0.05923339
000210 ff c0 80 bc f6 62 13 bd 18 77 34 3d 6c 9f de 3c
       -0.015717028 -0.03598305 0.04405889 0.027175628
000220 7d 63 09 3c 35 e2 83 bd c1 16 f9 bd 85 34 14 be
       0.008385536 -0.0643963 -0.12162543 -0.1447316
000230 54 41 9f bc 97 92 8c 3d 21 76 b6 bd 17 ba 97 bd
       -0.01944033 0.06863897 -0.0890925 -0.07408541
000240 eb a0 90 3d f2 bc 32 3d 04 0d 33 3d 18 c4 7b 3c
       0.07061943 0.043637224 0.043713585 0.015366577
000250 60 80 8a bd 1b 89 c9 bd 8e a0 37 3d 8e f3 7d bd
       -0.06762767 -0.09840604 0.04483085 -0.06199985
000260 0e 09 68 3c 6b 15 24 be 99 f4 a2 bd 1b 47 7b 3d
       0.014162315 -0.16023795 -0.079568096 0.06134711
000270 9c d4 c3 be 78 ca 9c 3e cb f0 c6 bd 7a 41 06 be
       -0.38248146 0.3062322 -0.09713896 -0.13110915
000280 e9 e9 27 3d 42 4b 19 3d a2 c0 3c be 52 a8 03 be
       0.04099456 0.037425287 -0.18432859 -0.12857178
000290 0e d8 47 3e b6 07 27 3e 4a 53 3a bc f4 96 91 3c
       0.19516012 0.16311535 -0.011372397 0.017772175
0002a0 3d af 82 bd 88 f8 39 bd 20 fd 64 3d e6 9a 9b 3b
       -0.0638108 -0.045403033 0.05590546 0.00474869
0002b0 08 97 93 bc 5f 6c 5e 3d 5d c0 3c 3d 58 9c 1a 3c
       -0.018016353 0.05430257 0.04608189 0.009436689
0002c0 1f 85 38 bd 26 42 8a 3c ed 82 e0 3d 70 04 18 3e
       -0.04504883 0.016877245 0.10962472 0.14845443
0002d0 fe b0 22 3d 30 ca ce 3c 69 36 a2 bd a7 9b 1e 3e
       0.039719574 0.025242895 -0.07920534 0.15489064
0002e0 bf 2f b1 bd cc e6 e1 3d cc de 74 bd 57 36 72 bd
       -0.08651685 0.11030349 -0.05978279 -0.059133854
0002f0 af 91 9c 3d c4 a5 65 3c 03 2a a3 3d 3b 55 34 3e
       0.076449744 0.014016572 0.079669975 0.17610638
000300 58 b9 d3 bc 1d 0a 97 3e b4 d4 a3 bd 65 fe 67 bd
       -0.025845215 0.29499903 -0.07999554 -0.056639094
000310 f4 ac 99 3b 92 c8 55 bd b7 1a 87 bd b2 4c d6 3d
       0.004689807 -0.052193232 -0.06596892 0.10463847
000320 e3 b2 47 bd 5e a0 a4 3d c0 95 d7 bb 44 41 f2 3c
       -0.048754584 0.080384 -0.006579131 0.029572137
000330 a2 66 af 3d b6 3c 81 3c 90 cd 38 3e 8b b6 3c 3d
       0.085644975 0.01577602 0.18047166 0.046072524
000340 27 79 62 bd 46 54 69 3d 79 1d 88 3e 6b 20 d2 be
       -0.05529132 0.056965135 0.26584986 -0.41040358
000350 a4 6c e1 bd 00 7f 1a be 8c a9 45 be 9c 5a ae bc
       -0.1100705 -0.15087509 -0.19302958 -0.02128344
000360 4e 54 01 be 0e d9 e4 3d 21 cd b9 bd b2 da 52 be
       -0.12629816 0.111742124 -0.09072328 -0.20591238
000370 c4 68 41 3d 01 bc dc ba 16 56 67 bd 25 c3 f7 bc
       0.047219053 -0.0016840697 -0.056478582 -0.03024442
000380 e5 c5 d0 3d 6a 82 90 bd 06 42 42 be 2c 63 2c 3a
       0.101939954 -0.070561245 -0.18970498 0.0006576057
000390 fb d6 d1 bb cd e7 ac 3d 84 42 fb 3d f2 3b a5 bd
       -0.0064038015 0.0844265 0.12268546 -0.08068074
0003a0 84 62 5d bd c1 7d 5a 3c da e0 ca be ee a6 d2 bc
       -0.05404903 0.013335646 -0.39624673 -0.025714364
0003b0 50 d9 45 be a9 f0 c1 bd 29 fa 09 3e 4e 3c 37 3d
       -0.1932118 -0.094697304 0.13474335 0.044735245
0003c0 ee 1e 74 3c 99 dc 87 3d 63 9d 4a 3d 30 08 d0 ba
       0.014899952 0.066338725 0.049466502 -0.0015871581
0003d0 1a 7d c1 3d bc ab a9 3d a9 e0 6f bd 0a e4 97 bd
       0.09447689 0.08284709 -0.058563862 -0.07416542
0003e0 14 60 03 bd 67 fa 80 3d af 9c 9e bd 6e f3 b5 bd
       -0.03207405 0.062977605 -0.07744729 -0.08884321
0003f0 5a fc 91 bc 70 f1 0d be de 9a 91 3d 2c b4 bd 3d
       -0.017820526 -0.13861632 0.07109617 0.09262881

fcs.0.bias f4 [6]
000000 e4 1e a5 bd 2f 08 94 3d 89 ca 5c bd 19 06 90 3d
       -0.080625325 0.072281234 -0.05390409 0.07032413
000010 c8 af ea bc 26 fa 49 bd
       -0.028648272 -0.049310826
