models/Pilot_1_1.pt (torch, 105128 bytes, 10 tensors)

model.0.weight f4 [8, 2, 3, 3]
00000000: 9d9f 383d 8c9c 37bd b952 cebd 3678 7a3e
00000010: beec 04be e9b1 923d 0e63 503e ec32 f23d
00000020: 7d01 5bbc 6a4a 24bf 635a 0ebf 4508 0fbf
00000030: 426d 943e ece9 53be 991f ac3d efcb 36be
00000040: 3b75 79be 0445 e03e aa2d 52bd d39a 9f3d
00000050: 0dde 06bb 56e1 8a3c 4e6b 44be 4fa4 283e
00000060: 8432 5cbd 6990 643e 30d1 be3d 9159 77be
00000070: 09c5 af3e c543 983d 19fc 0dbf 5031 ab3e
00000080: 3e3d e3be 8326 cfbe 316c 1abf 165f 48be
00000090: 05e9 693e 6c2f 863e c122 be3d 0850 22be
000000a0: 16eb b13d d9ec b23d fe78 3fbe 8d29 833e
000000b0: ec45 a03e 7e75 51bd e0bf 113f a06a 983e
000000c0: ce25 ebbb 5e04 603e e6d7 82be c024 83be
000000d0: 2825 0b3e 678c d3be 844d e1bd 358e 06be
000000e0: 1460 663e e30b 5bbe 9272 693d ffd1 0f3e
000000f0: a1dc a2bc 5fe5 26be 510e 623e 4486 db3e
00000100: 8a1d 263f c44c d4be 5d4e d13e 5709 37bf
00000110: 7cb6 893d 98b3 ac3d 8387 a33e 7c11 fa3d
00000120: e875 493e 9973 1dbe 8868 313d 2e57 e73d
00000130: 4c06 f23d 7018 f53d 8448 423e f7b3 4a3c
00000140: 0cdd 563e 901e b63e e472 0bbf 2042 94bd
00000150: 92ea fd3e 338a f23e 70c1 3abf 6a24 05be
00000160: 8394 103c 27a1 283c c2cf df3d 7510 71be
00000170: d3cc a9bd 6bb4 0a3e 2e38 7bbc 8cef 4cbd
00000180: 9583 603e cedb d03d b491 d13d 5591 42bf
00000190: 1d6d 83be 97e1 7cbf bc87 573e 0c1b e4be
000001a0: 3808 843e 440a 913e 4818 4b3e 32be 583e
000001b0: 34ec 05bd 248d 3bbd 4d8d 2abe 49bf 22be
000001c0: ff59 f3bd aeb9 1a3d 4e62 913d c3b8 ab3d
000001d0: 2886 663e a534 b63e 458c 013f a29e 053f
000001e0: f2da 1d3e b489 a7bd 5c49 583b 8ce6 e5bd
000001f0: 54ae 51be 31a4 d33e 9162 e73d 8e3a 243e
00000200: b4b1 d5bd 8ab1 893d 6f07 06be 253a 193e
00000210: c928 eabd c2c1 9fbc 64c9 3e3e d1f1 f1be
00000220: a765 093f bb3f b33e e1bc 133f d18a 52bf
00000230: 82e4 213f 482d 2fbe a24c 333e bcd3 1e3e
0.045074094 -0.04482703 -0.10074372 0.2445992 -0.12980935 0.0716284 0.20350286 0.11826119
-0.013367054 -0.64176047 -0.5560667 -0.55871993 0.28989607 -0.20694703 0.08404464 -0.17851232
-0.24361126 0.43802655 -0.05131308 0.07793202 -0.002057913 0.016953152 -0.19181558 0.16468929
-0.053759113 0.22320713 0.09317243 -0.2415526 0.34330013 0.07434801 -0.55462795 0.3343606
-0.44382662 -0.4045907 -0.60321337 -0.19567522 0.22842796 0.26208055 0.092839725 -0.15850842
0.08687417 0.08736581 -0.18698499 0.25617638 0.31303346 -0.05113744 0.56933403 0.29768848
-0.0071761375 0.21876666 -0.25555342 -0.25613976 0.13588393 -0.41318056 -0.11001113 -0.13140185
0.22497588 -0.21391253 0.05699403 0.14044951 -0.019880595 -0.16298436 0.22075774 0.42875874
0.64888823 -0.41464818 0.408801 -0.71498626 0.06724259 0.08432692 0.31939325 0.12210366
0.19673884 -0.15376128 0.04331258 0.11295925 0.11817607 0.11967552 0.18972975 0.0123720085
0.2098276 0.35570192 -0.54472184 -0.07239175 0.49593025 0.47371063 -0.7295141 -0.13002172
0.00882447 0.010292328 0.109282985 -0.23541434 -0.0829102 0.13545386 -0.0153332185 -0.050033137
0.21925195 0.101981744 0.10232869 -0.7600301 -0.25669184 -0.9878172 0.21047872 -0.44551885
0.2578752 0.28328145 0.19833481 0.21166304 -0.032695964 -0.0457889 -0.16655464 -0.15893282
-0.118824 0.037774734 0.07098828 0.0838485 0.22512114 0.3558704 0.5060466 0.5219518
0.15415552 -0.08180562 0.003300271 -0.11225614 -0.20476657 0.41336206 0.11298097 0.16037962
-0.10434285 0.06723316 -0.13088773 0.14963587 -0.114335604 -0.01950157 0.18631512 -0.47254804
0.53670734 0.3500956 0.5771008 -0.8224307 0.632393 -0.17107117 0.17509702 0.15510458

model.0.bias f4 [8]
00000000: aa0f 253e c973 163d a7cb dbbd bbfa 823e
00000010: daed e6bd d763 c3bd 8c6e 473e ab37 5cbd
0.16119257 0.036731515 -0.10732203 0.25581917 -0.11275835 -0.09540527 0.19475764 -0.053764027

model.2.weight f4 [16, 8, 3, 3]
00000000: 7ed6 cd3c 0531 d93d c7ff 833c 670a aa3d
00000010: 1c12 a4bd 246c 833d d7d5 9dbd 521a 303d
00000020: d640 1a3e 1e99 4a3d d235 6fbd b059 f73d
00000030: 6063 aebd 5cd6 e0bd 7ce3 70bd 5b0f a6bd
00000040: f7e0 8c3d 609d bfbd 9e15 e53d 1156 203d
00000050: ce04 afbc 97d3 c7bd 871e b03d 39e6 86bc
00000060: ca17 78bd 7e41 a9bd 7ec2 20bd 86f4 9abc
00000070: 4489 d13d e93f 883c 2c43 c13c 5eec 923d
00000080: 5b07 943c e8b2 ca3d 64e7 d8bd a0b0 083e
00000090: 0e26 7e3c db1f 0dbd 119d 0d3b af5a 1dbd
000000a0: e313 e43d cce6 2dbd 7ed0 dcbd cc3d d0bd
000000b0: 29df 303c 86c1 a33e 1769 e73d f46a 263e
000000c0: 93cf 283e 9bd9 afbd 8b6b 763e 15ce 933d
000000d0: 1467 423c 4dce 033e 38f4 583e 2336 bb3d
000000e0: dade 2dbe 095c acbd b8bf 333e c6d9 313e
000000f0: 5bec c23d 20c1 153e f4ec 0d3e afe3 193d
00000100: a694 893e b459 763b fac3 333e b9c0 a9bb
00000110: f00d b9bc e880 c33d 77ae 3ebd 9006 2f3d
00000120: 9960 493e 93ff 8c3d 381d d63d dc39 acbc
00000130: 57c5 b7bb 5c61 c9bb 787b a33d f613 de3d
00000140: 5f24 e33d be49 d13d 5863 4c3d 7090 d6bd
00000150: a2fb c2bc 166f d63d 2545 173d 00cc 373d
00000160: cbc0 003e 56ca 443d 3415 ac3d ba38 4dbc
00000170: 0908 623e 749c c13c 5c2e 69bd ea10 e13c
00000180: 5a82 903c d316 ec3d 413d 483e 0ac8 86bb
00000190: 508b 2d3e b344 293e 0d63 073e 55ab 82bd
000001a0: 6b7c 86be 3f9e 96bc 5acf aebd 1dc7 0b3d
000001b0: 117e ec3d 6dd8 6a3d 4c8f d0bd f1fa 25bd
000001c0: 39e2 b63d 3fab f43d 08ae ad3c c362 9abd
000001d0: 70b4 5c3e 2e49 4d3e fd04 483e d250 4b3d
000001e0: 4039 99be ad98 26bf d6e4 34be 4b17 3ebe
000001f0: 5a0f 4bbe 40d0 133d 9067 a53c bfa8 823e
00000200: 930f 9dbb 38d8 c4bd 0d4d 3bbe bae3 c0bd
00000210: 548c efbd bc90 3cbd e48a 0c3e 2d8f 8ebd
00000220: 4c15 e6bd f281 3cbe 048f 163e 84cd 023c
00000230: a95d 01be b275 10bd 6a8d 1abd 9816 a3bd
00000240: 3933 fe3d 17bc 443d 6b06 0c3e 24c2 a13d
00000250: 234d 41bd ec5f 2f3d 5288 833b 8974 e93b
00000260: e947 4abd 6bf3 563d b841 e03d ed31 b4bd
00000270: 5d7a f63c 74db ecbc 29cc 2b3c ff6b 65bd
00000280: 72ca 873c ad20 03bd 0c6c e3bd 92ea 10bd
00000290: 136a 533d b03a 013e 064a b3bb dbb1 0f3e
000002a0: 909f 7b3d c2d3 b8bd f27c c83d 85a3 a73c
000002b0: c7e2 973c 84e4 4abd d8a0 293d 5f77 933d
000002c0: ca63 a83d ae90 f03d 817d 8a3d ebeb 9ebc
000002d0: a461 8c3d ace9 c43d 0a92 023e 73b5 043e
000002e0: 3358 c73d d338 003e c8a8 b93a b92e a4bd
000002f0: 58e2 1d3e 6e15 87bb 8bd4 a1bc 9f11 383e
00000300: 18f2 8fbe 7c9c 91be 0f45 fc3d f5d2 1abe
00000310: ec9c b33c c2d0 6f3c 1bb8 523c eb40 58bc
00000320: ccda d13b 1fb4 f03d 5cb7 1abd 64b6 c3bd
00000330: 22cb d63d 1313 443d 63be d2bc ee35 11be
00000340: 4e26 a6bd abdf 15bd 6bb1 ce3d e483 5fbe
00000350: 024c 06be 104a 1ebd f886 593d c6fa 3fbe
00000360: b2e8 803d 6c4e 53bd 253b b1bd 2ed2 b2bd
00000370: 4828 6bbd 3ec7 f1bd bcb8 bd3d 9acc 65bd
00000380: 1bd1 8dbc e2bb 5fbd 441e 293e d8e3 483e
00000390: 1aac 463d 2c07 743d 062a f63d d298 9c3d
000003a0: f00b 9dbd fb63 2a3e 0ef2 f83d be70 9fbd
000003b0: 0286 d3bd c6d8 35bc cd7e 82bd 4ab3 8e3c
000003c0: 68c4 d1bd d0ac 003e 82e7 7bbc 888d 083e
000003d0: 24fb 0cbe 3c83 ff3d fb39 f43d cd0c 17bc
000003e0: 08cf 2e3e 1e11 7d3d 980c 443b 40f4 003e
000003f0: 264b e0bc 21c3 31bd 8694 2e3e 3298 65bd
0.025126692 0.10605053 0.016113175 0.08302765 -0.080112666 0.064171106 -0.07706802 0.04299385
0.15063795 0.04946243 -0.058400936 0.120776534 -0.08515048 -0.10978386 -0.058810696 -0.081083976
0.06878846 -0.09356189 0.11185764 0.03914458 -0.021364596 -0.097571544 0.08599573 -0.0164672
-0.060569562 -0.08264445 -0.039247982 -0.018915426 0.102312595 0.016632037 0.0235916 0.0717399
0.018069914 0.09897405 -0.10591009 0.13348627 0.015512003 -0.034454208 0.0021608511 -0.03841656
0.111366056 -0.042456433 -0.10781954 -0.10168037 0.010795393 0.31983584 0.11299341 0.16251737
0.16485433 -0.08586427 0.24064462 0.072170414 0.011865396 0.12871666 0.21186912 0.09141185
-0.16979542 -0.08415992 0.17553604 0.1736823 0.095177375 0.14624453 0.13859922 0.03757065
0.26871222 0.0037590088 0.17555228 -0.005180445 -0.022589654 0.09546071 -0.0465531 0.042730868
0.19665755 0.068846844 0.10454792 -0.021023683 -0.0056082415 -0.0061456393 0.07982534 0.10843651
0.110909216 0.10219143 0.04989943 -0.10476768 -0.023801629 0.10470407 0.036931176 0.044872284
0.12573545 0.048044525 0.08402482 -0.012525732 0.22073378 0.023634173 -0.056928977 0.027473886
0.017640281 0.11527791 0.19554617 -0.004113202 0.16947675 0.16530113 0.13221379 -0.06380335
-0.26266798 -0.018386004 -0.08535643 0.034125436 0.11547483 0.057335306 -0.10183582 -0.04052252
0.08929867 0.11946725 0.021201149 -0.075383686 0.21553206 0.20047447 0.19533153 0.049637623
-0.2992649 -0.65076715 -0.17665419 -0.18563573 -0.19830075 0.036087275 0.020190984 0.25519368
-0.0047931164 -0.09611553 -0.18291111 -0.094184354 -0.11696687 -0.046036467 0.13724858 -0.06960902
-0.11234531 -0.18408945 0.14702994 0.007983569 -0.12633385 -0.035268493 -0.03773252 -0.07963294
0.12412114 0.04803094 0.13674323 0.078983575 -0.047192704 0.042816088 0.0040140534 0.007124488
-0.049384985 0.052478235 0.10950035 -0.08798585 0.030087644 -0.028913237 0.010485687 -0.056011196
0.016576026 -0.032013584 -0.11104593 -0.035379954 0.051614832 0.12620044 -0.0054714708 0.1403269
0.061431468 -0.090247646 0.097894564 0.020463714 0.018540753 -0.049534336 0.04141316 0.072005026
0.08222158 0.117463455 0.06762219 -0.019399604 0.06854561 0.09614882 0.12751022 0.12959842
0.097336195 0.12521677 0.0014164681 -0.08016724 0.15418375 -0.0041224277 -0.019754669 0.17975472
-0.2811439 -0.284397 0.123178594 -0.15119536 0.021925412 0.014637174 0.012861277 -0.013199071
0.0064042564 0.11753105 -0.03777252 -0.095562726 0.10487963 0.047869753 -0.02572555 -0.14180729
-0.08112775 -0.03659026 0.100924335 -0.21827656 -0.13114932 -0.03864485 0.05310723 -0.18748006
0.06294383 -0.05158846 -0.08653859 -0.08731495 -0.057411462 -0.118055806 0.09263751 -0.056103326
-0.017311623 -0.05462254 0.16515452 0.19618165 0.048503973 0.059577152 0.12019734 0.07646336
-0.076682925 0.16639702 0.12155543 -0.07785176 -0.10328294 -0.011099046 -0.063718416 0.017419476
-0.1024254 0.12565923 -0.01537502 0.1333524 -0.13767678 0.12476203 0.119251214 -0.009219361
0.17071164 0.061783902 0.0029914733 0.12593174 -0.027379584 -0.04339898 0.17048845 -0.056053348

model.2.bias f4 [16]
00000000: 0c22 b73d 0c5d 01bd f8df 323d a70f 7ebd
00000010: 3223 7bbd f6da a13d cdbc 113e 02e9 05bd
00000020: cd78 fa3d 111b e2bd 54b2 a93d bde3 c93d
00000030: 2192 963d 628c 733d f355 8b3c dbff 103e
0.08942041 -0.031582877 0.043670624 -0.062026646 -0.06131286 0.079030916 0.14232178 -0.032692917
0.12230072 -0.11040319 0.082859665 0.09857891 0.073520906 0.05946005 0.017008757 0.14160101

model.4.weight f4 [32, 16, 3, 3]
00000000: 0f50 033e 6c51 1c3d cbba 0b3c aed2 21bd
00000010: 6ae8 c7bc 79b3 7dbd f4d6 9cbc ba0f 0dbc
00000020: 6f5e 913d 84be 21bd 9955 e33c 65cf 61bc
00000030: 947a f13d d073 613d aa27 5d3d 1b00 bdbc
00000040: 7437 83bd 3cc2 363d 8d1a 1c3d 316a ab3d
00000050: 3a11 f83d 409f fcbc fbea a43d 676d e93c
00000060: 0c80 de3b 4343 bf3c 45e0 f93c 3702 203e
00000070: a05f c73d bcb2 983d b2a9 1d3e 0e61 6bbd
00000080: c821 e33c dad4 43bd e749 3bbd 4958 0cbc
00000090: b24e 073d aeb2 da3d 5e82 dfbd 96f5 9f3c
000000a0: a76f 1ebd 3a28 1d3d b0be 703d 4bcf 563d
000000b0: 14cf 55bd f84b 3e3e ae0b 1a3e cb1f 41bd
000000c0: 991f 5a3d b745 afbd f354 89be 2684 f73c
000000d0: 9734 3ebc 9441 49bd c153 d1bd 3c7b 90bd
000000e0: ae6c 483d fdf7 b0bd 0454 2ebb 033e aabb
000000f0: 2633 6d3d 0931 2c3d 07a8 953d 7d62 853e
00000100: 55f4 a33d 1583 8cbe e9ed bb3c df8b 14be
00000110: 47b9 39be 8ef8 f4bd 42b2 c2bb 4520 0dbe
00000120: 10e8 173e 10b1 6d3e 926f 6b3d fd33 d63b
00000130: 0a1d 4fbd 04c7 41be 6969 173d 3d64 ec3c
00000140: f427 763d b4cb bcbe 6d80 fbba 1a64 c23c
00000150: 30ae 19be 305d 95be 4149 c9bd 2394 f23c
00000160: 350d b8bc d161 1bbe e7f2 c93b f64d f5bc
00000170: a2b3 583c ee57 373d b271 b23c 8568 bdbd
00000180: 0cef 833d 40cf a4bd 2cd1 c63d 8e6d 53bc
00000190: 7a4f e53d 4cd4 ff3d e004 26bd ce88 33bd
000001a0: 0892 26bd 1fdb 8ebd ccb8 43bd feed 16bd
000001b0: e728 38be f7b8 fbbd 0edb 51bc 9915 be3d
000001c0: 08e2 f53c 794a 433e 0bd4 a43c 6bac 12bd
000001d0: 1750 44bd 2c56 be3d 8e78 b23d d9f1 033e
000001e0: 8284 3c3c 54d6 78bc 1726 95bd 0d6e d6b9
000001f0: b0af 45bd b74c b1bd 1793 2a3e 4768 453e
00000200: 0a44 b73d 74d3 e93d c3e5 133c de12 22bd
00000210: 7cd5 3bbd 9d23 e93d 20ee a8bd 185f 823d
00000220: c21a f83d e2d3 303e b617 723d 2ffb 8e3d
00000230: 74ba d43d 4b9a d13b f98a 28bd 7fb9 96bd
00000240: d2cd babc b66a 60bd 9fbf 703d aaa6 f6bc
00000250: cda5 183c 517c 80bc e2a4 bfbc 58a4 f0bc
00000260: f0d6 7d3d 3c91 29ba d0b1 b9bd d243 993d
00000270: febd fc3d b91f d3bc 3fef 083e af9d abbc
00000280: f175 e5bc 5267 563d 8a63 9abd 9eaa 64bd
00000290: 185b 8f3d f638 a43d 231e 493d ef01 23bb
000002a0: 7205 203d 7cac c23d df8d bbbc ee54 33bd
000002b0: fc70 10bd 1b0c 16bd 5caf 39bb 6ba5 223d
000002c0: 507d 963d 26e1 e13d 66f0 b2bc c226 4bbd
000002d0: 8ca7 333e f76b 213e dce2 2b3d 74c8 a8bd
000002e0: a9f1 ddbc 7b18 d33d 9374 653a 099c 583d
000002f0: 7198 b23d eeba 8f3b f4e1 d63d 9e4e e0bc
00000300: 2107 01be 45c8 9ebd 1069 873d 80a6 cbbc
00000310: c757 c7bc 09ff 053e df96 403e 5391 253c
00000320: 68bc 163e 7d2f db3d ed58 35bb de8d e73d
00000330: 3885 4ebb 1865 053d aceb 4e3d f208 8dbe
00000340: fc7b 6abe 8f2c 943d 35bd 86bd a339 5f3d
00000350: ed26 eab7 0a90 67bd 33d0 ebbc b090 17be
00000360: 9585 1f3c 20f2 f2bc a436 ee3b 5a9f 88bd
00000370: 9819 c73d e507 503c 8ad2 123d 9f23 ea3d
00000380: 4928 e93d f341 0d3f 5158 393e e388 873d
00000390: 9f57 d73b deb4 67bd 7b36 bd3e 87a7 5fbe
000003a0: dcb4 273d f5b1 683e df66 1d3d ae50 8e3d
000003b0: cf91 4dbd fa57 4a3d 9ccd 5bba 07f6 033e
000003c0: fce9 883c 7f60 0c3d 8e10 40bd 641d 00be
000003d0: 6503 1f3d 21aa a13d 78e0 863d 3d48 8c3d
000003e0: 86c6 323d 56a9 9d3d bb6c 9b3b fb85 213c
000003f0: b2eb 5c3e a48a 1d3e e719 c73d 85f5 81bd
0.12823509 0.038163587 0.008528422 -0.03950756 -0.024402816 -0.061938737 -0.019145466 -0.008609707
0.0709809 -0.03948833 0.027750777 -0.013782357 0.11790958 0.055042088 0.053992905 -0.02307134
-0.06407061 0.04461883 0.03811126 0.08369864 0.12112661 -0.030837655 0.080526315 0.02849455
0.0067901667 0.023347503 0.030502448 0.15625845 0.09735036 0.07455966 0.15396765 -0.057465605
0.02772607 -0.047810413 -0.045724776 -0.008565971 0.033034034 0.10678612 -0.109135374 0.019526284
-0.0386807 0.03836844 0.058775604 0.052443784 -0.05219944 0.18583667 0.15043518 -0.04714946
0.05325279 -0.08558219 -0.26822624 0.03021438 -0.011609218 -0.049134806 -0.10221053 -0.07054755
0.04893177 -0.0864105 -0.002660037 -0.0051953807 0.057910107 0.04203895 0.07307439 0.26051703
0.08005587 -0.27443758 0.022940593 -0.14506482 -0.18137084 -0.119614705 -0.00594166 -0.13781841
0.14834619 0.23212075 0.05747945 0.006536959 -0.050564803 -0.18923575 0.03696576 0.028856391
0.060096696 -0.36874163 -0.0019188054 0.023729373 -0.15007854 -0.2917266 -0.09828425 0.029611653
-0.022467235 -0.15174033 0.0061629894 -0.029944401 0.013226422 0.04476159 0.02178273 -0.09248451
0.06442079 -0.08047342 0.09707865 -0.012904538 0.111967996 0.12491664 -0.040531993 -0.04383164
-0.04066661 -0.06975388 -0.047783658 -0.03684806 -0.17984353 -0.122911386 -0.012808574 0.09281463
0.030015007 0.19071378 0.020120641 -0.03580896 -0.047927942 0.0929378 0.087144 0.12885226
0.011506202 -0.015187819 -0.07282656 -0.00040899255 -0.04826325 -0.0865721 0.16657673 0.1927806
0.08948524 0.114172846 0.009026947 -0.039568774 -0.04585789 0.11383746 -0.08248544 0.06365794
0.12114479 0.17268327 0.059104644 0.06981503 0.103871256 0.006396567 -0.04114816 -0.07359599
-0.02280322 -0.054789267 0.058776494 -0.030108768 0.009316874 -0.015684279 -0.023394052 -0.02937524
0.06197256 -0.000646848 -0.09067118 0.07483639 0.12340926 -0.025771962 0.13372515 -0.020949213
-0.02801034 0.052344628 -0.07538517 -0.055826776 0.06999797 0.08018677 0.049101006 -0.0024872979
0.039067693 0.09505555 -0.022894798 -0.043782167 -0.035264 -0.03663264 -0.0028333282 0.039708536
0.0734812 0.11029272 -0.021843147 -0.04959751 0.17544383 0.15763842 0.041964397 -0.082413584
-0.027092772 0.10307404 0.00087530277 0.05288318 0.08720482 0.0043862974 0.10492316 -0.027381238
-0.12600376 -0.07753042 0.06611836 -0.024859667 -0.024333848 0.1308557 0.18807553 0.010105449
0.14720309 0.10702417 -0.0027671412 0.11306356 -0.003151251 0.032567114 0.050517723 -0.27545887
-0.22898859 0.072350614 -0.06579057 0.054498326 -2.79131e-05 -0.05653385 -0.0287858 -0.14801288
0.009736438 -0.02965647 0.0072696973 -0.06671019 0.097216785 0.012697195 0.035845317 0.114325754
0.11384637 0.55178756 0.18100096 0.06617906 0.0065717245 -0.056568973 0.36955628 -0.2184125
0.040943965 0.22724135 0.038428184 0.06948982 -0.050187882 0.049400307 -0.0008384825 0.1288682
0.016713135 0.034271713 -0.046890788 -0.12511212 0.038821597 0.07893778 0.06585783 0.06849716
0.043646358 0.07698314 0.0047431863 0.009858604 0.21574286 0.15384918 0.09721737 -0.06345657

model.4.bias f4 [32]
00000000: d949 9f3d 1277 5d3d 52da 853c 6750 6fbc
00000010: 093d b63d 6574 413c 91ef 70bd be85 a0bc
00000020: 1ec6 e6bb b340 773b 17f0 10bd 7bb7 893d
00000030: 8cc1 a23d 073c a5bd 79ef 183d 854c dc3d
00000040: cc57 853d a05b f53c da07 3dbd c1e0 e83c
00000050: 58ea 9d3b ad48 c53d a376 a53d c886 03bd
00000060: 7248 95bd 6a47 9d3d ec50 9cbd ae1b f73d
00000070: ba6d 763d d09f e7bd 07b2 613c 4879 933d
0.07777757 0.054068632 0.016339455 -0.014606572 0.0889836 0.011807536 -0.05882222 -0.019595023
-0.0070426604 0.0037727773 -0.035385218 0.06724449 0.079470724 -0.0806809 0.037337754 0.107567824
0.065108865 0.029950917 -0.046150066 0.028427484 0.0048191957 0.096330024 0.08079269 -0.03211096
-0.072892085 0.07679637 -0.07632622 0.12065826 0.060163237 -0.11309779 0.013775355 0.07200867

model.6.weight f4 [64, 32, 3, 3]
00000000: 8bd2 5c3d dbc6 403d 7f79 303d d85c 30bd
00000010: 7ed4 3abd a606 f23c a77c 503d ecd3 223c
00000020: 779a f6bc 3231 03bd f1f3 1c3d b467 243c
00000030: a81f 05bc a091 5bbd 6880 cf3b fb67 593d
00000040: 0d5c 583d f6a3 a63c 44e8 153c 98f9 2abd
00000050: 12d3 be3c 3bd6 0ebd 3cfb 2abc e076 bbba
00000060: e2e4 55bd 6396 213d 2251 19bd 5e5e 9d3c
00000070: 0487 20bd 2160 113d 6ef8 a93c 1ea3 303d
00000080: 9bdd 653d 4c82 323c b406 6e3c 1b09 4bbd
00000090: 4cfc f5bc 01b0 7cbb 292e 593d fae9 9e3c
000000a0: d56b eabc ab05 3dbd 1f27 263d c8a5 40bd
000000b0: 2180 41bb 15bb 1f3d 4817 19bc 185e 9ebb
000000c0: ce84 0fbd 66fe c3bc cb18 0c3d 41fb 64bd
000000d0: d86b e83b f051 7bbc 201e 11bd 8cc2 2ebd
000000e0: 1ee3 973c ff7a 2e3d 8a22 de3c eefd 52bd
000000f0: 842a c9bc 5849 f8bb 2fb1 05bd 8cb0 93bc
00000100: 5013 62bd 6003 fabc 6acf 91bc ec29 323c
00000110: b84e febc 75ae 32bd 30bb 96bc 836e 183d
00000120: f468 a3bc 08c1 babb 7419 ecbc 8237 d2bc
00000130: dd85 52bd 9cdd 34bd aa78 e53c c28b 703d
00000140: 0617 b13c 80f2 20bb e798 1e3d 0425 7f3c
00000150: 1eca 27bd 7824 ae3b dfca d1bc 2052 73bb
00000160: 71a7 6b3d 9bef e6bc c08c 72bc 526a a93c
00000170: 169b 893c a4e1 453c 3495 443c e361 20bd
00000180: e812 cc3b 917f 5a3d 4466 51bc 56c7 a03c
00000190: dad7 803c aeb2 e1bc fe20 5f3d faa2 c63c
000001a0: 28f6 c7bb b6c4 0cbd 110a a7bc d52d 0c3d
000001b0: 3941 debb 7e88 bd3c 4a37 bbbc a670 59bd
000001c0: 341e 5ebc b717 043d 257b 4c3c 6cb3 0abc
000001d0: e728 fd3c d50c 333c 1ab4 53bd 2c04 313c
000001e0: bc6e 66bd 6628 453d 14d1 39bd d0af 76bb
000001f0: 20dc 54bd 4ee3 4cbd 6388 003d 70c5 f6bc
00000200: c0e3 d9bb eb25 593d 6201 8b3c 859e 4bbd
00000210: 7c6e ecbc 8ee0 853c 3806 593d 3bdb 083d
00000220: 8c22 93bc 3e76 6ebd c87c 883b 30e5 85bb
00000230: 8c8c 4c3d 7903 343d b25a 9cbc a4e6 62bd
00000240: 88be b0bb 1a73 b7bc 01bb 62b9 c0a6 e7bb
00000250: 5e0b bb3c 2891 6fbd 7398 453d bc3e 773c
00000260: 2299 623d 7f29 4e3d 0368 51bd a099 96bc
00000270: 0411 553c 85d9 29bd 7ab6 3cbd cfa0 383d
00000280: dcf9 2c3c c879 81bc 8a26 c73c ac41 773c
00000290: 6005 14bb 3eba b8bc 4867 80bb 9cf8 773c
000002a0: 7cff 7d3c 86e6 843c 7af6 c23c 4c51 7fbc
000002b0: defd a73c 802e 98ba 801b 27bb 3498 3fbd
000002c0: 30a0 7dbb a7fa 153d 9441 06bc 6e35 f13c
000002d0: 973c 1cbd 84d7 453c b4ee 103c 8be0 163d
000002e0: 2a96 223d bdfd 683c 8e10 05bd 17fc 083d
000002f0: ed39 4dbd ee28 e73c ed23 383d a2c2 223d
00000300: ea35 9ebc 13fc c63c 6bb4 45bd b89d 91bb
00000310: 245f 6ebd 44a5 f7bc 1689 9d3c 0898 473d
00000320: 684c 58bc 920c f73c 698f 1d3d 9eba c03c
00000330: 9b34 04bd 8f75 67bd a121 e13a b352 3cbd
00000340: 3375 0dbd cba2 483d 80b0 213b 431b 583d
00000350: 0cb6 663d 7e35 e1bc 3821 cbbb a870 3d3d
00000360: 188b c13b c910 6f3d 2cf1 313c d437 36bd
00000370: def2 dd3c e809 38bc 451d 3bbd 51d8 383d
00000380: c407 12bd 7818 8e3b 7f2a d23c 3165 74bc
00000390: 007d 7e3a f3c2 633d 405b 42bd 2a93 e4bc
000003a0: 405a 9cbc 608d e13a 740b 3b3c a9fd 093d
000003b0: c0fc 03ba 0082 8e38 0043 debc 3756 66bd
000003c0: 3cfd c5bc 9a05 423d 5913 67bc 3abe 85bc
000003d0: 6423 7bbc 8851 28bd a603 2bbd 1e0c c23c
000003e0: a85f a9bb 0c5d 713c ab6e 693d 7bc1 07bd
000003f0: a4ca 0cbc 8e40 2d3d 7c5c 7bbc 2cc3 22bd
0.053911727 0.047064643 0.043084618 -0.043057293 -0.045612805 0.029544186 0.050900128 0.009938221
-0.030102951 -0.03202934 0.03831858 0.01003449 -0.008125223 -0.053605676 0.006332446 0.05307768
0.05282216 0.020341855 0.009149615 -0.041741937 0.023294006 -0.034872275 -0.0104358755 -0.0014302395
-0.052220233 0.03945006 -0.03743089 0.019210037 -0.03919126 0.035492066 0.020748343 0.04312431
0.056119543 0.010895323 0.014527965 -0.04956923 -0.030027531 -0.0038557055 0.053022537 0.019398678
-0.028615871 -0.046147984 0.040564653 -0.0470331 -0.0029525834 0.038996775 -0.00934393 -0.004832994
-0.03503876 -0.023925018 0.034203332 -0.055903677 0.007092934 -0.01533936 -0.03542912 -0.042666003
0.018540915 0.042597767 0.027116079 -0.051511697 -0.024556406 -0.0075771026 -0.03263968 -0.01802852
-0.0551942 -0.030519187 -0.017799098 0.010874253 -0.031043395 -0.043623406 -0.018399805 0.037214767
-0.019947506 -0.0056992806 -0.02882073 -0.025661234 -0.051397193 -0.044156656 0.028011639 0.058727033
0.021617424 -0.0024558604 0.038720038 0.01557279 -0.04096424 0.005314406 -0.025609432 -0.0037127808
0.05753273 -0.028190425 -0.014804065 0.02068058 0.016797584 0.012077723 0.011998463 -0.039155852
0.0062278397 0.053344313 -0.01278073 0.0196263 0.015727926 -0.027551021 0.054474823 0.024247635
-0.006102342 -0.034367286 -0.020390542 0.034223396 -0.0067826775 0.023136374 -0.022853512 -0.053085946
-0.013557006 0.03224918 0.012480532 -0.008465629 0.030903293 0.010928352 -0.05168543 0.010804217
-0.05625795 0.04813423 -0.045365408 -0.0037641414 -0.05196774 -0.050021462 0.03138007 -0.030123442
-0.0066494644 0.053014677 0.016968433 -0.049711723 -0.028861277 0.016342428 0.052984446 0.0334122
-0.01796081 -0.058218233 0.0041652657 -0.004086159 0.049938723 0.043948624 -0.019086216 -0.055395737
-0.005393807 -0.022393752 -0.00021622704 -0.0070694387 0.022832569 -0.05848804 0.04824109 0.015090641
0.05532182 0.050332543 -0.051124584 -0.018383801 0.013004545 -0.04146721 -0.04607246 0.045075234
0.010557618 -0.01580514 0.024310369 0.015091341 -0.0022586212 -0.022549745 -0.003918562 0.015134957
0.015502807 0.016223203 0.02379917 -0.0155833475 0.020506795 -0.0011610538 -0.002549857 -0.04677601
-0.0038700216 0.036615994 -0.008194346 0.029444423 -0.03814372 0.012075309 0.008845974 0.036835235
0.03969399 0.014220652 -0.03248649 0.033443537 -0.05010407 0.028217759 0.044956136 0.039736398
-0.019312818 0.02429012 -0.048267763 -0.0044438504 -0.058196202 -0.030230172 0.019230407 0.048728973
-0.01320181 0.030157361 0.038466845 0.023526486 -0.03227673 -0.056508597 0.001717616 -0.045977306
-0.034535598 0.048983376 0.0024671853 0.052760374 0.056325957 -0.027491327 -0.0061990283 0.046250015
0.005906474 0.058365617 0.0108607225 -0.044486836 0.027093347 -0.011232831 -0.04568221 0.04512817
-0.035651937 0.004336413 0.02565503 -0.014916704 0.00097079575 0.05560584 -0.047450304 -0.027902205
-0.019086003 0.0017208271 0.011416305 0.033689175 -0.0005034916 6.795302e-05 -0.027131557 -0.056234565
-0.024168603 0.047368623 -0.014103734 -0.016326059 -0.015328262 -0.04109338 -0.041751526 0.023687419
-0.005168874 0.014731657 0.056990307 -0.0331435 -0.008593235 0.042297892 -0.015341874 -0.03973691

model.6.bias f4 [64]
00000000: 7a0b a9bc 5fd9 bfbc 36af 48bd c667 0cbc
00000010: e630 07bd 8b14 5cbc d142 bfbb 9c73 83bc
00000020: e932 d13c 17b1 82bd b4a3 d03c 264e 2fbd
00000030: a53f 42bc f03c 09bc 24ab 983b 2550 3a3d
00000040: 01e7 11bd 1ee4 07bd c4a9 13bd c183 2fbc
00000050: 0279 663d 5a05 fd3c 8da3 55bd 5a03 4ebd
00000060: 9e2d cebc 6102 60bd 5f70 523d b29d babc
00000070: 88dd ea3c b348 423d 628b b33b 7b8e fc3c
00000080: 4dc3 343c 7766 e4bc b3a0 d6bc 62c6 313b
00000090: 9659 213d edc4 443d b3da f13c 3af8 873d
000000a0: c691 0bbc ca69 6dbd 541d 84bc 98ba 22bd
000000b0: b65d 61bd d9b2 79bd 711a d03c 2b34 033d
000000c0: f138 173c 9841 1a3d e4fc 8b3d b225 5fbd
000000d0: eabd b7bc 015d a83d f03b 36bd e9b6 61bd
000000e0: 81a0 57bd 0c65 5ebc 71a9 b1bc b0fd 8ebd
000000f0: c772 14bd 6e47 bfbc fc6f bc3d 4343 683d
-0.020635355 -0.02341908 -0.04899522 -0.008569663 -0.033005618 -0.013432632 -0.0058368226 -0.016046338
0.025536971 -0.063814335 0.025468685 -0.042799138 -0.011855994 -0.008376345 0.0046590734 0.045486588
-0.035620693 -0.033176534 -0.036050573 -0.010712565 0.056267746 0.03088634 -0.052157927 -0.050296165
-0.025168236 -0.05468977 0.051376697 -0.022780273 0.028670087 0.047432613 0.005479262 0.030829659
0.011032891 -0.02788089 -0.026199674 0.0027126302 0.039392076 0.048039366 0.02952323 0.06639142
-0.008518642 -0.057962216 -0.016127266 -0.03972873 -0.05502101 -0.060961578 0.025403233 0.032032173
0.0092298845 0.03766021 0.068353444 -0.05447931 -0.022429425 0.08220864 -0.044490755 -0.055106077
-0.052643303 -0.013573896 -0.021687241 -0.06981981 -0.036242273 -0.02334949 0.09201047 0.05670477

fcs.0.weight f4 [6, 128]
00000000: 0455 993c 9a71 40bd 849b 7fbd c35b 1bbe
00000010: 3411 d8bc d0ab 2ebd 57e7 ce3d f692 57be
00000020: 62c4 ecbd d4f5 9dbe 0942 65bb d612 953d
00000030: 22e6 16bd e553 8ebd a729 5dbd 84ad b2bc
00000040: b1a7 513d e5cd 52be bc17 a8bd 2c89 17bd
00000050: d5f4 fcbc d5c2 79be 82d8 2f3e 3a82 64be
00000060: 7233 ecbd 000c 24bd 24e2 2ebe 0894 71be
00000070: 91b5 833d 019f 863d 8c82 7d3c b2b7 55bd
00000080: b847 4dbc 8ca9 98bd f74e 173e 4f56 4abe
00000090: bb52 933d d47b dd3c 0b62 09be a12c 5b3e
000000a0: f0e3 09bd 9e3e a2bc f26b 143e 048b 81be
000000b0: 0ca5 a0bc 8474 d63c 748f d1bc 93b8 adbd
000000c0: b046 c8bd 6981 a6be dad4 cbbe 4b45 8cbd
000000d0: 0a9c c83d 0b11 5b3d e4ac 1d3e 9d27 82be
000000e0: e481 83bd afff 4fbe 9386 793e a12d 853d
000000f0: dcff c3bc 5d71 fdbd f981 44bd cf87 5a3e
00000100: 7295 e13d 4c8b 85bc 2697 91bd 8dd7 0ebd
00000110: d1b9 2dbc 2d17 e7bc 7e9b 473d c100 4ebc
00000120: 86e8 90be 89b6 8e3d e1c3 963e 8d49 78be
00000130: 82b6 a63d 0ed0 cabc f64c 363d 0d79 32bd
00000140: 845f f6bb 71c9 f83d 7688 8cbd f0fd 93bd
00000150: ca35 dfbc 7cb5 48bd 4283 253d af93 b1bd
00000160: c982 afbe a901 02be 4a3b 333d c373 123d
00000170: bbe7 17bd 1cc4 b3be 858e 4b3d f776 b2bc
00000180: 03b5 7a3d fdaa a13c 6d24 74bb 75f1 a53d
00000190: 6238 103d 9c00 203e 8feb 85bd 23df 7ebe
000001a0: 515f 1f3e 3a09 38bd a110 db3c 23d1 ca3d
000001b0: 29a0 2fbd 4351 8c3d ae1a 94bd 0576 963d
000001c0: 38b1 90bc a88c 96bc e39e c7bd 7a0a 01bd
000001d0: 3c0d 46bd 0059 37ba 2c24 15be aa44 ed3d
000001e0: fcaa a53c 804e f93a 7fa1 8b3d d1f1 713e
000001f0: b868 cf3d 84ac aabd 5382 58bd bebd 4abe
00000200: 72db 1ebd 60fa b53b 9101 10bb 28b2 203e
00000210: 90b4 e73b ab3d 013c 1169 e4bc d20e 453d
00000220: 9c1c 5abe 78af d23c 5466 c7bc 3ad7 c9bc
00000230: 95b0 dcbd f96c 36be ca5a 35bd 4f91 923d
00000240: 8036 4c3d ac1d d5bc a82c 78bc 307f a03c
00000250: 4000 4dbe 494c 72be 5804 27be 221b cdbd
00000260: 4641 08be dec5 babd 5b0e 70bd 0a48 29be
00000270: 2854 6c3c 706f f43b 9e33 9a3d fa34 183d
00000280: 4f5a 0c3d e85c a13c 852b 7b3d d4fc 3c3e
00000290: f8dd 9cbc e707 8e3d dce1 83bc 706b 77be
000002a0: 0937 ba3d e9c6 24be 8ac1 f43c b641 09bd
000002b0: f61f 0ebe 2f0e a9be 76a6 183d 1b16 acbd
000002c0: 9aa6 12be 2f62 983c a8e8 7cbe 554f b93d
000002d0: aa90 58be b64b 1a3e 9a7c 353d a075 f5bc
000002e0: 0b3f 0ebe 119d 5bbe 16d3 3fbd 7ca8 0e3e
000002f0: 7b29 f4bd 5a13 8c3d 5acc acbe 12d7 f0bd
00000300: dc4c 643d b1c1 f9bd d340 98bd 5805 af3d
00000310: e52a e23d 26a4 8abc c810 24bc 0c6f 9abd
00000320: 1e46 a23c f6dc b9bd eb2c b53d 289c d0bd
00000330: d492 be3a 1fe9 47bd ff42 d23c 574f a33c
00000340: 3392 113e 4c8f d63b 18e2 87bc 8696 183d
00000350: a2c6 443d 44fe 9c3c 9495 0e3d 087f 623c
00000360: 7f5a 2fbd 8026 5fbe bed7 123d 1fc1 913d
00000370: 4418 db3b 2df1 86be 4f9f fb3c 3001 41bd
00000380: c94f 89bc bb3e 30bd a0af 863d d9f5 87bd
00000390: 2bf7 da3d 6489 8dbe 651a 643d 6c02 3cbe
000003a0: 165f 083e b0e7 7a3d 9b8f 9ebc deea cabd
000003b0: 8bef d83c 8907 22be a030 5dbc aa81 9abd
000003c0: b6e0 4e3d 76bf 3c3d 98b9 d43d 0b94 74be
000003d0: 3405 aabc 9874 033c 2dd1 823d 437d 413d
000003e0: 4271 613d ca40 a4bd c147 ae3d 2131 aa3d
000003f0: 1b04 84bc 6130 fd3d 2038 9bbd 3aa3 58bd
0.018717296 -0.04698334 -0.06240417 -0.15171723 -0.02637539 -0.042644322 0.10102718 -0.21052155
-0.115608945 -0.30851614 -0.0034981987 0.07278983 -0.036840566 -0.06949595 -0.0539948 -0.021811254
0.051185314 -0.20586355 -0.08207652 -0.03699605 -0.030878464 -0.24390729 0.17172435 -0.22315302
-0.1153325 -0.040050507 -0.17078453 -0.23591626 0.064311154 0.06573296 0.015473019 -0.05217714
-0.012529306 -0.074542135 0.14776216 -0.19759487 0.07193514 0.027036585 -0.13416307 0.21403743
-0.033664644 -0.019805249 0.14494303 -0.25301373 -0.01960995 0.026178606 -0.0255811 -0.0848247
-0.097791076 -0.32520607 -0.3981083 -0.06849154 0.09795387 0.05348305 0.15397984 -0.25420848
-0.06421259 -0.2031238 0.24367742 0.06502844 -0.023925714 -0.12375138 -0.047975514 0.2134087
0.110148326 -0.016301773 -0.071089074 -0.034873534 -0.010603384 -0.028209293 0.048732273 -0.012573422
-0.283024 0.069684096 0.2944632 -0.24246807 0.08140279 -0.024757411 0.04450699 -0.043572474
-0.0075187106 0.12147797 -0.06861965 -0.07226169 -0.027247328 -0.049001202 0.04040838 -0.086707465
-0.3427947 -0.12695946 0.043757714 0.03575493 -0.03708623 -0.35110557 0.049696464 -0.021785242
0.061207782 0.019734854 -0.0037253157 0.08102695 0.03521002 0.15625232 -0.0653907 -0.24889807
0.15563704 -0.044930674 0.026741328 0.09903171 -0.04287735 0.06851437 -0.07231651 0.07346729
-0.01766263 -0.018377617 -0.09747102 -0.03150413 -0.048352465 -0.0006994158 -0.1456458 0.11585362
0.020223133 0.0019020587 0.06817912 0.23627402 0.101273954 -0.08333686 -0.05285866 -0.19798943
-0.038783498 0.0055535287 -0.002197359 0.15692961 0.0070710853 0.007888238 -0.02788213 0.048109837
-0.21299976 0.025718436 -0.024340786 -0.02463876 -0.10775868 -0.17815007 -0.044276036 0.07156622
0.049856663 -0.026015125 -0.015147366 0.019591898 -0.20019627 -0.23661913 -0.16310251 -0.10014941
-0.1330615 -0.091197714 -0.05860744 -0.16531387 0.014424361 0.0074595734 0.075293764 0.037159897
0.034265812 0.019697621 0.0613208 0.18455821 -0.019148812 0.06935101 -0.01609891 -0.24162078
0.090925284 -0.16091503 0.029877443 -0.033509932 -0.1387938 -0.33018634 0.037268125 -0.08402654
-0.14321366 0.018601505 -0.24698126 0.090483345 -0.21148935 0.15067944 0.044308282 -0.029963315
-0.13891236 -0.21446635 -0.046832167 0.13931459 -0.11921974 0.068396285 -0.33749658 -0.117597714
0.05573736 -0.12195147 -0.07434239 0.08545941 0.11043338 -0.016923975 -0.010013767 -0.07540712
0.019808825 -0.09075348 0.08846458 -0.101860344 0.0014539608 -0.048806306 0.025666712 0.019935293
0.14215927 0.006547844 -0.016587302 0.037252925 0.048040994 0.019164212 0.034810618 0.013824232
-0.042810913 -0.2179203 0.03585028 0.07116913 0.0066862423 -0.26355878 0.030715613 -0.047120273
-0.016761677 -0.043028574 0.065764666 -0.066386886 0.10691675 -0.27643883 0.055689234 -0.18360299
0.13317522 0.06125611 -0.019355586 -0.099080786 0.02648141 -0.15823187 -0.013500363 -0.07544263
0.05050727 0.04608103 0.10386962 -0.23884599 -0.020754434 0.008023404 0.06387553 0.0472386
0.05503965 -0.0802017 0.0850978 0.08310152 -0.016115239 0.12362743 -0.07579064 -0.05289004

fcs.0.bias f4 [6]
00000000: ee3f 9d3d 0cc1 64bd e290 1c3d 24eb 443d
00000010: 388e 5f3d d34a 82bc
0.07678209 -0.055848166 0.03822411 0.04807581 0.05457899 -0.01590482
