models/Pilot_1_2_shock.pt (torch, 105128 bytes, 10 tensors)

model.0.weight f4 [8, 2, 3, 3]
0.010092611 0.027067604 0.24246307 0.30680925 -0.06948022 0.072102144 0.1582451 0.029616587
-0.16361332 0.44926363 -0.8538426 0.24467407 0.4825885 -0.9942078 0.06478089 0.2973412
0.29973307 0.2993021 -0.154199 0.27250555 -0.09438516 0.20925552 0.1305643 0.19344957
0.16955322 0.07032146 0.24939084 0.1534937 -0.802916 -0.005196252 0.6360504 0.64418674
-0.90470064 0.16410553 0.18313164 0.1144242 -0.009597283 -0.061590288 0.04868095 0.09270489
-0.15172496 -0.07897832 -0.066861644 0.20277694 -0.13985005 0.085079566 -0.5259896 0.46915197
-0.17841719 0.63106513 -0.051009916 -0.67447555 0.31599465 -0.06619382 -0.100129455 0.17726031
0.25337067 0.05281191 0.24462266 0.06918119 -0.031165887 0.110464096 -0.04049465 0.725937
0.882862 -0.5566172 -0.5382897 0.5408731 0.12477257 0.3377831 0.21511954 0.36615813
0.034368306 0.057005044 0.120655805 -0.0062727807 0.20158687 0.26828238 -0.2177163 0.12964281
0.13223189 0.24711247 0.15205477 -1.3165779 0.043541223 0.6776826 -0.23715356 0.39851996
-0.2729969 0.07673831 -0.0594199 -0.016025148 0.31035033 0.15832594 -0.06288741 0.27518862
0.06389819 0.011099565 0.008742206 0.7321819 0.8962544 0.023453947 -0.3727055 0.5921489
-0.8735315 0.62475455 -0.21774194 0.16257316 -0.02452573 0.042679995 0.20703599 0.26792002
-0.04326305 0.23529576 0.23883002 0.20065397 0.027866883 -0.85090977 0.21611993 -0.052329674
0.07749383 0.3701941 0.0420895 -0.16483285 0.1017392 0.3318628 0.1440306 0.083683796
0.060633563 0.055616643 0.219576 0.13341983 -0.08444463 0.031066975 -0.11651398 -0.78333986
0.745502 0.28237912 0.34971935 -0.24946216 -1.0474167 -0.5090839 -0.6649013 0.19489805
00000000: 7b5b 253c e1bc dd3c 3d48 783e 1a16 9d3e
00000010: a54b 8ebd 4aaa 933d 010b 223e 7c9e f23c
00000020: 408a 27be e205 e63e 6e95 5abf d78b 7a3e
00000030: d715 f73e 6784 7ebf d8ab 843d 1b3d 983e
00000040: 9d76 993e 203e 993e 58e6 1dbe d985 8b3e
00000050: 024d c1bd 1447 563e a6b2 053e a517 463e
00000060: 5c9f 2d3e b304 903d 5060 7f3e 742d 1d3e
00000070: e78b 4dbf 5245 aabb 33d4 223f 6ce9 243f
00000080: 769a 67bf 480b 283e dc86 3b3e 3c57 ea3d
00000090: ec3d 1dbc 1946 7cbd ad65 473d 10dc bd3d
000000a0: ca5d 1bbe 63bf a1bd c2ee 88bd c2a4 4f3e
000000b0: da34 0fbe 323e ae3d 41a7 06bf b034 f03e
000000c0: ffb2 36be 7c8d 213f c6ef 50bd 6eaa 2cbf
000000d0: 0dca a13e a090 87bd ac10 cdbd ba83 353e
000000e0: cdb9 813e 4d51 583d 5d7e 7a3e deae 8d3d
000000f0: 9a4f ffbc 003b e23d b8dd 25bd 02d7 393f
00000100: 3e03 623f 777e 0ebf 5bcd 09bf a976 0a3f
00000110: c388 ff3d e8f1 ac3e 4c48 5c3e 1479 bb3e
00000120: c8c5 0c3d 1f7e 693d 641a f73d e68b cdbb
00000130: ca6c 4e3e 4f5c 893e 06f1 5ebe 16c1 043e
00000140: cc67 073e 0d0b 7d3e 3fb4 1b3e a085 a8bf
00000150: 4858 323d 9b7c 2d3f 62d8 72be cf0a cc3e
00000160: 40c6 8bbe fa28 9d3d 4862 73bd 2c47 83bc
00000170: 3de6 9e3e 3220 223e 1dcb 80bd 86e5 8c3e
00000180: 0edd 823d f3da 353c 783b 0f3c 4670 3b3f
00000190: ee70 653f 7e22 c03c 41d3 bebe 1297 173f
000001a0: c39f 5fbf eaef 1f3f bef7 5ebe 9479 263e
000001b0: 2fea c8bc 38d1 2e3d 3e01 543e d02c 893e
000001c0: 9934 31bd 5ff1 703e db8f 743e 3c78 4d3e
000001d0: 1749 e43c 39d5 59bf 8b4e 5d3e a457 56bd
000001e0: 16b5 9e3d 158a bd3e 0a66 2c3d f1c9 28be
000001f0: a45c d03d ece9 a93e c27c 133e 6962 ab3d
00000200: e65a 783d 47ce 633d 88d8 603e 359f 083e
00000210: 4ef1 acbd 2b80 fe3c e29e eebd f688 48bf
00000220: 38d9 3e3f ff93 903e 6a0e b33e 0273 7fbe
00000230: c011 86bf 5353 02bf f936 2abf 5b93 473e

model.0.bias f4 [8]
-0.036826707 0.02344594 0.09162728 0.09596261 -0.14018762 0.17475054 0.10171133 -0.11708498
00000000: 9ad7 16bd b311 c03c 15a7 bb3d 0b88 c43d
00000010: 588d 0fbe cef1 323e 084e d03d 40ca efbd

model.2.weight f4 [16, 8, 3, 3]
-0.04164486 -0.065748446 0.0049694944 -0.08356363 -0.023573322 0.1768517 -0.034317415 -0.14984933
-0.06631202 0.018264916 0.050662838 0.093151316 0.05879069 -0.07542015 0.08297619 -0.015853437
-0.037791673 0.15858205 -0.07602155 0.14651495 0.13097787 -0.14338177 -0.21867849 0.027077662
0.03689388 0.020245932 0.26185107 -0.09297138 -0.015169094 0.09261783 -0.06845984 0.07343622
-0.040046364 -0.05945485 0.14257294 -0.009163474 -0.01529709 0.0289752 0.05702079 0.08732441
-0.0034308888 0.13103192 -0.15032755 0.20486973 -0.07115547 -0.12034861 -0.091461115 0.21927738
-0.050715037 0.066769555 0.10992681 0.05229745 -0.03430323 0.107725985 0.110576354 0.0977094
-0.059326604 0.11344302 -0.022597866 -0.044942576 -0.027444672 0.058977164 -0.11379965 0.40684775
-0.03371264 0.062342316 0.036350098 -0.0019454064 -0.07057505 -0.16657144 -0.060194448 0.065945834
-0.007161535 -0.04551162 0.10635541 0.18680738 -0.07372449 0.13310787 0.19887054 -0.052144498
-0.090820596 0.04553175 -0.06250023 0.061841965 -0.07100998 -0.05647945 0.04943826 -0.000766785
0.15124339 0.061625905 0.22421952 0.11165752 -0.12460572 0.26847365 0.029684016 0.15352213
0.29970577 0.32795814 -0.12116508 0.055525593 0.048805814 0.13204195 -0.06820741 0.04713391
-0.0059281783 0.054448567 -0.06819528 -0.043627836 -0.16338038 -0.0011683955 -0.33847046 0.03285959
0.050532874 -0.046584945 0.09390508 -0.17666742 0.06922187 0.09989908 0.21634573 0.03786759
0.08765484 0.076603696 -0.06261194 -0.004622945 0.12894462 0.035404485 -0.09801366 0.072967246
-0.030146232 -0.015562954 0.11654178 0.09068318 -0.07712097 0.027566144 0.020000923 0.16745386
-0.035866022 -0.07052144 0.16397911 0.06412361 -0.14939195 -0.0936822 -0.1059751 0.12267115
-0.1080243 0.019438634 0.09073196 0.06735261 0.014420399 -0.055182707 0.05786088 -0.113392085
0.2374542 0.15165833 -0.024563478 -0.12803717 -0.08999601 -0.05139132 -0.05583017 -0.0473974
0.14505811 -0.06601127 0.07671328 -0.099156305 -0.04887611 0.04817538 0.06111011 -0.1627443
0.6815661 0.3523097 0.0778824 0.020254377 0.1209721 0.03296895 0.07576191 0.07222463
0.07841171 0.102563344 -0.04576522 -0.09558609 0.0011415589 0.0004863556 0.12311073 0.07771917
-0.11434133 -0.037323967 0.14015156 0.06524704 0.2427404 0.010861691 -0.052559108 0.053912595
-0.015819212 0.017560592 -0.05191881 -0.084482804 0.14193933 0.0666978 -0.020883437 -0.072663985
-0.10754703 0.055131353 -0.0023727736 -0.023099435 0.04181119 -0.028181225 0.010357278 0.039784573
-0.31501946 -0.2554524 -0.047577284 -0.25815973 -0.11622895 0.12994304 0.15972203 -0.005551717
-0.002451928 0.047656402 -0.19120228 -0.040671635 0.06575704 -0.019663068 0.07077838 0.10071526
0.07053507 0.09755851 -0.17052114 0.04891018 0.046190485 0.016939644 -0.06284272 -0.071733415
0.074691 0.03180369 0.32682312 -0.23584019 -0.15026149 -0.045305446 0.03542404 0.042498317
-0.17408781 0.05130284 0.031169571 0.023596417 0.15442738 0.14452082 0.08632866 -0.028906364
0.010595599 -0.05591204 -0.06113806 0.07153906 0.047103018 -0.12770522 -0.0909818 -0.07804009
00000000: cd93 2abd 1fa7 86bd 24d7 a23b 6923 abbd
00000010: d71c c1bc 9d18 353e 6b90 0cbd 1a72 19be
00000020: 99ce 87bd 4ea0 953c d683 4f3d 1ec6 be3d
00000030: 82ce 703d e175 9abd 6cef a93d 11df 81bc
00000040: 71cb 1abd 5563 223e 30b1 9bbd 0408 163e
00000050: 101f 063e acd2 12be 41ed 5fbe f9d1 dd3c
00000060: 0a1e 173d ccda a53c 5811 863e c767 bebd
00000070: cb87 78bc 6bae bd3d ac34 8cbd bb65 963d
00000080: a807 24bd ee86 73bd a4fe 113e 6522 16bc
00000090: a5a0 7abc 665d ed3c a28e 693d 24d7 b23d
000000a0: c3d8 60bb 3b2d 063e 77ef 19be 5fc9 513e
000000b0: f6b9 91bd 5579 f6bd f74f bbbd 408a 603e
000000c0: 92ba 4fbd 7abe 883d 4f21 e13d da35 563d
000000d0: 8b81 0cbd 719f dc3d db75 e23d de1b c83d
000000e0: 7400 73bd d054 e83d 291f b9bc b515 38bd
000000f0: a6d3 e0bc 0a92 713d ca0f e9bd 594e d03e
00000100: 4416 0abd a85a 7f3d d7e3 143d 02fd feba
00000110: a789 90bd b491 2abe 748e 76bd 9c0e 873d
00000120: 4fab eabb 646a 3abd ddd0 d93d 6f4a 3f3e
00000130: defc 96bd 6e4d 083e b8a4 4b3e 7895 55bd
00000140: 2600 babd 807f 3a3d 1f00 80bd 004e 7d3d
00000150: ae6d 91bd ff56 67bd c67f 4a3d 1202 49ba
00000160: 8cdf 1a3e 726b 7c3d cd99 653e b3ac e43d
00000170: 4931 ffbd 6175 893e e52b f33c e834 1d3e
00000180: 0973 993e 21ea a73e 6625 f8bd ce6e 633d
00000190: 9be8 473d 0136 073e 54b0 8bbd 7d0f 413d
000001a0: 2a41 c2bb 7605 5f3d f8a9 8bbd 1ab3 32bd
000001b0: 304d 27be d924 99ba 004c adbe c797 063d
000001c0: 8ffb 4e3d dbcf 3ebd 4e51 c03d 4ee8 34be
000001d0: 32c4 8d3d e497 cc3d bc89 5d3e 0c1b 1b3d
000001e0: 6184 b33d 66e2 9c3d b03a 80bd 137c 97bb
000001f0: 0f0a 043e 4b04 113d 63bb c8bd da6f 953d
00000200: 3bf5 f6bc c3fb 7ebc 75ad ee3d 1ab8 b93d
00000210: 99f1 9dbd 65d2 e13c fad8 a33c 0679 2b3e
00000220: 40e8 12bd 8b6d 90bd 24ea 273e 3d53 833d
00000230: 34fa 18be 74dc bfbd 7909 d9bd 033b fb3d
00000240: d83b ddbd c53d 9f3c aed1 b93d 2af0 893d
00000250: 8a43 6c3c 4307 62bd 88ff 6c3d 1c3a e8bd
00000260: 3227 733e 524c 1b3e 5939 c9bc 2d1c 03be
00000270: d44f b8bd b47f 52bd 2dae 64bd c723 42bd
00000280: 1d8a 143e eb30 87bd da1b 9d3d 7612 cbbd
00000290: 5132 48bd 8c53 453d 984e 7a3d 71a6 26be
000002a0: 1e7b 2e3f f061 b43e cf80 9f3d 82ec a53c
000002b0: 38c0 f73d 730a 073d 0f29 9b3d 82ea 933d
000002c0: 5296 a03d bb0c d23d 5074 3bbd a4c2 c3bd
000002d0: 5ca0 953a 8bfd fe39 7a21 fc3d 3a2b 9f3d
000002e0: ca2b eabd 04e1 18bd e483 0f3e 3da0 853d
000002f0: f090 783e 3cf5 313c 3848 57bd 74d3 5c3d
00000300: 4b97 81bc 3bdb 8f3c d1a8 54bd 5205 adbd
00000310: 8b58 113e db98 883d be13 abbc dbd0 94bd
00000320: 9e41 dcbd 6ad1 613d 8980 1bbb 073b bdbc
00000330: 3642 2b3d 50dc e6bc 93b1 293c 26f5 223d
00000340: 3b4a a1be a8ca 82be 66e0 42bd 832d 84be
00000350: 7209 eebd ca0f 053e 2c8e 233e 2deb b5bb
00000360: 87b0 20bb 5c33 433d 88ca 43be 4d97 26bd
00000370: a1ab 863d 7114 a1bc 41f4 903d cd43 ce3d
00000380: b174 903d c2cc c73d 189d 2ebe 0a56 483d
00000390: 3c32 3d3d 02c5 8a3c afb3 80bd f8e8 92bd
000003a0: 98f7 983d 9644 023d 5c55 a73e 1780 71be
000003b0: 26de 19be 3492 39bd cc18 113d b712 2e3d
000003c0: 1344 32be ed22 523d 5457 ff3c 464d c13c
000003d0: 3622 1e3e 44fd 133e 15cd b03d 0acd ecbc
000003e0: 2a99 2d3c 0604 65bd e76b 7abd 1283 923d
000003f0: 18ef 403d 28c5 02be aa54 babd 7cd3 9fbd

model.2.bias f4 [16]
0.0751539 -0.019099206 -0.02810536 -0.030922726 0.08829081 0.10858408 -0.038024586 -0.10723614
0.022281464 0.04463251 0.054803394 -0.015637172 -0.055077728 -0.042080134 0.031933583 0.04885586
00000000: 4aea 993d f075 9cbc 363d e6bc a851 fdbc
00000010: d0d1 b43d 5561 de3d abbf 1bbd 9f9e dbbd
00000020: 9e87 b63c 94d0 363d 8679 603d 8719 80bc
00000030: 2f99 61bd 385c 2cbd cacc 023d 151d 483d

model.4.weight f4 [32, 16, 3, 3]
-0.04342972 0.09449789 0.1531999 0.06115205 -0.030689042 0.02034154 0.1365165 -0.012099562
-0.049969636 0.014831649 -0.017117258 -0.065875 0.038652178 -0.10006082 -0.056138963 0.05498247
-0.0027186284 -0.052482165 -0.07470648 0.010759897 -0.12362864 -0.04287896 -0.013405745 0.09258138
-0.10273864 0.08117482 -0.21005724 0.12648967 0.006522058 -0.047875993 0.07095584 -0.017567294
-0.06916231 -0.0100093195 0.08411222 0.142448 0.04278034 -0.022070562 0.07668153 -0.0003739583
-0.13527548 -0.085190974 0.03613965 -0.04664512 -0.05179468 0.09894047 -0.024407374 -0.016103057
-0.001910295 0.13509536 0.2200388 0.065702096 -0.054382324 0.069422744 -0.07026009 0.191528
0.021689823 -0.11423721 -0.12900805 -0.12613739 -0.024944443 -0.052456006 -0.20077232 -0.15581918
-0.1189324 0.39440608 -0.32447112 0.2772263 -0.12293298 -0.13398822 0.1758406 -0.2790261
0.07637481 -0.33470803 -0.7428546 -0.2394071 -0.019777548 -0.36937973 0.052138302 0.2102941
0.16489021 -0.033103 -0.21841687 0.048746202 -0.012774433 -0.059331164 -0.07076926 -0.066184536
0.04714992 0.10256843 0.042273305 0.14332011 0.12865266 0.13943273 0.052332476 0.008161544
0.003949053 0.12893103 0.03764922 -0.111178786 0.052537065 0.2012485 0.11012908 -0.07065243
0.027125385 0.06277269 0.099195495 0.030713487 -0.09457508 0.011495169 -0.18214774 -0.0680614
-0.1202291 -0.043477602 0.118130565 0.06781855 -0.026225755 0.05706913 0.042605996 0.10849067
0.10600193 0.12944826 0.05169774 -0.1358443 -0.026634077 -0.098137 0.017124979 0.023490207
0.09175167 0.012668025 -0.02094233 0.10662839 -0.017550113 -0.008429816 -0.0029058456 -0.058022223
0.13755979 -0.016259113 0.1044391 0.071475394 0.15548417 0.010813044 -0.08919001 0.07764456
-0.007399731 -0.06996443 0.058140844 -0.07147081 0.019384371 0.018286325 -0.010285221 0.005876516
-0.013175498 0.013371497 0.019382112 -0.013379943 -0.060289912 -0.03549228 0.02875232 0.09112632
-0.00477991 -0.05685393 0.04719452 0.049209118 0.03796209 0.082244 -0.073629536 -0.07067506
-0.10535711 -0.032988463 -0.01795497 0.026377479 -0.0004000135 0.0032053138 -0.0038849516 0.05497022
0.0033381903 -0.0486876 -0.024623837 0.19823718 0.06322738 -0.013659194 0.065372705 0.08764099
0.03074621 -0.048627168 0.012054187 -0.07809161 -0.11628675 0.081313275 0.011891466 -0.00044032617
-0.00860329 -0.07525567 0.06750425 -0.024701398 0.1593986 0.12827598 0.08678216 0.103597775
-0.07234387 0.050048783 0.006880771 0.07939387 0.089845024 0.009759699 0.07102085 -0.103378735
-0.094707936 -0.086336836 0.002147839 0.12085116 -0.10576583 -0.10334751 0.06871622 -0.13274175
0.026671216 0.10713612 0.06438163 0.06566752 -0.05243358 0.06630951 -0.03768324 0.022247633
0.095819876 0.0035371773 0.1169927 0.038794033 -0.014619568 0.03932611 -0.023101283 0.06500394
0.015986206 0.10756862 -0.08298005 0.11900263 -0.004045064 0.032639086 -0.10580722 -0.114511
-0.03463333 0.005523195 -0.04199228 -0.03295839 -0.03928751 0.08875336 -0.009249003 0.04864368
0.09319916 0.08875583 0.0709102 0.07062003 -0.020911217 0.04158073 -0.01393933 0.06536548
00000000: 5de3 31bd 1c88 c13d 6fe0 1c3e 927a 7a3d
00000010: 9667 fbbc 4da3 a63c fbca 0b3e 3e3d 46bc
00000020: f6ac 4cbd 7200 733c 7e39 8cbc 79e9 86bd
00000030: bf51 1e3d b0ec ccbd f8f1 65bd 4c35 613d
00000040: 042b 32bb 8af7 56bd b6ff 98bd 474a 303c
00000050: 0331 fdbd d9a1 2fbd c5a3 5bbc 4e9b bd3d
00000060: a368 d2bd fc3e a63d 3f19 57be 8286 013e
00000070: fdb6 d53b 9e19 44bd 4c51 913d 49e9 8fbc
00000080: f8a4 8dbd 21fe 23bc 0743 ac3d e3dd 113e
00000090: 703a 2f3d 53cd b4bc 350b 9d3d d50f c4b9
000000a0: a885 0abe 9b78 aebd 2b07 143d f40e 3fbd
000000b0: a926 54bd 4da1 ca3d f9f1 c7bc 8fea 83bc
000000c0: dd62 faba 7056 0a3e da51 613e d28e 863d
000000d0: 00c0 5ebd 832d 8e3d 86e4 8fbd eb1f 443e
000000e0: dbae b13c 33f5 e9bd b01a 04be 292a 01be
000000f0: 4a58 ccbc 1cdc 56bd 4297 4dbe 108f 1fbe
00000100: d592 f3bd 98ef c93e 1421 a6be 9bf0 8d3e
00000110: 49c4 fbbd 3534 09be 8f0f 343e 82dc 8ebe
00000120: 656a 9c3d da5e abbe b82b 3ebf 2327 75be
00000130: 8604 a2bc 571f bdbe f98e 553d 5657 573e
00000140: fbd8 283e 0397 07bd aca8 5fbe 19aa 473d
00000150: db4b 51bc 3c05 73bd 79ef 90bd c28b 87bd
00000160: 4620 413d 660f d23d c626 2d3d 82c2 123e
00000170: 86bd 033e 74c7 0e3e 945a 563d ffb7 053c
00000180: 0f67 813b 7f06 043e 1236 1a3d b4b1 e3bd
00000190: 1b31 573d 1614 4e3e 5b8b e13d 39b2 90bd
000001a0: 0e36 de3c f88e 803d 0227 cb3d da9a fb3c
000001b0: 94b0 c1bd 3c56 3c3c f084 3abe c663 8bbd
000001c0: ad3a f6bd 9215 32bd 70ee f13d 74e4 8a3d
000001d0: 65d7 d6bc 52c1 693d a083 2e3d 5b30 de3d
000001e0: 8a17 d93d 168e 043e 02c1 533d c51a 0bbe
000001f0: b52f dabc 0dfc c8bd af49 8c3c 896e c03c
00000200: 4de8 bb3d 8c8d 4f3c 408f abbc fc5f da3d
00000210: 41c5 8fbc 361d 0abc 0070 3ebb b6a8 6dbd
00000220: 79dc 0c3e d531 85bc 2be4 d53d b161 923d
00000230: 3e37 1f3e 3229 313c 41a9 b6bd 1c04 9f3d
00000240: 7179 f2bb 8349 8fbd 1825 6e3d 4a5f 92bd
00000250: f9cb 9e3c 34cd 953c 5883 28bc ca8f c03b
00000260: 0bde 57bc 2014 5b3c 3cc7 9e3c 8c37 5bbc
00000270: 8ef2 76bd 5a60 11bd fc89 eb3c 70a0 ba3d
00000280: cba0 9cbb abdf 68bd 0a4f 413d 808f 493d
00000290: 237e 1b3d 8b6f a83d 15cb 96bd 16be 90bd
000002a0: 78c5 d7bd e91e 07bd 4d16 93bc 9515 d83c
000002b0: e7b8 d1b9 3e10 523b ac9a 7ebb 7428 613d
000002c0: 8ac5 5a3b a66c 47bd eeb7 c9bc b0fe 4a3e
000002d0: 5b7d 813d d0ca 5fbc 20e2 853d 1f7d b33d
000002e0: 7adf fb3c 482d 47bd ed7e 453c 7eee 9fbd
000002f0: bf27 eebd 9387 a63d 6cd4 423c 94db e6b9
00000300: d0f4 0cbc a51f 9abd ab3f 8a3d 965a cabc
00000310: 6339 233e c75a 033e d8ba b13d 122b d43d
00000320: 0629 94bd f4ff 4c3d 1778 e13b 4199 a23d
00000330: ab00 b83d 25e7 1f3c 6173 913d 3bb8 d3bd
00000340: 3cf6 c1bd 5ed1 b0bd c2c2 0c3b d080 f73d
00000350: c19b d8bd dca7 d3bd 17bb 8c3d 74ed 07be
00000360: 987d da3c 2f6a db3d 84da 833d b17c 863d
00000370: 98c4 56bd 48cd 873d be59 1abd ab40 b63c
00000380: 363d c43d fdcf 673b de99 ef3d 7ee6 1e3d
00000390: ea86 6fbc 6a14 213d e73e bdbc c920 853d
000003a0: 81f5 823c f04c dc3d 72f1 a9bd a7b7 f33d
000003b0: 758c 84bb 90b0 053d 75b1 d8bd be84 eabd
000003c0: aedb 0dbd ebfb b43b 1900 2cbd 60ff 06bd
000003d0: f1eb 20bd 52c4 b53d 2189 17bc 983e 473d
000003e0: 34df be3d 9ec5 b53d 5e39 913d 3ca1 903d
000003f0: 004e abbc 8e50 2a3d ca61 64bc 56de 853d

model.4.bias f4 [32]
0.006933988 0.034789506 -0.05516214 0.03356119 0.06301358 -0.034964796 0.04436624 -0.030799042
-0.023161087 0.06250049 -0.016004026 0.0667038 0.0020995396 0.069575384 -0.01764806 0.021518566
-0.029811606 -0.043885805 0.040347587 -0.08164556 -0.023343163 0.047596905 0.069001876 -0.053339474
-0.014556905 -0.069472745 0.07272172 0.084223464 -0.06712125 0.024013076 -0.07644397 -0.056939933
00000000: 8236 e33b 717f 0e3d b2f1 61bd 7577 093d
00000010: 440d 813d 3f37 0fbd 60b9 353d 464e fcbc
00000020: 52bc bdbc 4200 803d e01a 83bc 009c 883d
00000030: 6e98 093b 8a7d 8e3d aa92 90bc b447 b03c
00000040: 7837 f4bc 9ac1 33bd 8343 253d ca35 a7bd
00000050: 293a bfbc f9f4 423d db50 8d3d 7e7a 5abd
00000060: 1680 6ebc ba47 8ebd 20ef 943d 5a7d ac3d
00000070: de76 89bd 12b7 c43c a88e 9cbd d939 69bd

model.6.weight f4 [64, 32, 3, 3]
0.071099445 -0.056629777 0.083474785 0.013830312 -0.015371197 0.08125547 -0.048843656 0.12354991
0.094682865 -0.040184025 0.020854268 -0.024759024 -0.07491797 -0.008594778 0.009571355 0.06280291
0.026735337 0.05842807 0.08916881 -0.0021463246 0.026832372 -0.08549905 0.03909724 -0.04769561
-0.02794012 -0.012830444 -0.09232219 0.05980619 -0.045225166 0.013875911 0.03079755 -0.061058264
0.046531983 -0.0227596 -0.11784084 0.06252826 0.029861797 -0.018134076 -0.013122459 0.1005825
-0.01936868 -0.068758026 0.06193427 -0.13865066 0.08762902 0.0051083737 -0.12964514 0.11077012
0.077588685 0.08905704 0.101052314 0.07500408 -0.060769316 -0.005964529 0.023940977 -0.09479001
0.01053702 0.0296872 0.04195001 0.09540216 -0.026500301 -0.04041242 -0.03777478 0.073985085
0.018365735 -0.115090266 0.012729554 0.11365002 -0.076576814 -0.05277145 0.06705389 -0.034680776
0.05702731 -0.041598234 -0.3402752 0.0054740254 -0.08295405 -0.032350548 -0.0687211 -0.12810266
-0.10578954 0.045417838 -0.026437083 -0.01961062 -0.063376755 0.020011479 -0.045783922 0.18644065
-0.078356504 0.23822197 0.0022791666 0.069944635 0.056242347 -0.011625023 0.14000003 -0.10808168
0.039928883 0.120159514 0.09722842 0.10106925 -0.09103814 -0.08517092 0.09837998 -0.03828653
-0.11967823 -0.014951765 -0.25055265 -0.074300304 -0.042980693 0.036977295 0.009513754 -0.019644413
0.024347354 -0.02441753 0.0016169623 0.042624824 0.0554025 0.103214264 -0.121508904 -0.19417292
0.08424811 -0.013883264 0.1494024 -0.029050196 0.055357862 0.020233369 -0.032642893 -0.0078893015
0.016754523 -0.03189367 -0.016071694 0.0679014 0.066609904 -0.00082997355 0.03242547 0.03553459
-0.077002995 0.112371475 -0.064342275 0.031758007 -0.015862701 0.039011564 0.06464183 0.0509589
0.016270017 0.08546135 0.07856302 0.13221027 -0.06970936 0.07595298 -0.01971212 0.077420026
-0.031073432 0.13302693 -0.025364747 -0.036653895 -0.014044225 -0.11313884 0.05569405 -0.029144311
-0.047137678 -0.10140362 0.029630827 0.021642854 0.064843506 0.0781346 -0.03340859 -0.037071377
0.06631576 -0.10719376 0.05653107 0.07365046 0.036803592 0.09978306 0.10757369 -0.17551602
-0.045764606 0.07539118 0.056857917 0.05238382 -0.103338 -0.059065104 0.097973704 -0.04028973
-0.043608863 -0.07460459 0.02397487 0.13243333 0.15381038 0.085796 -0.004689951 0.030796755
0.012175002 -0.119233206 -0.031819668 -0.05290139 0.030131757 -0.1243614 0.0986882 -0.12255499
-0.019351073 0.025182376 -0.02077278 -0.17990114 0.022570364 -0.1425631 0.016831389 0.05637711
0.15103512 0.07565181 0.05576442 0.07610679 -0.12514366 0.0376595 0.030198548 -0.037358683
0.12831411 -0.04614815 -0.080828786 0.17464434 -0.12255883 0.078441575 -0.15335694 -0.004008823
0.042317968 -0.14554036 -0.13320981 0.017200142 0.026623342 -0.054769132 0.11354454 0.040460877
0.02512614 0.10860305 0.012820837 0.039477274 -0.11592295 -0.08598395 -0.08894476 -0.13771671
0.04664253 -0.054903295 0.06443316 0.056945037 -0.022602389 0.05525259 0.053612668 -0.19713113
0.047126602 0.0056500724 -0.15431723 0.1121197 -0.054305475 0.11913139 0.014483518 0.04652739
00000000: 969c 913d a0f4 67bd d4f4 aa3d 8898 623c
00000010: 79d7 7bbc 4569 a63d 4910 48bd bc07 fd3d
00000020: 17e9 c13d 0198 24bd 92d6 aa3c 70d3 cabc
00000030: 986e 99bd 1dd1 0cbc 2cd1 1c3c d09e 803d
00000040: 1104 db3c 4652 6f3d 239e b63d 5aa9 0cbb
00000050: 90cf db3c 201a afbd 6d24 203d 795c 43bd
00000060: aee2 e4bc c836 52bc 6b13 bdbd 56f7 743d
00000070: 063e 39bd ca57 633c 254b fc3c 3b18 7abd
00000080: 5298 3e3d 5772 babc 8a56 f1bd d10e 803d
00000090: baa0 f43c ea8d 94bc 95ff 56bc 33fe cd3d
000000a0: 11ab 9ebc 02d1 8cbd caae 7d3d 70fa 0dbe
000000b0: d876 b33d 2564 a73b b2c1 04be 72db e23d
000000c0: d1e6 9e3d 8a63 b63d 84f4 ce3d bd9b 993d
000000d0: 3fe9 78bd 1872 c3bb de1f c43c 4421 c2bd
000000e0: 77a3 2c3c 9232 f33c c6d3 2b3d 3562 c33d
000000f0: 2917 d9bc 7e87 25bd bab9 1abd 7e85 973d
00000100: bd73 963c 72b4 ebbd 9f8f 503c 57c1 e83d
00000110: 4ed4 9cbd e026 58bd 8d53 893d 6e0d 0ebd
00000120: 7895 693d e962 2abd 8d38 aebe 745f b33b
00000130: d0e3 a9bd 0282 04bd a6bd 8cbd 582d 03be
00000140: 30a8 d8bd 0e08 3a3d 9592 d8bc 73a6 a0bc
00000150: accb 81bd 1def a33c ec87 3bbd 4cea 3e3e
00000160: 6079 a0bd 76f0 733e 125e 153b 223f 8f3d
00000170: 605e 663d e176 3ebc 2b5c 0f3e ee59 ddbd
00000180: 788c 233d 3116 f63d b21f c73d 65fd ce3d
00000190: 3472 babd 176e aebd 717b c93d 56d2 1cbd
000001a0: dc19 f5bd 3ff8 74bc 7048 80be c22a 98bd
000001b0: 860c 30bd 8175 173d 94df 1b3c 52ed a0bc
000001c0: 1a74 c73c 4607 c8bc 40f0 d33a 5e97 2e3d
000001d0: bbed 623d 0062 d33d a9d9 f8bd 44d5 46be
000001e0: 468a ac3d a176 63bc f1fc 183e adfa edbc
000001f0: edbe 623d 73c0 a53c 8eb4 05bd 2142 01bc
00000200: c840 893c f0a2 02bd c9a8 83bc e40f 8b3d
00000210: c66a 883d 9592 59ba 92d0 043d b88c 113d
00000220: bfb3 9dbd 0423 e63d e2c5 83bd af14 023d
00000230: 7ff2 81bc 97ca 1f3d f062 843d 48ba 503d
00000240: b348 853c 5c06 af3d a6e5 a03d 2162 073e
00000250: c8c3 8ebd 3c8d 9b3d 507b a1bc 648e 9e3d
00000260: b68d febc 3638 083e bbc9 cfbc 6522 16bd
00000270: c019 66bc 56b5 e7bd 721f 643d 0dc0 eebc
00000280: 7013 41bd b3ac cfbd 59bc f23c 5b4c b13c
00000290: accc 843d 0805 a03d 72d7 08bd 28d8 17bd
000002a0: 8fd0 873d 6788 dbbd 208d 673d 0dd6 963d
000002b0: 5dbf 163d 105b cc3d 984f dc3d 79ba 33be
000002c0: ab73 3bbd b166 9a3d d9e3 683d 6b90 563d
000002d0: e0a2 d3bd 40ee 71bd 70a6 c83d d806 25bd
000002e0: 359f 32bd 4bca 98bd f266 c43c 9a9c 073e
000002f0: 7880 1d3e d0b5 af3d 29ae 99bb 7a49 fc3c
00000300: a979 473c 8a30 f4bd 5755 02bd 21af 58bd
00000310: e0d6 f63c 31b1 febd 0a1d ca3d 1cfe fabd
00000320: 2486 9ebc 454b ce3c ad2b aabc 0138 38be
00000330: 7ce5 b83c 10fc 11be fbe1 893c afeb 663d
00000340: f3a8 1a3e 56ef 9a3d 3c69 643d e0dd 9b3d
00000350: a925 00be d940 1a3d f262 f73c 6b05 19bd
00000360: c664 033e d805 3dbd 9089 a5bd f7d5 323e
00000370: 2000 fbbd faa5 a03d 9a09 1dbe 725c 83bb
00000380: 9b55 2d3d 8808 15be 2768 08be 50e7 8c3c
00000390: 3219 da3c 9955 60bd 0a8a e83d 4eba 253d
000003a0: 56d5 cd3c 476b de3d 7d0e 523c ecb2 213d
000003b0: 0369 edbd 5a18 b0bd ac28 b6bd 9c05 0dbe
000003c0: 3d0c 3f3d 47e2 60bd 88f5 833d 333f 693d
000003d0: a528 b9bc 8a50 623d f598 5b3d bedc 49be
000003e0: d307 413d 3e24 b93b 5605 1ebe 039f e53d
000003f0: 6b6f 5ebd 28fb f33d 474c 6d3c 8193 3e3d

model.6.bias f4 [64]
0.0067028813 -0.0024993366 0.0333416 0.039644103 -0.031868044 0.04285269 -0.045497812 -0.007331028
0.014037275 0.018329017 0.009161831 -0.022053484 0.0008155114 -0.037690736 -0.020957991 0.052846633
-0.060041223 0.06674188 0.027789887 0.019926637 0.03137904 0.036558922 -0.022082547 0.00091577787
-0.022735277 0.04057937 -0.0624424 0.058921248 -0.011771953 0.024905682 -0.046378538 -0.00095028395
0.01112036 0.0117738005 0.011257093 0.07748855 0.06744758 0.02565628 0.03071731 0.0063608163
-0.010599763 -0.008411617 0.025411777 0.041865237 -0.024615034 -0.0035590755 -0.0062341667 -0.047587246
0.0064345184 0.03554013 0.019097963 0.044895574 0.04352231 0.008036425 0.098224625 0.05236891
0.044717252 -0.036934033 0.0033644582 0.030922377 0.0036683872 -0.02303845 -0.001518571 -0.0019883574
00000000: d8a3 db3b e9cb 23bb 3491 083d db61 223d
00000010: 1188 02bd 4d86 2f3d ea5b 3abd 1f39 f0bb
00000020: 99fc 653c bc26 963c 811b 163c 82a9 b4bc
00000030: 0bc8 553a 9a61 1abd 18b0 abbc b675 583d
00000040: c9ed 75bd f7af 883d 9ea7 e33c 303d a33c
00000050: 4f87 003d cfbe 153d 75e6 b4bc d010 703a
00000060: 553f babc 8e36 263d 9ac3 7fbd 6857 713d
00000070: 26df 40bc 0007 cc3c 6cf7 3dbd 7a1c 79ba
00000080: 2c32 363c e6e6 403c ac6f 383c 51b2 9e3d
00000090: f521 8a3d 1e2d d23c dea2 fb3c 656e d03b
000000a0: a1aa 2dbc e1d0 09bc 5c2c d03c e27a 2b3d
000000b0: 78a5 c9bc 613f 69bb fb47 ccbb d8ea 42bd
000000c0: a7d8 d23b 8792 113d 5573 9c3c 6ce4 373d
000000d0: 7344 323d 36ab 033c fe29 c93d c880 563d
000000e0: 7029 373d 2448 17bd 3e7e 5c3b ed50 fd3c
000000f0: 5369 703b 22bb bcbc ca0a c7ba 1a4f 02bb

fcs.0.weight f4 [6, 128]
-0.035753448 0.00083804573 -0.14758101 0.21294823 0.07998035 -0.069598116 -0.0031289223 -0.074234016
0.044718113 -0.020838268 -0.20216459 0.07593402 0.065785274 -0.056868162 0.0948098 -0.03042063
-0.01207448 0.009954052 0.051202595 0.11664133 0.0692639 0.14159773 0.0064931666 0.08716586
0.016821116 -0.042010847 0.08672516 -0.0010366365 0.41177717 0.1449971 -0.081924 -0.0042876313
0.02092805 -0.08668162 -0.29492477 0.20160106 0.1258495 -0.14908431 0.040934525 -0.009603731
0.07789615 0.07099356 0.078700095 0.02824569 -0.010459147 -0.07227787 -0.04204411 -0.010386947
-0.08185626 -0.24942522 0.061461367 -0.5548097 -0.054241545 -0.027646307 0.22069514 0.06105687
0.098752595 -0.19801724 -0.029369779 -0.1949002 -0.026467565 0.057534292 0.11074873 0.047114618
0.1498523 0.18311447 -0.07077559 0.07364335 0.00821559 0.045041867 -0.09616596 -0.17542891
0.03183678 0.02379836 0.015931413 -0.07448354 -0.060629215 0.046894684 -0.06616415 0.16825633
0.03925302 -0.058336377 -0.056339666 0.13031863 0.004502647 -0.008108123 0.0959281 -0.06419231
-0.11965517 -0.053675894 -0.03674226 -0.30092803 0.078273065 0.15100242 0.042876817 -0.050359935
0.13430646 -0.025172656 0.073720135 -0.35952204 -0.018378187 -0.084017955 -0.11219294 0.009776791
0.011578316 -0.22789735 0.21579583 0.22098911 0.06437029 -0.09009137 -0.032087017 0.021147566
-0.3005898 0.13383287 -0.05653908 -0.097415395 -0.041008778 -0.10472192 -0.115139484 -0.11712214
0.0068188175 0.029255811 0.059870794 -0.01725267 -0.09940754 -0.10707394 0.005511037 0.0807336
0.22203821 -0.28093293 0.28799552 0.062428873 0.0073032198 -0.019057624 0.044058893 0.027175628
-0.031683423 -0.12791406 -0.1804525 -0.17342182 0.036600105 -0.0036910428 -0.055827215 -0.088705614
0.07061943 0.043637227 0.19376488 0.09054339 -0.07094346 -0.08504717 0.04483085 -0.061999854
0.040260416 -0.31942964 -0.079568096 0.06134711 -0.57427263 0.38938767 -0.17297998 -0.27760845
0.16664393 0.114317104 -0.08145351 -0.054885924 0.2032821 0.15009227 -0.011372398 0.017772175
-0.025660284 -0.055055022 0.055905465 0.00474869 0.027704906 0.0769705 0.046081893 0.009436689
-0.091062054 0.008826173 0.13459915 0.17194295 0.04339797 0.03625674 -0.05407788 0.17074275
-0.123436615 0.08913629 -0.16751072 -0.14733523 0.076449744 0.014016572 0.10697993 0.1808889
0.03749186 0.4010636 -0.07999554 -0.056639094 0.05068232 -0.09920137 -0.07811284 -0.09344636
-0.040972624 0.22841565 -0.006579131 0.029572137 0.11232419 0.041764334 0.27788323 0.12740624
-0.11059359 0.14686957 0.20637186 -0.3854787 -0.17218241 -0.18955758 -0.30390865 -0.097722664
-0.08579796 0.16009803 -0.12510046 -0.3699765 0.106831 0.065845214 -0.056478582 -0.03024442
0.11044503 -0.05639182 -0.21409592 -0.016355157 -0.0064038015 0.08442651 0.112072445 -0.097401634
-0.11083837 -0.023805022 -0.40438053 -0.030722195 -0.2809754 -0.11186224 0.106893495 0.15736845
-0.05652249 0.077088974 0.09302746 0.11129108 0.089057215 0.09397704 -0.07178064 -0.11972783
-0.03207405 0.062977605 -0.055453617 -0.077017285 -0.106790155 -0.2844831 0.03817987 0.11076199
00000000: 3572 12bd 4cb0 5b3a 7a1f 17be 1a0f 5a3e
00000010: bdcc a33d 7589 8ebd 9b0e 4dbb 0108 98bd
00000020: 572a 373d 04b5 aabc 3c04 4fbe 4c83 9b3d
00000030: 6eba 863d 97ee 68bd a42b c23d af34 f9bc
00000040: 0ad4 45bc 5216 233c d0b9 513d a6e1 ee3d
00000050: 3bda 8d3d fffe 103e a1c4 d43b 0484 b23d
00000060: 70cc 893c 9113 2cbd f69c b13d c0df 87ba
00000070: 75d4 d23e 1f7a 143e c5c7 a7bd 427f 8cbb
00000080: 4d71 ab3c 2286 b1bd 6100 97be 8270 4e3e
00000090: b1de 003e 8fa9 18be f6aa 273d f858 1dbc
000000a0: 0488 9f3d 1265 913d 842d a13d 8163 e73c
000000b0: d85c 2bbc 6b06 94bd 7236 2cbd 032e 2abc
000000c0: 41a4 a7bd 5369 7fbe eabe 7b3d 0208 0ebf
000000d0: 622c 5ebd 827a e2bc e8fd 613e c516 7a3d
000000e0: cd3e ca3d 08c5 4abe e498 f0bc eb93 47be
000000f0: 82d2 d8bc 14a9 6b3d 3bd0 e23d 42fb 403d
00000100: e272 193e 5c82 3b3e cbf2 90bd 53d2 963d
00000110: af9a 063c d27d 383d a9f2 c4bd a3a3 33be
00000120: 4967 023d c7f4 c23c 9882 823c d48a 98bd
00000130: 5756 78bd a414 403d 1281 87bd 634b 2c3e
00000140: c6c7 203d 20f2 6ebd 6cc4 66bd 3f72 053e
00000150: f18a 933b efd7 04bc f475 c43d 4277 83bd
00000160: c50d f5bd 41db 5bbd 0d7f 16bd 3d13 9abe
00000170: a14d a03d 61a0 1a3e 9a9f 2f3d 3846 4ebd
00000180: a287 093e e336 cebc 95fa 963d 4613 b8be
00000190: da8d 96bc 9b11 acbd 6ac5 e5bd d52e 203c
000001a0: fab2 3d3c ec5d 69be 95f9 5c3e f84a 623e
000001b0: 92d4 833d d381 b8bd ad6d 03bd a93d ad3c
000001c0: e8e6 99be 7c0b 093e 8695 67bd b981 c7bd
000001d0: d2f8 27bd 7278 d6bd 40ce ebbd bcdd efbd
000001e0: 6370 df3b e2a9 ef3c 143b 753d 7955 8dbc
000001f0: 2e96 cbbd 9549 dbbd ee95 b43b a857 a53d
00000200: fc5d 633e 71d6 8fbe 2674 933e 6bb5 7f3d
00000210: d94f ef3b bc1e 9cbc 1977 343d 6c9f de3c
00000220: 7ac6 01bd e7fb 02be 8ac8 38be 7d95 31be
00000230: fee9 153d 6ce5 71bb 14ab 64bd 4aab b5bd
00000240: eba0 903d f3bc 323d 4d6a 463e d06e b93d
00000250: ce4a 91bd 362d aebd 8ea0 373d 8ff3 7dbd
00000260: 1be8 243d 488c a3be 99f4 a2bd 1b47 7b3d
00000270: 8803 13bf d25d c73e aa21 31be b222 8ebe
00000280: b5a4 2a3e 161f ea3d 19d1 a6bd 10d0 60bd
00000290: 2f29 503e cab1 193e 4b53 3abc f496 913c
000002a0: 8435 d2bc 6081 61bd 21fd 643d e69a 9b3b
000002b0: 66f5 e23c b6a2 9d3d 5ec0 3c3d 589c 1a3c
000002c0: be7e babd a79b 103c 5cd4 093e d011 303e
000002d0: 12c2 313d f381 143d c480 5dbd 30d7 2e3e
000002e0: 56cc fcbd 168d b63d ee87 2bbe 0cdf 16be
000002f0: af91 9c3d c4a5 653c 4b18 db3d f13a 393e
00000300: 1191 193d 3558 cd3e b4d4 a3bd 65fe 67bd
00000310: 4498 4f3d 162a cbbd a0f9 9fbd ce60 bfbd
00000320: e9d2 27bd cbe5 693e c095 d7bb 4441 f23c
00000330: 3a0a e63d 1411 2b3d b646 8e3e c876 023e
00000340: e47e e2bd fa64 163e 2553 533e 775d c5be
00000350: 9650 30be 621b 42be ea99 9bbe d222 c8bd
00000360: d7b6 afbd bdf0 233e 561a 00be 8f6d bdbe
00000370: 36ca da3d dbd9 863d 1656 67bd 25c3 f7bc
00000380: 0131 e23d 1cfb 66bd f63b 5bbe 40fb 85bc
00000390: fbd6 d1bb cee7 ac3d 3d86 e53d 827a c7bd
000003a0: 3aff e2bd c002 c3bc f70a cfbe 1dad fbbc
000003b0: 02dc 8fbe 0818 e5bd faea da3d 3225 213e
000003c0: 2084 67bd d3e0 9d3d 2e85 be3d 94ec e33d
000003d0: a163 b63d 0977 c03d ba01 93bd dd33 f5bd
000003e0: 1460 03bd 67fa 803d 5523 63bd 3dbb 9dbd
000003f0: ccb4 dabd c5a7 91be 7f62 1c3d 2fd7 e23d

fcs.0.bias f4 [6]
-0.08542664 0.038495917 -0.06349703 0.054663394 -0.010881614 -0.037052687
00000000: 2af4 aebd e5ad 1d3d bb0a 82bd b9e6 5f3d
00000010: cc48 32bc 8fc4 17bd
