models/Pilot_v1.pt (torch, 60678 bytes, 10 tensors)

0.weight f4 [4, 2, 3, 3]
00000000: c4cf 813d c0de 973e 7b73 073d a8cf 3bbe
00000010: 6f23 2d3e 3e12 6abd ae63 323e 71d5 3e3e
00000020: 3326 ef3e 90a5 97bf 8bd5 84bd 763f 00c0
00000030: 6cb8 84bf 6c96 1ebe 8d42 02c0 3896 9b3e
00000040: 3b82 a8be e594 d53e a0bd 353e 11b5 f83d
00000050: 15a8 1dbe 5736 b0bd e313 213e 3b2a aabc
00000060: 081a c93d 8425 003d 5b3d 06be a538 a3bf
00000070: e806 ffbf 0e08 a5bf edb1 f23d b921 bc3e
00000080: b0b0 87bf 1b0d 5bbf 4c2b 3cbf 63b5 0bc0
00000090: 280e a4be 12ec 53be e4c8 c8bd 547f 87bc
000000a0: 73b6 b43d 9c08 30be 068a 30be 67e1 06be
000000b0: ff7b 043e dab6 36be 75b2 223f c842 6c3f
000000c0: b406 bb3f 9631 b33f b6df fa3f 25e9 cebe
000000d0: fae4 32bf cf45 58bd 26fd 06be 3f48 df3c
000000e0: 7cee 45be 810b e73d 069f a63c aa80 e8bd
000000f0: 1282 f5bd 8e5a 163d 2cc3 963e c2e2 8c3f
00000100: ca1f 983f d89a 3b3f 5980 f7bf 5ea9 d5bf
00000110: e900 08c0 2a48 c23f 5b8e f53f 20d5 cc3f
0.06338456 0.29662132 0.033069115 -0.18340933 0.16908048 -0.057146303 0.17420837 0.18636109
0.4670883 -1.1847401 -0.064860426 -2.0038733 -1.0368781 -0.15487069 -2.035312 0.30388045
-0.32911858 0.4171516 0.17748117 0.12143911 -0.1539615 -0.086041145 0.15730242 -0.02077209
0.09819418 0.031285778 -0.13109343 -1.2751662 -1.9923983 -1.2893083 0.11850343 0.36744478
-1.0600796 -0.8556687 -0.73503566 -2.182946 -0.3204205 -0.20695522 -0.09803942 -0.016540207
0.08823862 -0.17190784 -0.17240152 -0.13171922 0.12937926 -0.1784319 0.63553554 0.922894
1.4611421 1.3999507 1.9599521 -0.4041225 -0.6988064 -0.05280095 -0.13182506 0.02725613
-0.19329256 0.11281491 0.0203395 -0.11352666 -0.119876996 0.036707453 0.2944578 1.1006701
1.1884701 0.7328315 -1.9336044 -1.6692312 -2.1250556 1.5178273 1.9184068 1.600254

0.bias f4 [4]
00000000: b6ab 1d3e 3d09 4b3e 72fe 62bd 8ab6 23bd
0.15397534 0.19827743 -0.05541844 -0.039969005

1.weight f4 [8, 4, 3, 3]
00000000: bcf9 7cbc c791 89bd 1828 08bd 4c0e 2a3e
00000010: 575f 503e 9567 c0be 38c3 4f3e 6e21 1dbd
00000020: 38c8 7cbc d91a 393e 57b9 b43c 7037 bdbe
00000030: 6fa1 1ebc 7986 923e 21b8 073e b268 913e
00000040: 1c83 133e 50f8 88bd f635 12be 0823 0a3d
00000050: d57d debd d055 8bbc adcf 26be 8d8c 9e3d
00000060: c929 663b 4e1b f43d 71d0 0f3e e4be cbbc
00000070: 010e 863d 5153 d53d 7d96 c33e 89ff 293e
00000080: 67d5 32be 6fa8 96be f6d3 a4be f48d c93d
00000090: c912 8a3e 14e7 ab3e 0367 7b3e 8b98 b8bb
000000a0: af39 3e3e 1e3f cf3d 89b5 02be cbf3 6b3e
000000b0: 948f b3be 79c5 0f3e 9b94 253f 5934 c03e
000000c0: 794c 49be 814f 5e3e 806c b43d 243b ebbb
000000d0: 9ccb 8f3e 0bef 7a3e 0432 563d 9ca7 d4be
000000e0: e5f3 f0bd 29fa f23c 3316 40be a472 e83d
000000f0: 6e89 643e c0f4 4bbe c4a7 3fbe 0293 babd
00000100: 2515 1dbd 723c 97bd 53b5 78bd c418 373e
00000110: 2b87 c6bc c776 98be f845 aebd f681 c9be
00000120: 879d 963c b50e a03d 24aa c2be 9cf8 18bd
00000130: 3e89 d7bd ae1c 01be 3d71 f1bd aed7 f4bb
00000140: 25e6 afbe b3aa 85be 562d 60be c4a9 bbbe
00000150: d39c 583d 90d2 573d b275 863d 2d5d dbbd
00000160: 3ec5 6abe ceae a8be b971 3abe a111 fbbc
00000170: f5e2 24be 8ef2 073e 3ceb e6bc 4a55 42be
00000180: 9cf0 3a3d 8d80 143e 96e2 383e 5289 383e
00000190: 00a6 9a3e 6651 873e f94b 85be ea46 0fbe
000001a0: fee8 c3bd da5c 673e 89f6 633e 6d74 853c
000001b0: e8c0 513e 4134 2fbd febe febc 0b5d eabd
000001c0: 5a1f e83c 1c07 f13e f1cd 563e bba8 f63d
000001d0: 2258 b93d 6b48 fcbd 33ae c7bb 5ac2 463c
000001e0: 8ee8 823e da42 0f3e 5740 9d3e 7967 463d
000001f0: cac5 6b3e fcbb 4b3e 255b b1bd 78d1 81be
00000200: ba5b e33b 3567 ac3d 97ae 463e 866e 08be
00000210: 7c1d 5fbe 4b23 6cbe abac acbd e78c a33e
00000220: dfb0 663e 5fe7 e83d 7557 c4be 3260 92be
00000230: 6aa2 29bd 2fe8 973e 4eff 3cbd c58c 85be
00000240: 54e3 cc3d 6e8c 2fbe 4f84 2abe 5dec a23e
00000250: 6fb9 993c f800 a7be ac53 2f3e bfde 91bd
00000260: 169f 37bd f447 df3d edfd 083d 3077 c7bc
00000270: 786d 21bd fbc3 213e 499a 4c3d d456 773e
00000280: 4d4a 52bc e4c1 983e 636a 64be 9e4e ed3d
00000290: d5b5 2e3e 192c 30be 2042 17be 0a34 c23c
000002a0: 096c 6cbd 52b5 483e 0488 64be 94a4 323e
000002b0: 91df 333d fe5f d4be 134d 203e 40ba aa3e
000002c0: da90 38bb a6e5 0abf eae5 10bf 8c26 383e
000002d0: c023 dfbd 372b 7e3c 3194 1d3e 181a 3cbe
000002e0: 047b 543e aec0 d2bd 2252 2f3d 3ba0 83bd
000002f0: a777 19be cc08 573c 0a8e 3b3e 6d2f 73be
00000300: c7c2 d9be 65b1 65be 73af 6cbd 3c24 18be
00000310: f536 11bd c8f4 34bd 47bd 403b b887 79bd
00000320: 61b6 14bd 8ac0 fdbd 7fe0 e0bd d715 10bd
00000330: fefa 9c3d 6aa8 533e 3382 513e 037f 87be
00000340: 6c73 45be 4acf 7a3e 4abc e73e 6ba7 423e
00000350: f831 d5bd 65ca 63be 8939 f4bd 332b bebe
00000360: 6665 34be 6a8e 0e3e 7566 24be 0302 e53d
00000370: 3034 7b3d b2e8 92be 40b2 0e3e 3c89 4abe
00000380: 0366 073f 21ab 54bc 4600 3cbd eede 73be
00000390: 939f 343c 90bd bdbe 388b ff3e 5aa5 203e
000003a0: 71c6 15be d7d0 4bbe 3f22 e13c 6cc4 083e
000003b0: c51b ed3d 9ee2 c63d 520d 4d3e a322 af3d
000003c0: b070 73bc 6b23 f7bd f8c9 97bd ced2 7d3e
000003d0: 5199 2b3d 4dd1 613e 88f3 c2be d252 443d
000003e0: 733e 29be 37bd a43d 3248 023e b856 ea3e
000003f0: 29a9 81bd be85 fabd 893e 603e e4f2 eb3c
-0.015440401 -0.06717258 -0.03324136 0.16607016 0.2034887 -0.37579027 0.20289314 -0.03836196
-0.015428595 0.18076648 0.022061033 -0.36956358 -0.009682043 0.2861822 0.13253833 0.2840019
0.14405483 -0.06687987 -0.14278397 0.033724815 -0.10863844 -0.017008692 -0.1629016 0.07741652
0.003512012 0.119192705 0.14044358 -0.024871297 0.0654564 0.10416282 0.3820075 0.16601385
-0.17464219 -0.2942538 -0.32192963 0.098415285 0.26967457 0.33574736 0.24551015 -0.005633419
0.18576692 0.101194605 -0.12764563 0.23042218 -0.3507048 0.14040174 0.6467988 0.37539938
-0.19658078 0.21710016 0.08809757 -0.007178681 0.2808503 0.2450525 0.052293792 -0.41534126
-0.11765269 0.029660301 -0.18758468 0.11349991 0.2231805 -0.19917583 -0.18716341 -0.09110071
-0.038350243 -0.07384576 -0.0607198 0.17880541 -0.024234375 -0.2977812 -0.08509439 -0.39356965
0.018385662 0.07815305 -0.38020432 -0.037346467 -0.10524224 -0.12608597 -0.117891766 -0.007472
-0.34355274 -0.26106796 -0.21892294 -0.36652958 0.052883934 0.052691042 0.06565417 -0.10711131
-0.22926804 -0.32945865 -0.18207444 -0.030648055 -0.16102202 0.13276121 -0.02818834 -0.18977848
0.04563962 0.14502163 0.18055186 0.18021134 0.30204773 0.2642929 -0.26034525 -0.13991895
-0.09565924 0.22594014 0.22262014 0.016290868 0.20483744 -0.042774443 -0.031096932 -0.11443528
0.028335262 0.47075737 0.20976998 0.120439015 0.09050013 -0.123185 -0.006093764 0.012131298
0.2556805 0.13990346 0.3071315 0.048438523 0.2302467 0.19895929 -0.086599626 -0.25355124
0.006938425 0.08418123 0.19402538 -0.13323411 -0.21788591 -0.23060338 -0.08431371 0.31943437
0.22528408 0.113722555 -0.38347974 -0.28589016 -0.041414656 0.2966933 -0.046141915 -0.2608396
0.10004297 -0.17143413 -0.16652034 0.31820956 0.01876518 -0.32617927 0.17121762 -0.071225636
-0.04482945 0.10902396 0.033445287 -0.024348825 -0.03941104 0.15797417 0.049951825 0.24154216
-0.0128350975 0.29835427 -0.22306208 0.11587261 0.17061551 -0.17204322 -0.14771318 0.023706455
-0.057720218 0.19600418 -0.22317511 0.17445594 0.04391438 -0.41479486 0.15654401 0.33345222
-0.002816251 -0.54256666 -0.5660082 0.17983454 -0.10895491 0.015513233 0.15388562 -0.18369329
0.20750052 -0.10290657 0.042802937 -0.06427046 -0.1498705 0.013124656 0.18315902 -0.2374856
-0.42531416 -0.22430952 -0.05778451 -0.14857572 -0.0354528 -0.044178754 0.0029409693 -0.060920447
-0.036306743 -0.123902395 -0.10980319 -0.035177078 0.076650605 0.20669714 0.20459823 -0.2646409
-0.19282311 0.24493137 0.4526084 0.19009177 -0.104099214 -0.22245176 -0.119250365 -0.37142333
-0.17616805 0.13921514 -0.1605471 0.11182024 0.061329067 -0.28693157 0.13935184 -0.19778913
0.5289003 -0.012980253 -0.0458987 -0.2381551 0.011024374 -0.37058687 0.49910903 0.15688077
-0.1462648 -0.19903885 0.02748215 0.13356179 0.11577562 0.097111925 0.20024613 0.08551528
-0.01485841 -0.12067302 -0.07411569 0.24787447 0.04189426 0.22052498 -0.38076425 0.047930546
-0.16527729 0.08043902 0.12722853 0.45769286 -0.06331093 -0.122325405 0.21898855 0.028802343

1.bias f4 [8]
00000000: 7f6a 10be 54c5 4e3d 07dc 40bd d775 e43d
00000010: 281a 0a3c 3c9d d2bc 1dd2 e1bd a8e7 cabd
-0.14103125 0.050481156 -0.047084834 0.11155289 0.008429088 -0.02570974 -0.11026404 -0.09907466

2.weight f4 [16, 8, 3, 3]
00000000: 8baf fd3c 847a af3e c3d7 233d c4ac 1b3e
00000010: 9ac0 66bd 55dc 49be 6cba c43d 5ed6 2d3e
00000020: 0c7d 483e 26c1 423e 1b58 273e f198 18bd
00000030: dc45 3d3d 06bb b03d fe34 13bd 134f 9f3d
00000040: fb89 ac3c 2525 2b3d 9f4b c2bd 9cd0 943d
00000050: 3834 8abd fc55 c9bd a8ce 18be 2879 d1bd
00000060: b432 febd ab34 15be a458 3dbe 6ba1 173e
00000070: 3106 733e 16be a4bd 959f a6bb bfdd 6ebd
00000080: fbf8 193e 2017 343d e6f9 21bc 4f0c f6bd
00000090: 36d8 e6bd 3ec9 8a3e d156 bd3d 7665 993c
000000a0: 5acf e5bc 7b7e 363d b807 893d fbbe 303e
000000b0: a44a 113e a8e5 a2bd 76b0 1dbd 9a6c 76be
000000c0: 679e 893d 6eb8 56be 70f5 5ebe 91b3 d5bd
000000d0: e869 94bc 0586 083e e312 013b 4ac0 b03d
000000e0: 3caf a2bb 8414 f6bd 5977 a93d d08f a7bd
000000f0: 820e 36be 39f6 f03c 59db 4fbe 01b7 51be
00000100: 5260 343e 0faa c53d 2e7d c2bd 54df 52be
00000110: 2258 2ebd 4a9b 7dbd 7d4a c0bd e56d fa3d
00000120: f00e b1bd 9620 883e b4a1 48be 8193 123e
00000130: b2d0 49bc 1d8c 8e3e fa45 0fbe 0f76 b73d
00000140: 6a62 05bf 99ba c8bd 04e5 873d 0656 edbd
00000150: 6c74 0f3e 75db b73d 2053 84be 4e28 f1bc
00000160: 2593 2cbe 032a 41be 584b e23d 411c c83d
00000170: 4ea9 8e3e 7838 7bbd e64a 0e3d f014 80be
00000180: 970c a23d 55e1 5c3e 19f2 893d 8726 383e
00000190: 78d3 9ebe 18ba 0ebd da80 783e 5835 c13d
000001a0: 3109 0b3d 597f 083d 9f27 0e3d 2ef0 673e
000001b0: 7600 163c a001 be3d 6b52 bb3d c379 bbbc
000001c0: 04b2 e73d f20b d23e 0637 1cbe 9dd0 e4bd
000001d0: ffe3 5dbe 92b9 843c 3e9e 7e3e 741d 96be
000001e0: 6d7e a23d 928e e0bc 170c 20be d840 80be
000001f0: 6a85 813b 473f f7be d84d 1c3e 0e14 833d
00000200: b9f6 5dbd fec3 8bbd 754b 4c3e f1c4 063f
00000210: f6fc d53d cf91 c03c c3dc 27be 6fc1 c6bd
00000220: 2311 c13e 0880 233c e46c 503d d007 0fbe
00000230: 2a70 043e f4f8 36be dfda 4cbe 5a75 6bbe
00000240: d35c 16be 7609 063d f18f 1e3e 94f1 21bc
00000250: c34d 2dbe b128 f73d 129c 443e f8c2 e0bd
00000260: e393 833c f482 bdbc da29 e5bc 1230 1c3e
00000270: f295 88bd 7c9f 313e 5aeb 9f3e 1088 183e
00000280: 1f53 b83d c8b4 443d 3abe 543d 72c6 3fbe
00000290: 6e80 04be 860e ee3d 0dd8 943d 3309 353e
000002a0: 2a5b 6b3c 29ef 18be 0718 cbbd c265 a8bd
000002b0: 79b2 9cbd dba3 d0bd e25c b1bc fc84 9c3e
000002c0: 6516 753e 72c4 44be 9cf2 f63c 06c0 95bc
000002d0: 0a65 0cbe 6c60 523d 8e2a 303c db02 13be
000002e0: d1b8 6cbe 7976 86bd 588f 893e 61b0 e33d
000002f0: 9e92 213b 9c1b 6b3e aebe 8c3d a0ae 4e3e
00000300: 52b4 093e f9a9 d73d 29c3 303d 9eff 853e
00000310: 8e60 c93d bdd1 15be efa7 6cbd da19 a7bd
00000320: 4b4c 70be 6e43 073e 06c0 a6bd eb24 99bd
00000330: 6b24 a5be 00f3 d1bd 2463 313e c453 b83d
00000340: 9d7a 41be e639 b73d cddd 03be ca9f ddbd
00000350: f6f7 ec3c 7d56 6b3e 10fd 5b3e 7cc8 86bd
00000360: 91de 773c b8aa 893c cf95 2d3e e160 12be
00000370: 2eb2 bebd 9ec7 4b3e 1c32 77be 5eef 043e
00000380: ee18 cabb 5a91 27bd b1bf 903d 6818 95bc
00000390: 6d3d 4d3d 03ac 3c3e ee61 323e 03d8 b6bd
000003a0: e08e 26bd b261 46be c35e 02bd 569e 543e
000003b0: ba90 623e 5255 84bd ab54 74be 0f22 5abe
000003c0: 832d 9bbd d1dc 803d 00f8 f53d dba2 303e
000003d0: 9356 153d 9d24 f63c cb8c 88be c0e8 e7bc
000003e0: 5826 b1bd 766e 1c3e 1ad3 f1bc 766d 0d3e
000003f0: 02e9 4dbe eb21 e2bd 4019 5abc 7e9a ba3c
0.030967494 0.3427316 0.04000069 0.15202624 -0.056336023 -0.19712956 0.0960587 0.16976306
0.19578952 0.19018993 0.16342203 -0.03725523 0.0462092 0.08629422 -0.03593921 0.07778754
0.021061888 0.04178347 -0.0948708 0.072663516 -0.06748241 -0.09830853 -0.14922583 -0.10228187
-0.124120146 -0.14570872 -0.18490845 0.1480767 0.2373283 -0.080440685 -0.0050849416 -0.058316942
0.15036385 0.043967366 -0.009886241 -0.120140664 -0.11271708 0.2710666 0.092450745 0.018725138
-0.028052974 0.044554215 0.06690925 0.17260353 0.1418863 -0.0795396 -0.038498364 -0.24064866
0.06719666 -0.20968792 -0.21773314 -0.1043464 -0.018116906 0.13332374 0.0019695095 0.08630426
-0.004964737 -0.12015632 0.08274717 -0.08181727 -0.17778972 0.029414283 -0.20298518 -0.20479967
0.17614868 0.09651577 -0.094965324 -0.20593005 -0.04256452 -0.061915673 -0.093892075 0.12227992
-0.08645427 0.2658736 -0.19592935 0.14314081 -0.012317823 0.27841273 -0.13991538 0.08958065
-0.5210329 -0.09801216 0.06635478 -0.11588673 0.14009255 0.08977405 -0.2584467 -0.029438164
-0.16853006 -0.18863682 0.11049527 0.09771014 0.27863544 -0.06133315 0.034739397 -0.25015974
0.079125576 0.21570332 0.067356296 0.17983447 -0.31020713 -0.03484544 0.24267903 0.09434003
0.033944312 0.033324573 0.034705754 0.22650215 0.009155383 0.09277654 0.09146579 -0.022885209
0.11313251 0.4102474 -0.15255365 -0.11172602 -0.21669005 0.016201768 0.24865052 -0.29319346
0.0793427 -0.027411733 -0.15629612 -0.25049472 0.003952672 -0.48290464 0.1526407 0.064003095
-0.05419037 -0.06824492 0.1995066 0.5264426 0.10448639 0.023507027 -0.16392808 -0.09704863
0.37708387 0.0099792555 0.050885096 -0.13967824 0.12933412 -0.17868406 -0.20005368 -0.22993985
-0.14683847 0.032723866 0.15484597 -0.009884257 -0.16924195 0.12068308 0.19200161 -0.10974687
0.016061729 -0.023133732 -0.027974058 0.15252712 -0.06669225 0.17345995 0.31234246 0.14895654
0.09000229 0.04802397 0.051939227 -0.18728045 -0.12939617 0.11623864 0.07267771 0.1767929
0.014364997 -0.14934982 -0.09916692 -0.08222534 -0.076512285 -0.10187503 -0.021650735 0.3057021
0.23934324 -0.19215563 0.030144982 -0.01828004 -0.13710418 0.051361486 0.010752333 -0.14356558
-0.23117377 -0.065655656 0.26867175 0.11117626 0.002465404 0.22959751 0.06872307 0.20183802
0.13447693 0.105304666 0.04315487 0.26171583 0.098328695 -0.1463079 -0.05777734 -0.08159228
-0.23466603 0.13209316 -0.08142094 -0.07477745 -0.32254347 -0.10251427 0.17322975 0.09000352
-0.1889443 0.0894659 -0.12877579 -0.10821493 0.02892683 0.22982211 0.21483254 -0.06581208
0.015128748 0.016805038 0.16951679 -0.14294769 -0.09311329 0.19900367 -0.24140209 0.12981936
-0.0061675226 -0.040910102 0.07067812 -0.018200114 0.05010741 0.18424992 0.1742017 -0.0892792
-0.0406636 -0.19373205 -0.031828653 0.20763525 0.22125521 -0.06461586 -0.23860423 -0.21302055
-0.0757704 0.062921174 0.12010193 0.17249624 0.036459517 0.030046755 -0.26669917 -0.028309226
-0.086498916 0.15276513 -0.029519606 0.13811287 -0.20108417 -0.110416256 -0.013311684 0.022778746

2.bias f4 [16]
00000000: dda1 0abd a855 b9bd f291 e83b 4fba 203d
00000010: 0d19 b93d 346d 13bc 4204 77bd 3f69 4f3d
00000020: b4e3 d2bd 70cd aebc 57a7 4dbd 44cd 28bd
00000030: e2ab 0a3b 61e8 80bd f936 81bd 3243 e93d
-0.03384577 -0.09049541 0.007097476 0.039240178 0.09037981 -0.008998204 -0.060306795 0.05063748
-0.10297337 -0.021338195 -0.050208416 -0.04121138 0.002115958 -0.06294323 -0.06309313 0.113897696

4.weight f4 [64, 192]
00000000: 7ead 7f3c e6e5 1f3c 4d2e 153c 947a 7dbd
00000010: 2bcd ce3c d115 ef3c 5636 23bc bc92 24bd
00000020: 997e d23c 3cb5 21bc 72d9 1d3d 336c c33c
00000030: ffab 63bc 9878 4abd 3649 dd3b ccc3 39bb
00000040: 847e a63b 6bf9 ad3b 3ac7 26ba 3ba2 14bd
00000050: 027d 773d 7026 09bb 7421 f43c 5069 10bd
00000060: eb01 41bd 9abd 8e3c 366d 303d 2941 40bd
00000070: 22d7 e63c 5586 1dbd 0844 6abd b8ee 7f3c
00000080: fef8 17bd a52b 4ebd 042e 873c a8d7 a63c
00000090: 7007 573c c66b 283c 0e6e 2ebb e6a5 653d
000000a0: d406 883d 6f1d 55bd c09f b1bb 3572 7c3d
000000b0: 45a1 5abd 5a50 73bd fe25 6f3a cc03 44bd
000000c0: 1fd4 48bd 0022 65bd 31a4 b4bc 7394 12bd
000000d0: 7396 cb3b 8886 873d 7c01 15bd e241 59bd
000000e0: 91a4 343d a408 273d f0e8 ddbc 15fe 7dbc
000000f0: 6fd3 8e3b d6bc 0cbd 40c5 36bd dabe 523d
00000100: 8908 6f3c 4550 6a3d 0375 463d c885 76bd
00000110: 5e19 08bd a8cc 3b3d 3eb6 903d f79c 3f3d
00000120: 1cb9 173d 27b9 70bc 8ea6 35bd cab8 63bd
00000130: 3f0b aa3b 93dd 08bd cbbd 063d cdbc 253d
00000140: 9a47 20bd 34ae 46bd 48f5 043b 4bf4 0cbd
00000150: 718b b0bc 6204 3bbd 6ea5 24bd 60bb e73a
00000160: 10df 03bc 802f 4c3d 6123 ddbc b29b 88bd
00000170: 2e5a 6dbd dc36 9ebc ae34 55bd 0056 4f3d
00000180: da36 68bd 31f6 6a3c 9017 44bd e232 1e3d
00000190: a3da 7cbd ae4c 82bd d14e 63bd 04d9 a3ba
000001a0: 051f 0f3d 0b1d 863d 86f3 223d cfce ecba
000001b0: 329a 613a 8a20 943d eaa2 fbbc 3ba1 e4bc
000001c0: 0df6 efba 6810 5c3d f83f 733d e151 8bbd
000001d0: 2189 a43c d06e 5c3d 3984 2a3d 1033 71bd
000001e0: 92a4 7d3d 1929 64bd 0cdb 83bd be7d 51bb
000001f0: de2a 203d b42e 1c3d 5f8a 1c3c beae 7abc
00000200: 38b6 ea3c 4aa4 703c f8a2 413b b56f e8bc
00000210: 2428 543c 618a 8b3d d9cc bb3b 5ab9 38bd
00000220: 478a a9bc 5852 00bc c676 10bd 9b49 393d
00000230: 5cd9 1abc a046 7fbd aaec 23bd e1a2 1d3d
00000240: a28d 4dbd 7fa9 b6b9 8896 2cbd 76b9 1fbd
00000250: 7411 923c 5c5a ec3c 32f7 113d 91b6 35bd
00000260: 6c33 74bc 6a9a 183d f015 4a3d c57e a03c
00000270: c441 833d 21fd c0bc 5519 963d b7c8 fb3c
00000280: 9440 09bc c686 91bc 7133 83bd 3918 12bc
00000290: b813 39bc 67bd bfbb 68a6 f43b 9104 f03b
000002a0: e093 103d fe0c 3bbd 256d 1bbd f0a6 833d
000002b0: f788 80bc f356 33bd 1407 6d3d 73b8 663c
000002c0: a033 8cbc e8cc 5f3d 0f8e 7bbc f3e4 87bd
000002d0: 9ee5 fbba 7e02 20bc 4ba3 ab3b bdda 543d
000002e0: 81ab 8e3d 4958 8abd 6dbf 133c 5d8d 89bc
000002f0: 48d0 843d 6922 87bb 1329 78bd 8602 8d3d
00000300: e696 383d dccb 013c 913e 76bc d20d 9b3b
00000310: 2ad9 bcbc d25e 653c 007e f23a 4919 0b3c
00000320: bd1f 563c 94c2 313d 6eab 733b f9ee 9dbb
00000330: de11 efbc 1ab2 a43c f0b7 30bd 700e b7bc
00000340: 73e0 f53b 441d 2c3d 5489 a43a 84ac 4d3c
00000350: 1750 6cbc f8fd 9fbd 139b 99bd 8e89 2f3c
00000360: 5cde 513d 52f2 60bd 4b2a a6bc 176c 2d3b
00000370: 9f01 50bd 3021 6dbd b2c1 17bd f171 793d
00000380: d8d3 5ebd 78f9 aabc f719 c9bc e569 803d
00000390: 2509 31bd b298 e039 6fff 87bd 74d5 7b3d
000003a0: 5187 543d 52e3 bdbb 8c7b 0c3d f383 483d
000003b0: 5ad5 1d3d 962a 97bd 2d48 c9bc b602 5c3d
000003c0: 526f 42bd d8a1 44bd 12fd 80bd 765c 1bbd
000003d0: 737d 47bd 77bb 593d acbd 8b3d c1cf 4bbd
000003e0: c947 86b9 72d0 4f3c 94a7 8e3d 10d4 dcbc
000003f0: 7ae6 b03c 64f0 2ebb 5ed2 6abd 4252 2f3d
0.015605329 0.009759402 0.009105277 -0.061884478 0.025244316 0.029185208 -0.009961685 -0.040179
0.025695132 -0.00986987 0.03853745 0.023855304 -0.0138959875 -0.049431413 0.006753112 -0.0028345464
0.005081 0.005309274 -0.00063620845 -0.036287528 0.06042195 -0.0020927452 0.029801108 -0.035256684
-0.04712097 0.017424393 0.0430729 -0.04693714 0.028178755 -0.038458187 -0.057193786 0.01562088
-0.03710269 -0.05033459 0.016501434 0.020366505 0.013124332 0.010279601 -0.002661589 0.056066416
0.06641927 -0.052030023 -0.005420655 0.061632354 -0.053376455 -0.0594028 0.0009122788 -0.047855183
-0.04903042 -0.055940628 -0.022050949 -0.035786103 0.0062130033 0.06617457 -0.03637837 -0.053041346
0.044102255 0.040779725 -0.027088612 -0.015502472 0.004358701 -0.034359775 -0.044621706 0.05145154
0.014589437 0.057205457 0.048451435 -0.060186177 -0.033227317 0.045849472 0.0706601 0.046780553
0.03704177 -0.014692581 -0.044348292 -0.05559615 0.005189329 -0.033414435 0.032895844 0.040463258
-0.039130785 -0.048505977 0.00202878 -0.034412663 -0.021550866 -0.045658477 -0.04019683 0.0017679743
-0.008048788 0.049849987 -0.026994409 -0.066703215 -0.05794733 -0.019313268 -0.052052192 0.050619125
-0.056692936 0.014340923 -0.047874033 0.038622744 -0.061731946 -0.06362282 -0.055495087 -0.0012500589
0.034941692 0.06548508 0.039783023 -0.0018067005 0.0008606046 0.07232769 -0.030717332 -0.027908912
-0.0018307582 0.053726584 0.059387177 -0.068027265 0.02008492 0.053816617 0.041630004 -0.058886588
0.061924525 -0.055703256 -0.06438264 -0.0031965817 0.03910338 0.038130477 0.009554475 -0.015300451
0.028651342 0.014687607 0.00295466 -0.028373579 0.012949023 0.06813503 0.005731207 -0.04509864
-0.020695819 -0.007832132 -0.03526952 0.04523621 -0.009451237 -0.062323213 -0.040020622 0.03848541
-0.0501839 -0.0003484003 -0.042135745 -0.03899523 0.017830588 0.02885168 0.035636134 -0.044363562
-0.014904838 0.037256636 0.049337327 0.019591698 0.06409028 -0.023558201 0.073290505 0.030735357
-0.008377213 -0.01776446 -0.06406296 -0.008916908 -0.011296205 -0.005851436 0.0074661262 0.007324763
0.035297275 -0.045666687 -0.037945885 0.06428325 -0.01569031 -0.043784093 0.05786808 0.014082062
-0.01711446 0.054638773 -0.015353694 -0.066354655 -0.0019218212 -0.009766219 0.005237972 0.051966418
0.069663055 -0.0675512 0.009017807 -0.01679104 0.06485039 -0.004123975 -0.060586046 0.06885247
0.045065783 0.007922139 -0.015029565 0.004731872 -0.02305277 0.013999658 0.0018500686 0.008489915
0.01306909 0.043398455 0.0037181037 -0.0048197475 -0.029183324 0.020104457 -0.043144166 -0.022345752
0.007503563 0.042020097 0.0012553134 0.012553338 -0.014423392 -0.078121126 -0.07500281 0.010713948
0.05123745 -0.054918595 -0.020283839 0.0026462132 -0.050782796 -0.05789298 -0.037049957 0.06089968
-0.05440125 -0.02087091 -0.024548514 0.06270198 -0.04322161 0.00042838376 -0.06640517 0.06148286
0.05188686 -0.005794921 0.03429751 0.04895396 0.038533546 -0.073811695 -0.024570549 0.053713523
-0.047469445 -0.04800591 -0.06298269 -0.037929974 -0.048703622 0.053157296 0.068232864 -0.049758676
-0.00025611956 0.012683975 0.06965557 -0.026956588 0.021594275 -0.0026693577 -0.057329528 0.042803057

4.bias f4 [64]
00000000: 486a 1abc 1c8a a8ba 6803 4fbd 603e d2bc
00000010: 7dea 5b3d 6a85 0b3d dfcb cf3b 2e8d 0cbd
00000020: b959 6e3c d6fa 663c 37ba f3bc 863e 4c3c
00000030: 122a 3a3d 6467 98bd 1ea6 4ebd fcf4 413d
00000040: 6fc4 bbbb c27a 013c 12b1 7bbd 6cb7 813c
00000050: 7a5e 01bc b4fc a2bd 9db2 9a3d b5e0 8039
00000060: 5be1 af3c 3e5e 81bc 5b92 ec3c 3781 34bb
00000070: ef56 103d 1b42 793c c71a 273d 1ea8 6f3d
00000080: 21bb d13c 820c 863d dd9e 9ebd a74f aebc
00000090: 9351 1e3c 69a9 8a3d 4da3 c6bc 86d2 1d3a
000000a0: 8d8e 0b3d c078 493d d85a 5a3d b467 abbc
000000b0: d2b9 273d 5fb0 ed3c ed33 2a3d 9206 9ebd
000000c0: f2ac 81bd e8f1 88bd 174c 3dbd 7cdd 363d
000000d0: bc30 493b 7bff b03c 7bc9 0c3c 081a a73c
000000e0: 52b9 743d 5817 80bd f186 5bbc 3bc3 2ebd
000000f0: 9a46 e43c 28b8 383d b0af 26bd f38d 95ba
-0.0094247535 -0.0012858543 -0.050540358 -0.025664508 0.053690422 0.03406278 0.006341442 -0.034314327
0.014547759 0.01409789 -0.02975188 0.012466079 0.045450278 -0.07441595 -0.05045139 0.047352776
-0.005730204 0.007902803 -0.061448164 0.015834533 -0.00789606 -0.079583555 0.07553599 0.00024581482
0.021469763 -0.015792008 0.028878381 -0.0027542838 0.035239156 0.015213515 0.04079702 0.05850994
0.025601925 0.065453544 -0.077451445 -0.021278216 0.0096630035 0.06770594 -0.02424779 0.0006020445
0.034071494 0.04918742 0.05330929 -0.020923473 0.040948696 0.029014764 0.041553427 -0.07716097
-0.06331815 -0.06686765 -0.046215143 0.044644818 0.0030699214 0.021606198 0.008592959 0.020398155
0.059747048 -0.062544525 -0.013398872 -0.042666655 0.027865697 0.0450975 -0.040694892 -0.0011410102

6.weight f4 [5, 64]
00000000: 9044 28bd 5bf9 413c bbde b8bd 751b 843e
00000010: 45b7 60be 2aa7 68be f4a5 f9bd 6f3e e73d
00000020: 7e0e 02bf cedd 4fbe 7dcc 9b3d 3a93 593e
00000030: f2a1 dcbc aa0d 373c c32b c93d 6f29 2fbe
00000040: a76f d73c 6828 34be 2cd2 19be 2c3c 763d
00000050: ed54 59bd ef54 943d 053a 013d eb23 e23d
00000060: 363f cdbe f839 88bd ece7 c93d 940c c2bd
00000070: 2df3 043d 6c5f e4bd e8d2 233c 35f1 08be
00000080: 8039 04bb 6cb3 90bd 2983 bb3d 91ee d5bc
00000090: c536 2d3e 0385 f9bd 9e38 253e bccb 1d3e
000000a0: 17a3 1a3f e335 023e a1dd 9d3e 4439 843d
000000b0: 8689 dc3d 9845 18bd 4862 11bd d0a6 bdbd
000000c0: 944b 0a3f a49e 32be 97bd d8be eea5 e73d
000000d0: 3030 f9bc 7e52 adbd 081f 413d a2fb 6ebe
000000e0: c00d f4bd 2ac3 3a3e 2a78 6fbd d9d0 be3e
000000f0: 4be2 eb3d 6efa f23d 31e5 543e 9abb b1bc
00000100: 4ec2 4e3d 8268 d23d d034 f33d 995a d5be
00000110: b44f 2bbe 32b2 253b 62c8 c33d f88b fdbc
00000120: feae 16be fd38 163f 9b7e a73d fedd b13e
00000130: 6eca 813c 97ef ea3c 2bf3 a03e 4133 3ebe
00000140: 4079 583b ac93 59be c3a9 86be 54c2 38bd
00000150: f3d6 ec3d 913e 0c3d dc0c 9a3e 36a8 8abe
00000160: 83d9 69bd 20ba cebd f0d9 a23d c7a3 09bd
00000170: b891 5cbd 4ae4 023e fb6b 8d3e 53c1 c63e
00000180: 8021 dcbd 30fd bb3b 58cf 463d 2a97 2dbe
00000190: 9adb b3be 58a1 39be 9423 d33e 6008 f7bd
000001a0: 42a3 523e 36a8 8cbd eae8 13be ee53 fc3d
000001b0: ccb6 ac3d 6a4b 86bd 2aec 893d 88d1 c13c
000001c0: 0a63 aabe e212 f1be 2369 a23d cc89 083d
000001d0: c096 14bc f88a 0dbf 95f6 f8bd c0b8 343e
000001e0: c1d0 45be b456 843e 2433 13bf 42dd 23bd
000001f0: 0023 01be 32c0 c9bd 98ff 3e3f 5660 dbbd
00000200: 2a22 f63d e89a ce3d abe2 b63d ac91 c23e
00000210: 6a72 2fbd a0ee f4bd 1a74 3abd d4d6 8a3d
00000220: 38b9 773e 18a2 debe d0f0 173d d41a 5c3e
00000230: bd7a a0bd d8b8 6c3e 9a99 1f3e e519 42bd
00000240: f0ab b8bd 94eb bf3e 0c3a fc3e f06a 49bc
00000250: 79dd a1bd e907 bdbd e9a7 fa3e 52e9 673d
00000260: 8e64 1fbf 3809 aabd 2bfc e03d 20e1 e13b
00000270: 2ae7 4dbd bdab 0ebe 855f 8bbe ec05 b1be
00000280: 1e1d c9bd 1092 9abd 2b93 51bc 16da fe3e
00000290: a8c3 c1bd 92cf edbd 5800 193e f83c 77be
000002a0: 228d e63d 6433 ef3c f660 eb3d a458 62bd
000002b0: ce2e c7bd 7e9d 4dbd 7a89 e9bd abbd 23bd
000002c0: c1d7 823e f3c3 fd3d b011 393d f21d dbbd
000002d0: 1c7c d0bd 2b03 863e c876 ddbd 6144 a6be
000002e0: fc8d 0f3e 9226 d63d 42b8 df3e 5193 bf3e
000002f0: 6906 9c3e 490a 35bd 4a9f 2a3c 8129 f9bc
00000300: 10f3 903c f7d6 e9bd e7d0 88bd 3e86 833e
00000310: d2f1 a9bd e2ff 6cbe 79c8 543d 55b9 553d
00000320: c7c8 cdbe dcee 1dbf 7e93 04bd b4dd 53be
00000330: e253 213a 450d b0be b62b 11be b815 de3e
00000340: ae53 633c f951 2bbd 8b21 2abf d870 47bd
00000350: 9059 5c3a d3e3 25bd 9e4c 85bd a162 083e
00000360: 26f0 91be 11d2 e7bd 5a18 a93d f0fa 87bd
00000370: c3b1 c93d 8c8a 9f3e b545 933d 071e 06be
00000380: 3a5d f83d f01a f83d b201 3d3d add6 923d
00000390: 2e58 9dbd 0811 fabd a2d7 17bf 1c07 be3e
000003a0: 3d80 7dbf fb90 b9be 5934 9e3c 48c5 da3d
000003b0: 3f82 b53e 5150 c03d e808 c63d 2518 3b3d
000003c0: 50a4 f63e 6364 a4be 1771 983d 5055 a73d
000003d0: f017 7f3d dae1 b9bc e462 d9bd 9f98 b4be
000003e0: a643 1ebe eea0 6a3e 8ada 9d3e 2f39 a23d
000003f0: 0e4a ed3e 38b2 ea3c c75f 20bf e828 0bbd
-0.04108101 0.011839236 -0.090268575 0.25802198 -0.21944912 -0.22720018 -0.12189856 0.11291205
-0.50803363 -0.20299456 0.076073624 0.21247569 -0.02693269 0.011172691 0.098228 -0.1710565
0.026298357 -0.17593539 -0.1502158 0.060115978 -0.053059507 0.07242762 0.031549472 0.11042007
-0.4008729 -0.06651682 0.09858689 -0.09475055 0.032458473 -0.11151013 0.009999014 -0.13373263
-0.0020175874 -0.07065472 0.09155876 -0.026114734 0.16915424 -0.12183573 0.16134879 0.1540975
0.60405105 0.12715869 0.30833152 0.06456235 0.10768418 -0.037175745 -0.03549412 -0.092603326
0.54021573 -0.17443329 -0.42332146 0.113109455 -0.030418485 -0.08463 0.047148734 -0.23338178
-0.11916685 0.18238512 -0.058464207 0.37268713 0.11517771 0.11864172 0.20790555 -0.0216959
0.050478272 0.102738395 0.118753076 -0.41670683 -0.16729623 0.0025283215 0.09559704 -0.030950531
-0.14715192 0.5868071 0.08178445 0.3473968 0.015843596 0.028678698 0.31435522 -0.1857424
0.0033031255 -0.21247739 -0.26301393 -0.0451072 0.11564436 0.034239355 0.30087936 -0.2708146
-0.0570922 -0.10094094 0.079517245 -0.033603456 -0.053849906 0.12782398 0.27621445 0.3881937
-0.10748577 0.0057369694 0.048537582 -0.16952196 -0.3512848 -0.18127954 0.4123808 -0.12062144
0.2057009 -0.06868021 -0.14444318 0.12320696 0.08433303 -0.06557353 0.06734498 0.023659483
-0.33278686 -0.4708472 0.079302095 0.03333454 -0.009069145 -0.55290174 -0.12156407 0.17648602
-0.19317915 0.258474 -0.5749991 -0.04000593 -0.12611008 -0.098511115 0.74608755 -0.10711734
0.12018235 0.1008814 0.08929952 0.38001764 -0.042833723 -0.119595766 -0.04552088 0.067792565
0.24191749 -0.43483043 0.03709489 0.21494609 -0.078359105 0.23117387 0.15585938 -0.047387976
-0.090171695 0.3748442 0.49263036 -0.012293562 -0.07903571 -0.09230024 0.4895623 0.056618996
-0.6226281 -0.083025396 0.10985597 0.006893292 -0.050269283 -0.139327 -0.27221313 -0.3457483
-0.09820007 -0.075473905 -0.012791435 0.4977576 -0.094611466 -0.116118565 0.14941537 -0.24144351
0.11257388 0.02919931 0.11493103 -0.055260316 -0.09725724 -0.050199024 -0.11403175 -0.039975803
0.25555232 0.1239089 0.045182884 -0.10699071 -0.10179922 0.26174292 -0.10813671 -0.32474044
0.14019006 0.104565755 0.43695265 0.3741708 0.3047364 -0.04419926 0.010413954 -0.030415298
0.017694026 -0.114179544 -0.0668047 0.25688356 -0.08298077 -0.23144487 0.051948998 0.0521787
-0.40192243 -0.61692595 -0.032367222 -0.20690042 0.0006154162 -0.34385124 -0.1417683 0.43375945
0.013874931 -0.041826222 -0.6645743 -0.0486916 0.000840568 -0.040500473 -0.06508754 0.13318874
-0.2850353 -0.11319364 0.08256598 -0.066396594 0.098483585 0.3116039 0.0719103 -0.13097392
0.121271566 0.12114513 0.046144195 0.071698524 -0.076828346 -0.1221028 -0.59313405 0.371148
-0.990238 -0.36243424 0.01931207 0.1068216 0.35450932 0.09390319 0.096696675 0.045677323
0.48172235 -0.3210784 0.07443445 0.08170569 0.062278688 -0.022690702 -0.10614565 -0.3527269
-0.15455493 0.22912952 0.30830795 0.07921063 0.46345562 0.028649434 -0.62646145 -0.033974558

6.bias f4 [5]
00000000: 96bf 20bd 0fe2 f23c 0e10 39bd 7cc5 c03d
00000010: 60a6 fabb
-0.03924521 0.029648809 -0.045181327 0.09412667 -0.007649228
