models/Pilot_v1.5.pt (torch, 29922 bytes, 10 tensors)

0.weight f4 [4, 2, 3, 3]
0.032912478 -0.11563054 0.3330878 -0.19092153 0.115467705 -0.08604421 0.26949537 -0.0356781
-0.019877888 0.51773596 1.4515358 1.6697403 0.123542525 -0.32910627 0.4936561 0.5614604
1.0944345 -0.1373416 0.23307028 0.2999969 0.18545368 0.30387416 0.22287978 -0.008517331
-0.045684926 0.3590401 0.14845341 -1.666968 -0.3508464 1.9313043 1.0603714 0.4205735
1.4340245 -1.0293127 0.21259317 1.2573408 0.32972547 0.05785764 -0.09825009 0.2361346
0.022067063 0.12664996 0.05751927 0.03252554 0.26656362 0.87240714 1.7805245 0.30990496
0.5976227 1.2836725 -0.9449928 -0.86655533 0.30581817 1.4137942 0.11445531 -0.15291423
-0.0016978816 -0.00286121 0.27061555 0.11401854 -0.16449939 -0.7815289 -0.8761717 -0.8154561
0.35325265 0.751651 -0.8444758 -1.5098078 -1.5172484 0.024170201 0.32709616 -0.60862434
00000000: 3ccf 063d b4cf ecbd 7c8a aa3e ef80 43be
00000010: 557a ec3d f237 b0bd 4cfb 893e 3323 12bd
00000020: f4d6 a2bc 588a 043f edcb b93f 0dba d53f
00000030: dd03 fd3d 9e80 a8be 7ec0 fc3e debb 0f3f
00000040: 6e16 8c3f 47a3 0cbe faa9 6e3e 3299 993e
00000050: 92e7 3d3e 6595 9b3e 993a 643e 478c 0bbc
00000060: 1e20 3bbd 1bd4 b73e 2c04 183e 355f d5bf
00000070: 24a2 b3be fb34 f73f 40ba 873f 6955 d73e
00000080: 1d8e b73f 85c0 83bf 06b2 593e 8bf0 a03f
00000090: c7d1 a83e 22fc 6c3d 5837 c9bd 45cd 713e
000000a0: fcc5 b43c 87b0 013e 5399 6b3d 8039 053d
000000b0: 077b 883e 1356 5f3f 3ae8 e33f ddab 9e3e
000000c0: cdfd 183f 614f a43f 0ceb 71bf 92d6 5dbf
000000d0: 3394 9c3e 35f7 b43f 8c67 ea3d 8c95 1cbe
000000e0: 748b deba 2383 3bbb 1f8e 8a3e 8d82 e93d
000000f0: 8772 28be 4712 48bf ca4c 60bf bbc1 50bf
00000100: 88dd b43e 336c 403f 912f 58bf 6241 c1bf
00000110: 3235 c2bf 9600 c63c 2679 a73e cece 1bbf

0.bias f4 [4]
0.08306885 0.09194344 0.330753 0.04060098
00000000: 0020 aa3d d84c bc3d 7558 a93e 374d 263d

2.weight f4 [8, 4, 3, 3]
0.04034828 -0.0057377513 -0.14235337 0.106528044 0.109579556 -0.03522774 -0.25706768 0.0036046393
0.01251106 0.24309224 0.054991007 0.10299572 -0.031088961 0.1525837 0.10280118 0.049100596
0.17639193 0.035706643 -0.11403172 0.21632907 0.06773615 0.016397461 0.23143303 0.11496104
0.071934596 -0.06321382 0.107933015 0.781922 0.039838303 0.19335124 0.15385577 0.02987259
0.094623245 -0.19919962 -0.9696662 -0.14806998 0.36802086 0.47328195 -0.29511988 0.047476947
0.42464632 0.2428307 0.2577565 0.2714157 -0.11986453 0.28483596 0.06955524 -0.47758433
0.13959104 0.34422398 -0.25232166 0.33201945 0.2950598 -0.36387026 -0.17680088 0.028054478
0.21466926 0.040322848 -0.026007961 0.1563214 -0.0064307908 0.32662016 -0.036955584 0.4580201
-0.33882013 0.25448117 0.15407376 -0.09780205 0.5258766 -0.35045764 -0.5560657 -0.27152294
0.08677366 -0.23139933 -0.484966 0.024462402 0.08464452 -0.0749099 0.25619406 0.08972334
0.02241287 0.27304497 -0.29520112 -0.18582022 0.055294264 0.19236459 0.38037375 0.2765587
-0.18909487 0.162578 0.1557614 0.070918456 0.08173852 0.043151073 -0.17567277 -0.14064118
0.0012741885 -0.013614373 0.06075475 1.2900485 0.8344329 0.07045807 0.2933474 -0.025144406
-0.1030737 -0.40312567 -0.5801279 -0.31150192 -0.5650651 -0.25910378 -0.35769328 -0.09901315
-0.07021741 0.41145322 -0.17500189 0.0057145907 0.24458449 0.33378494 -0.014216928 0.14313345
-0.04127416 0.109134234 -0.02070946 0.095122404 0.36349377 1.144232e-05 -0.22285284 0.26054198
0.034721933 -0.02836995 0.034985572 -0.114894755 -0.10124905 0.45709237 0.22719415 0.32681292
-0.22185962 0.049849283 0.42532519 0.040110394 -0.6078852 -0.7174989 -0.2650934 0.17567223
-0.050908558 0.3248341 -0.03419727 0.4909752 -0.22303939 0.021820502 -0.044720557 -0.06130611
0.025859714 -0.18895172 0.34114575 -0.014574577 -0.05392075 -0.25614527 0.24679956 0.42125928
0.26216587 0.04661834 0.14033297 -0.1855377 0.26910922 0.018812371 -0.023979865 -0.08431727
0.07987486 0.15105325 -0.05496134 -0.13236223 -0.11709835 0.08934941 0.4128281 0.29799932
-0.048532326 -0.25544018 -0.86304563 0.018862734 0.3504684 0.23387781 0.090545624 0.13015738
0.072311446 -0.030751482 -0.06881324 0.11599031 -0.24967033 -0.18120652 0.35846442 -0.27065957
0.19289298 -0.0047145197 0.0903667 0.28807148 0.1157639 -0.103268944 -0.0028088922 0.29817736
0.22905758 0.13623998 0.07683637 -0.037772276 -0.05603476 -0.12677893 0.21379282 -0.2300061
-0.42382088 0.25493267 0.47387418 0.36699766 -0.86467385 -0.2555147 -0.8253004 0.051092952
0.052952953 0.5294794 0.2327487 0.4397884 0.18956138 0.021680214 0.2514816 -0.10673299
-0.069691285 0.17365345 0.27080366 -0.0580033 0.10532732 0.17163433 -0.26376614 -0.1576035
-0.15124857 -0.08459006 0.13572772 0.030889226 0.35147572 -0.18716645 0.2572294 -0.13531172
0.017514767 -0.06032203 -0.008559383 0.25721407 -0.5024748 0.08491319 0.11235316 0.18424699
0.008130565 -0.4534517 -0.86357886 -0.22632107 0.57373 0.21401083 -0.19349548 0.5035771
00000000: 3d44 253d bf03 bcbb 15c5 11be 602b da3d
00000010: 3f6b e03d f64a 10bd 609e 83be d03b 6c3b
00000020: 30fb 4c3c 2ced 783e 403e 613d 6cef d23d
00000030: 47ae febc e73e 1c3e 6d89 d23d b51d 493d
00000040: 16a0 343e 2141 123d 7689 e9bd 5e85 5d3e
00000050: 40b9 8a3d f853 863c c8fc 6c3e b270 eb3d
00000060: 7252 933d 3f76 81bd fc0b dd3d 0a2c 483f
00000070: 7d2d 233d defd 453e 5e8c 1d3e 5db7 f43c
00000080: d5c9 c13d fcfa 4bbe 0b3c 78bf a89f 17be
00000090: 3b6d bc3e 0352 f23e f419 97be 3077 423d
000000a0: 3e6b d93e 9ca8 783e a9f8 833e 00f7 8a3e
000000b0: 897b f5bd 05d6 913e fa72 8e3d ef85 f4be
000000c0: f4f0 0e3e 203e b03e 4e30 81be 74fe a93e
000000d0: 1412 973e 344d babe 4a0b 35be 81d2 e53c
000000e0: 42d2 5b3e 9229 253d a60e d5bc b812 203e
000000f0: 62b9 d2bb c23a a73e bd5e 17bd 9c81 ea3e
00000100: d579 adbe 5b4b 823e 83c5 1d3e 714c c8bd
00000110: d99f 063f 2f6f b3be 525a 0ebf 0e05 8bbe
00000120: 63b6 b13d f2f3 6cbe 774d f8be 6065 c83c
00000130: 1b5a ad3d 5d6a 99bd de2b 833e dfc0 b73d
00000140: 329b b73c 8dcc 8b3e 9a24 97be a847 3ebe
00000150: 3d7c 623d 39fb 443e 59c0 c23e 1a99 8d3e
00000160: 16a2 41be d97a 263e eb7f 1f3e b23d 913d
00000170: 8666 a73d 2ebf 303d 90e3 33be 3e04 10be
00000180: ac02 a73a d20e 5fbc f9d9 783d 4f20 a53f
00000190: 659d 553f 524c 903d a131 963e a4fb cdbc
000001a0: 4e18 d3bd 7d66 cebe 4383 14bf 2e7d 9fbe
000001b0: 1ba8 10bf 40a9 84be 9323 b7be 68c7 cabd
000001c0: 25ce 8fbd ffa9 d23e b233 33be 7641 bb3b
000001d0: 5b74 7a3e dce5 aa3e 1eee 68bc 9391 123e
000001e0: 180f 29bd c581 df3d e3a6 a9bc 89cf c23d
000001f0: db1b ba3e 64f8 3f37 8933 64be c265 853e
00000200: 9638 0e3d 1968 e8bc 084d 0f3d f14d ebbd
00000210: a95b cfbd 0308 ea3e 95a5 683e 0654 a73e
00000220: 2b2f 63be c32e 4c3d 39c4 d93e cc4a 243d
00000230: 5d9e 1bbf 02ae 37bf 52ba 87be 6ce3 333e
00000240: 7e85 50bd a850 a63e 7012 0cbd 1a61 fb3e
00000250: 7064 64be e9c0 b23c e72c 37bd 1e1c 7bbd
00000260: c0d7 d33c 8f7c 41be a8aa ae3e 35ca 6ebc
00000270: 01dc 5cbd 7925 83be 06b9 7c3e 4caf d73e
00000280: 9b3a 863e dff2 3e3d 72b3 0f3e 98fd 3dbe
00000290: afc8 893e 671c 9a3c 6c71 c4bc 88ae acbd
000002a0: 6e95 a33d b4ad 1a3e 241f 61bd f789 07be
000002b0: 42d1 efbd d3fc b63d 345e d33e 5e93 983e
000002c0: d5c9 46bd 0ec9 82be 8ff0 5cbf 0586 9a3c
000002d0: 9870 b33e aa7d 6f3e fc6f b93d fa47 053e
000002e0: 0618 943d 88ea fbbc f5ed 8cbd 548c ed3d
000002f0: 94a9 7fbe 348e 39be a688 b73e e493 8abe
00000300: bd85 453e 427c 9abb 2d12 b93d 1b7e 933e
00000310: a015 ed3d ab7e d3bd 6415 38bb b4aa 983e
00000320: 128e 6a3e 7e82 0b3e 635c 9d3d 1ab7 1abd
00000330: b484 65bd 56d2 01be 81ec 5a3e b886 6bbe
00000340: 0dff d8be 8986 823e a39f f23e 1ee7 bb3e
00000350: 445b 5dbf d3d2 82be e346 53bf d846 513d
00000360: 32e5 583d f68b 073f ad55 6e3e f22b e13e
00000370: 611c 423e b49a b13c 32c2 803e d396 dabd
00000380: 4eba 8ebd 36d2 313e c7a6 8a3e de94 6dbd
00000390: dab5 d73d e9c0 2f3e 5b0c 87be d062 21be
000003a0: e8e0 1abe 8e3d adbd 35fc 0a3e 670b fd3c
000003b0: a0f4 b33e 90a8 3fbe 92b3 833e 288f 0abe
000003c0: 217b 8f3c 3c14 77bd a83c 0cbc 90b1 833e
000003d0: 30a2 00bf f7e6 ad3d 6a19 e63d 3eab 3c3e
000003e0: 1036 053c d22a e8be 8113 5dbf b6c0 67be
000003f0: f8df 123f a825 5b3e ae23 46be 6eea 003f

2.bias f4 [8]
0.07355198 -0.014647861 -0.03125075 -0.009995109 0.077827156 0.17355546 -0.012830391 -0.0027953486
00000000: 6ca2 963d 95fd 6fbc c900 00bd 87c2 23bc
00000010: d863 9f3d 86b8 313e 8f36 52bc 2b32 37bb

4.weight f4 [16, 8, 3, 3]
0.10067389 -0.14522305 -0.08218387 -0.024524895 -0.04943654 0.032694552 -0.028901804 0.03052182
-0.123186275 0.05784384 0.16446084 -0.05136472 0.31036872 0.050645195 0.07567289 0.29281652
-0.15534553 -0.003055412 -0.04852876 -0.014130171 -0.22368477 -0.35266334 0.113010615 0.09363956
0.10384244 -0.04061841 0.038897887 0.18194225 0.0076793116 -0.34371623 0.118564434 0.09751471
-0.02452406 0.09879455 0.116370544 -0.031381413 -0.22119936 -0.016025158 -0.16197203 0.0805908
0.17901123 -0.121746294 -0.084985614 -0.2159825 0.18458593 0.110308096 0.022377484 -0.008275756
0.2692875 -0.14489512 0.06775782 0.11334999 -0.09471206 -0.0284778 0.035558905 -0.08162646
-0.025769668 -0.027959794 0.1811899 -0.24824765 0.33773342 -0.091678604 0.07830498 -0.080867104
-0.16163221 -0.09612624 -0.000536317 -0.11044983 0.027736807 0.35269254 0.034048457 -0.0374083
-0.00344193 -0.11992723 0.13373326 0.072064646 0.022023156 -0.0351504 0.15372156 -0.006265897
0.035208404 0.14239249 0.14805153 -0.3025496 0.3845926 -0.026639102 -0.32458764 0.27068245
0.060620554 0.041013602 -0.17387691 0.10282242 0.0387997 0.06479882 -0.29202095 0.012138393
0.3595035 0.17162842 0.1858919 0.009502548 -0.015929608 0.005436528 0.1634922 -0.5009078
-0.14488943 -0.10983769 0.04402396 -0.05016529 0.14813891 -0.104844496 -0.22131388 -0.06387949
0.19400068 0.19219935 0.22187181 -0.073796846 -0.037836898 0.15874307 -0.2598777 0.046297766
-0.2774153 0.13052581 0.22696058 0.14827701 0.13998708 -0.14787008 0.058074452 -0.0062081525
0.12303556 -0.10329335 0.12844548 0.1493106 0.50451666 0.022896653 -0.18529688 -0.31401137
0.18585588 -0.115760475 0.17771752 -0.4614969 0.23688745 0.28408238 -0.10892592 -0.116470546
0.17614216 -0.07866408 -0.12769134 0.045114674 -0.07442495 -0.1599651 0.11108182 -0.18067776
-0.10855468 0.41931206 0.03642571 -0.3363688 0.42867714 0.18158056 -0.05056639 0.17905949
0.031780373 -0.53750986 0.10571244 0.11153357 0.21682805 -0.02887873 0.37537438 -0.13498837
0.12994015 0.011239306 -0.23599696 0.276076 -0.2235762 0.16810885 0.45451862 -0.13031103
-0.25072506 0.3830207 0.11996083 -0.18791005 -0.41864878 0.1707004 0.07082175 0.060216762
-0.051397394 0.010894705 -0.2239191 0.31472948 -0.06772588 -0.43874437 0.30848753 -0.18687484
0.12557596 -0.00020874506 -0.26338807 -0.02140274 -0.15846336 -0.25842118 0.50650597 0.27174303
-0.31605992 0.17530727 -0.2337803 -0.20111851 0.22878608 0.094124325 -0.09755188 -0.5667411
0.17926662 0.18869255 0.19474939 0.15048297 -0.23403713 0.19563113 0.14253834 0.03776645
-0.13783059 -0.08340022 -0.096845664 -0.03044394 -0.064520314 0.024993198 -0.0031947654 -0.01916174
-0.11885934 0.08618888 0.18127587 -0.3065136 -0.1090394 -0.0093968315 0.21088588 0.19836098
0.20507318 0.13950674 -0.22195864 -0.038742878 0.021090591 0.1259647 -0.0025288044 0.034609355
0.25299776 0.17471813 0.061711542 -0.0611223 -0.006498618 0.10360576 -0.06157386 0.04776317
0.0656032 0.037440725 0.25646916 -0.007124332 -0.026696194 -0.11724193 0.08623153 0.047472253
00000000: 1d2e ce3d 5ab5 14be 0450 a8bd 6fe8 c8bc
00000010: f87d 4abd b9ea 053d 7ac3 ecbc e508 fa3c
00000020: 1649 fcbd aaed 6c3d 6c68 283e d063 52bd
00000030: a6e8 9e3e 5671 4f3d 63fa 9a3d 0cec 953e
00000040: e612 1fbe 4f3d 48bb 18c6 46bd 3c82 67bc
00000050: 9f0d 65be 4a90 b4be 1c72 e73d 19c6 bf3d
00000060: 58ab d43d 7d5f 26bd 6453 1f3d 124f 3a3e
00000070: bca2 fb3b 93fb afbe e9d1 f23d cbb5 c73d
00000080: aee6 c8bc cc54 ca3d ae53 ee3d cc89 00bd
00000090: 1682 62be 3147 83bc ffdb 25be ca0c a53d
000000a0: b84e 373e 1f56 f9bd f00c aebd 842a 5dbe
000000b0: 1804 3d3e 36e9 e13d fc50 b73c 0997 07bc
000000c0: 0de0 893e 635f 14be 9dc4 8a3d 0a24 e83d
000000d0: 66f8 c1bd 464a e9bc 37a6 113d c62b a7bd
000000e0: e91a d3bc f00b e5bc d889 393e a234 7ebe
000000f0: 65eb ac3e fec1 bbbd 5d5e a03d a79d a5bd
00000100: ea82 25be d6dd c4bd a097 0cba 8533 e2bd
00000110: 4d38 e33c 1e94 b43e 6576 0b3d 7239 19bd
00000120: 0192 61bb 689c f5bd 5ff1 083e a196 933d
00000130: e869 b43c def9 0fbd 2f69 1d3e 2752 cdbb
00000140: b036 103d 56cf 113e d29a 173e c8e7 9abe
00000150: 52e9 c43e 3f3a dabc 5a30 a6be e496 8a3e
00000160: 424d 783d e1fd 273d ca0c 32be 9094 d23d
00000170: 6fec 1e3d 3eb5 843d c583 95be 1ce0 463c
00000180: d810 b83e 5cbf 2f3e 725a 3e3e 93b0 1b3c
00000190: cf7e 82bc e724 b23b 806a 273e 7e3b 00bf
000001a0: e55d 14be 95f2 e0bd 7852 343d 1e7a 4dbd
000001b0: bab1 173e b6b8 d6bd 1ba0 62be 40d3 82bd
000001c0: 1da8 463e e8cf 443e 5d32 633e cd22 97bd
000001d0: ddfa 1abd 8b8d 223e b10e 85be baa2 3d3d
000001e0: 6109 8ebe 8fa8 053e 5b68 683e eed5 173e
000001f0: c658 0f3e 416b 17be 7adf 6d3d c26d cbbb
00000200: 11fa fb3d 778b d3bd 3687 033e e1e4 183e
00000210: 0128 013f c391 bb3c 77be 3dbe 19c6 a0be
00000220: 0151 3e3e d413 edbd 95fb 353e 5249 ecbe
00000230: a092 723e 3f73 913e 8e14 dfbd 1c88 eebd
00000240: 9c5e 343e a21a a1bd 85c1 02be 2aca 383d
00000250: 1c6c 98bd e4cd 23be de7e e33d 9703 39be
00000260: eb51 debd 12b0 d63e 2033 153d 8838 acbe
00000270: 927b db3e 41f0 393e b41e 4fbd 5f5b 373e
00000280: 232c 023d 3f9a 09bf c47f d83d b66b e43d
00000290: 2c08 5e3e 1693 ecbc 1231 c03e 643a 0abe
000002a0: 080f 053e 1125 383c 30a9 71be d559 8d3e
000002b0: 29f1 64be ba24 2c3e aab6 e83e 4170 05be
000002c0: 095f 80be 4a1b c43e 06ae f53d 7e6b 40be
000002d0: 2259 d6be 16cc 2e3e fe0a 913d daa5 763d
000002e0: 1386 52bd b47f 323c 0c4b 65be 3924 a13e
000002f0: deb3 8abd 1aa3 e0be 14f2 9d3e 1e5c 3fbe
00000300: fc96 003e 93e2 5ab9 cdda 86be cd54 afbc
00000310: 3844 22be c84f 84be 60aa 013f e721 8b3e
00000320: 9bd2 a1be c083 333e 1a64 6fbe 03f2 4dbe
00000330: e646 6a3e 41c4 c03d 48c9 c7bd f215 11bf
00000340: ab91 373e 9f38 413e 626c 473e 3518 1a3e
00000350: 6ea7 6fbe 8753 483e 92f5 113e feb0 1a3d
00000360: 7623 0dbe bccd aabd 0557 c6bd 9265 f9bc
00000370: 3a23 84bd 89be cc3c 455f 51bb 15f9 9cbc
00000380: 876c f3bd cc83 b03d 62a0 393e 5aef 9cbe
00000390: 0d50 dfbd 2bf5 19bc 78f2 573e 241f 4b3e
000003a0: b4fe 513e dbda 0e3e 2049 63be dab0 1ebd
000003b0: 2dc6 ac3c e4fc 003e 4cba 25bb 8ac2 0d3d
000003c0: ec88 813e 4fe9 323e 3ec5 7c3d 605b 7abd
000003d0: 5cf2 d4bb 422f d43d df34 7cbd 50a3 433d
000003e0: f85a 863d 725b 193d ed4f 833e 3a73 e9bb
000003f0: fab1 dabc 891c f0bd 289a b03d 4472 423d

4.bias f4 [16]
0.013537273 0.05801229 -0.08932266 -0.20733218 -0.023554608 0.15231475 -0.015239848 0.06769577
-0.21601959 -0.13306516 -0.08636563 0.0026828418 -0.017356757 -0.043617006 -0.0041026394 -0.19237976
00000000: 70cb 5d3c 4c9e 6d3d ccee b6bd e34e 54be
00000010: 98f5 c0bc 66f8 1b3e 8eb0 79bc 14a4 8a3d
00000020: 3d34 5dbe 3c42 08be 77e0 b0bd 9ed2 2f3b
00000030: c22f 8ebc bfa7 32bd 6f6f 86bb 33ff 44be

6.weight f4 [32, 16, 3, 3]
-0.2923238 0.09826106 0.05875988 -0.18694746 0.03559775 0.14561735 0.2365842 -0.2712567
0.10195585 0.23271114 0.18179761 -0.14932078 -0.05334797 0.13567905 0.07135656 0.17445534
-0.08302519 0.17721543 -0.028697103 0.1753727 -0.31393304 -0.30673558 -0.8205346 -0.17934905
-0.026223559 -0.4778621 0.043946344 -0.46483812 -0.04614311 -0.3449782 -0.14745033 -0.10248531
-0.23770854 -0.3164554 -0.28569788 0.13838568 0.32643366 -0.2941592 -0.03987689 -0.14781901
0.13838768 0.059750292 0.3959893 -0.009195134 0.13170902 0.06554811 -0.007997284 -0.030298576
0.15572685 0.022772681 -0.075936414 0.11581233 0.08633457 0.075168915 -0.06382373 0.20991589
0.05279571 0.12161368 0.046117924 -3.175984e-05 -0.02749347 0.08792211 0.0025934263 0.17024949
0.09548058 0.12735577 0.032397423 0.09802065 0.12942785 -0.07977568 0.116700165 0.034029253
-0.040663745 0.01472589 0.0090261595 -0.0101254545 -0.0036702938 -0.124013275 -0.032639183 0.01141261
0.019904463 0.011272304 -0.06831902 -0.12478144 0.06782143 0.057422504 0.01574906 -0.14956671
0.0002818569 -0.036067873 -0.032490097 -0.046401154 0.01779946 0.008968443 -0.075199515 0.053433217
0.03515885 0.0013847575 -0.039179217 0.15359068 -0.032463573 0.04086641 -0.021298476 0.1782987
-0.003845565 0.024986928 -0.018516077 0.031056449 -0.20937334 -0.28405446 0.16467407 0.03493872
-0.04191467 0.18828103 0.2425338 -0.18442816 -0.4263613 -0.06883324 0.08483042 -0.20378219
0.116949715 -0.009457035 0.014093781 -0.08330284 0.14276865 0.029651688 -0.043974772 0.12443748
-0.058528643 -0.020032257 0.055615094 -0.028651675 -0.058183476 -0.076957464 0.11410295 -0.16332085
0.09306745 0.016151944 0.12942718 0.10610391 0.00055390893 -0.15473802 -0.088479444 -0.1237852
-0.111291245 -0.16031784 -0.06296664 -0.0071836654 0.52430415 -0.17632744 0.34310877 0.05208819
-0.069589734 -0.24933703 -0.051591866 0.029696856 -0.05897501 -0.04630702 0.4318887 -0.34230423
-0.30472007 0.05311154 -0.21538734 -0.49696544 -0.12425406 0.106007986 -0.29563063 -0.024392158
0.6218661 0.08111815 0.523989 0.11969784 -0.055563733 -0.12835087 -0.04150652 0.05852346
-0.16968556 -0.14963254 -0.11485988 -0.046184223 0.055516493 -0.5987034 -0.028265666 -0.303724
0.13920164 0.33559045 0.102998756 0.53827894 0.1530452 -0.006616041 0.007809383 0.09348491
-0.06726977 0.010109783 -0.026704527 -0.11018835 0.041420538 0.010563541 -0.002603818 0.006942724
-0.07020049 0.016991725 0.056312174 0.013082178 -0.05663252 -0.12146089 0.11753446 -0.013171502
0.02940801 0.11129385 0.026723506 -0.13568631 -0.014057089 -0.04473534 -0.113815315 -0.024474856
-0.034212988 -0.054412745 0.19889876 -0.11502448 -0.018217817 0.00016386676 -0.20136458 0.0151652135
0.14332557 -0.08324658 0.08798921 -0.16953659 0.08812881 0.07349433 -0.040753372 -0.16515473
-0.05349235 0.067500256 -0.030596636 -0.059271626 -0.0077944174 -0.029576182 0.07260973 0.012859665
-0.029365027 0.03774798 -0.07413821 0.03607289 0.00038778374 -0.048080947 -0.06492021 0.018586645
-0.045985885 -0.120290466 -0.08317197 -0.0411214 0.13116153 -0.2941559 0.09859346 0.20579478
00000000: 77ab 95be 183d c93d 33ae 703d 286f 3fbe
00000010: f2ce 113d b71c 153e 2143 723e 28e2 8abe
00000020: 3bce d03d d44b 6e3e 2729 3a3e 8ce7 18be
00000030: 6783 5abd 73ef 0a3e 6323 923d 6ca4 323e
00000040: 1c09 aabd f677 353e 3016 ebbc e794 333e
00000050: d5bb a0be 720c 9dbe 8e0e 52bf 47a7 37be
00000060: cad2 d6bc 57aa f4be 1501 343d 43ff edbe
00000070: 8f00 3dbd fca0 b0be 38fd 16be d1e3 d1bd
00000080: de69 73be 7106 a2be fe46 92be fab4 0d3e
00000090: 5022 a73e 099c 96be f355 23bd de5d 17be
000000a0: 80b5 0d3e b9bc 743d 1cbf ca3e 30a7 16bc
000000b0: bbde 063e 163e 863d 0a07 03bc b834 f8bc
000000c0: dc76 1f3e c68d ba3c 8d84 9bbd 042f ed3d
000000d0: 2ed0 b03d 29f2 993d 04b6 82bd 31f4 563e
000000e0: 5040 583d 9810 f93d 26e6 3c3d de35 05b8
000000f0: fc39 e1bc 8210 b43d 79f6 293b e255 2e3e
00000100: 538b c33d 8d69 023e 29b3 043d 0dbf c83d
00000110: bc88 043e 6f61 a3bd 7f00 ef3d 4262 0b3d
00000120: 078f 26bd dc44 713c 75e2 133c 3ce5 25bc
00000130: 5089 70bb acfa fdbd aab0 05bd f5fb 3a3c
00000140: af0e a33c 78af 383c d8ea 8bbd 698d ffbd
00000150: f6e5 8a3d dc33 6b3d 2c04 813c 0428 19be
00000160: 31c6 9339 e8bb 13bd 5614 05bd 230f 3ebd
00000170: 2cd0 913c 60f0 123c 3402 9abd cadc 5a3d
00000180: ba02 103d c080 b53a 637a 20bd e046 1d3e
00000190: 86f8 04bd 8963 273d 247a aebc ef93 363e
000001a0: e005 7cbb 63b1 cc3c 07af 97bc 186a fe3c
000001b0: f765 56be 966f 91be 52a0 283e e71b 0f3d
000001c0: b8ae 2bbd becc 403e c85a 783e bcda 3cbe
000001d0: 074c dabe 71f8 8cbd 92bb ad3d 47ac 50be
000001e0: 5583 ef3d aef1 1abc 9ae9 663c ae9a aabd
000001f0: f231 123e 19e8 f23c e41e 34bd 14d9 fe3d
00000200: bbbb 6fbd b01a a4bc a7cc 633d ebb6 eabc
00000210: cc51 6ebd e09b 9dbd cfae e93d 953d 27be
00000220: 269a be3d 1551 843c 8f88 043e 024d d93d
00000230: 3334 113a a573 1ebe b634 b5bd 1883 fdbd
00000240: aaec e3bd 5c2a 24be a7f4 80bd f464 ebbb
00000250: cc38 063f 2e8f 34be f4ab af3e 6d5a 553d
00000260: 1085 8ebd 3552 7fbe fe51 53bd d246 f33c
00000270: c88f 71bd 6eac 3dbd 8420 dd3e 8042 afbe
00000280: 4504 9cbe 7c8b 593d 808e 5cbe 4172 febe
00000290: ea78 febd b71a d93d e65c 97be 10d2 c7bc
000002a0: 9e32 1f3f 4621 a63d 2524 063f 2424 f53d
000002b0: cc96 63bd 696e 03be be02 2abd 4cb6 6f3d
000002c0: 0dc2 2dbe 4639 19be a83b ebbd ab2b 3dbd
000002d0: 4365 633d a044 19bf 668d e7bc b681 9bbe
000002e0: e08a 0e3e 83d2 ab3e 03f1 d23d a6cc 093f
000002f0: e2b7 1c3e 60cb d8bb dae5 ff3b 0475 bf3d
00000300: bcc4 89bd 81a3 253c 74c3 dabc 6eaa e1bd
00000310: 95a8 293d b412 2d3c d1a4 2abb ca7f e33b
00000320: 46c5 8fbd 3b32 8b3c 98a7 663d a256 563c
00000330: 80f7 67bd 7dc0 f8bd e8b5 f03d 49cd 57bc
00000340: 11e9 f03c 08ee e33d 41eb da3c 5af1 0abe
00000350: b44f 66bc 673c 37bd 0118 e9bd 7e7f c8bc
00000360: eb22 0cbd e6df 5ebd 1eac 4b3e f491 ebbd
00000370: 883d 95bc a6d3 2b39 8432 4ebe 8477 783c
00000380: f0c3 123e 2f7d aabd b033 b43d 009b 2dbe
00000390: e17c b43d 3284 963d 02ed 26bd 521e 29be
000003a0: cb1a 5bbd 933d 8a3d cca5 fabc cec6 72bd
000003b0: 5068 ffbb c049 f2bc 69b4 943d 58b1 523c
000003c0: ed8e f0bc a09d 1a3d c6d5 97bd 2bc1 133d
000003d0: 744f cb39 87f0 44bd e3f4 84bd 0543 983c
000003e0: b25b 3cbd d95a f6bd 1156 aabd ea6e 28bd
000003f0: 354f 063e 9a9b 96be 5eeb c93d debb 523e

6.bias f4 [32]
0.07989144 0.093889154 -0.062105857 0.022004401 0.02508307 -0.07446185 -0.078346744 -0.07680569
-0.11261548 -0.06900865 0.025947364 0.012152952 -0.10011675 0.058202233 0.006370312 -0.007722602
-0.024612507 -0.095862746 -0.02305232 0.02009042 -0.029854722 -0.0042328853 -0.004054034 0.06428006
-0.04180033 -0.032980535 -0.05669581 -0.11549723 -0.10300462 -0.07506063 -0.07765195 0.027258355
00000000: 209e a33d f548 c03d b662 7ebd 9342 b43c
00000010: 037b cd3c 747f 98bd 4274 a0bd 4d4c 9dbd
00000020: f2a2 e6bd 6854 8dbd 918f d43c 2d1d 473c
00000030: 030a cdbd 7765 6e3d 0dbe d03b e20d fdbb
00000040: 2ba0 c9bc b053 c4bd 38d8 bcbc aa94 a43c
00000050: e491 f4bc 04b4 8abb b4d7 84bb 44a5 833d
00000060: d336 2bbd 9916 07bd de39 68bd d089 ecbd
00000070: 16f4 d2bd 63b9 99bd fc07 9fbd ea4c df3c

9.weight f4 [5, 64]
-0.72904897 -0.22690345 0.3184987 0.28387704 -0.03665766 -0.09386279 -0.024358287 -0.07951859
0.33168802 0.09314966 0.08722731 0.18948257 -0.21593165 0.22217524 0.023565074 0.09896832
-0.09110798 -0.19559413 -0.33206087 -0.25244233 0.06399007 0.2680704 0.11602053 0.06396786
-0.32097158 -0.04953722 -0.083007246 0.03582045 -0.288458 -0.049627483 0.56027675 -0.30418384
-0.481644 -0.054911606 -0.2587891 -0.15553193 -0.054479234 0.050564215 0.16317123 0.46927223
0.005362372 0.010707532 -0.095503986 -0.07269217 -0.32078046 0.24850917 0.023081243 -0.016674139
0.013634832 0.10630659 0.10969715 -0.11196694 -0.1169207 0.02164032 -0.30091986 0.015618954
-0.0784974 0.085499905 -0.12060705 -0.032078143 0.13495366 -0.48507065 -0.03330578 0.09334521
-0.17007035 0.33285838 0.4233789 -0.032317758 0.1803853 0.110766724 -0.030724019 0.047086768
-0.5936802 0.53447646 -1.7905111 0.3259251 -0.14038025 -0.36843967 -0.08426046 0.11124301
-0.12882356 -0.35333517 -0.16961814 -0.698908 0.34321597 0.54332435 0.017238565 -0.061920207
0.16470757 -0.047374573 0.10577543 -0.0030315504 -0.39749599 -0.27492324 0.16077548 0.25606075
0.08663991 -0.39693245 -0.12631963 -0.12778953 -0.0026469757 0.046447586 0.45053312 -1.1105433
-0.14809352 -0.14096226 0.08917977 0.103108495 -0.6998233 0.5896929 0.107932635 0.038035404
0.0009753555 0.01927656 -0.023709133 0.021442898 0.3635656 -0.041218486 -0.07138561 0.07584891
0.1020978 0.029968163 -0.110254355 -0.10634382 -0.08852158 -0.5408828 0.11683235 0.087699905
0.5921882 1.2974162 0.31406882 0.4948737 -0.37409696 -0.024174424 -0.114730164 0.09321108
0.611287 0.3933038 1.6170331 -0.2822144 0.0044646063 -0.07681036 0.036663223 -0.07395047
-0.4458381 -0.27382404 0.2599737 0.20661953 0.1101425 -0.084788635 0.09558978 0.018461894
-0.044264376 0.13372219 0.016639058 -0.054082327 0.043173518 -0.20186752 0.25267392 -0.5822058
0.14578539 -0.05045824 -0.36889508 -0.3562996 -0.0487061 0.00021699326 -0.14554273 1.0807191
-0.18856272 -0.24666537 0.031278074 -0.08497424 0.25829306 0.06694175 0.052027002 0.05645064
0.02607356 -0.06004809 -0.04921606 0.08738655 -0.06360048 0.04364287 -0.050730567 -0.004250005
-0.29601145 0.15366575 -0.060602773 -0.06777002 0.08082333 -0.30678436 0.020677969 -0.12023555
-0.16497727 -0.3466369 0.17567772 0.6909672 -0.13374783 -0.0041193496 -0.10496489 -0.015518809
0.54868925 0.067003004 -0.07324875 0.15711842 0.10721655 0.008559668 -0.0023764276 -0.09015797
0.25909424 0.11365784 -0.64038074 0.0936141 -0.42609057 0.2652754 -0.06549278 0.05138756
-0.37524846 -0.27824605 -0.09114131 0.0733783 0.2127606 -0.15057455 -0.1918216 0.062687166
-0.104850635 -0.06718041 -0.2237025 0.37180054 0.10817586 0.10762511 -0.59548986 -0.33601367
-0.25344944 -0.19492881 0.03557109 -0.044510454 -0.563689 -0.9078629 -0.09931865 0.044713646
0.060089935 0.0669027 -0.007583559 -0.00691956 0.4045628 -0.15272045 -0.12648496 -0.313529
0.035272464 0.16599506 0.06583427 -0.015519158 -0.282208 0.24887478 -0.058028385 0.035491496
00000000: f4a2 3abf 6159 68be 4312 a33e 5558 913e
00000010: 5826 16bd 223b c0bd 088b c7bc a4da a2bd
00000020: 03d3 a93e 40c5 be3d 3ba4 b23d b807 423e
00000030: 301d 5dbe e881 633e 8b0b c13c e7af ca3d
00000040: d296 babd d449 48be e203 aabe 1f40 81be
00000050: 3a0d 833d 8640 893e 2c9c ed3d 9501 833d
00000060: 6356 a4be 8ae7 4abd b4ff a9bd 77b8 123d
00000070: c4b0 93be 3046 4bbd 4c6e 0f3f fcbd 9bbe
00000080: 0b9a f6be feea 60bd 0180 84be c343 1fbe
00000090: 9e25 5fbd 6c1c 4f3d 5c16 273e 7344 f03e
000000a0: d6b6 af3b a56e 2f3c 9897 c3bd a2df 94bd
000000b0: 563d a4be 3079 7e3e e014 bd3c 3498 88bc
000000c0: a164 5f3c 45b7 d93d e6a8 e03d ec4e e5bd
000000d0: 1f74 efbd 0a47 b13c 2b12 9abe a4e6 7f3c
000000e0: 3fc3 a0bd 931a af3d d400 f7bd 5f64 03bd
000000f0: 4b31 0a3e 2e5b f8be a46b 08bd c62b bf3d
00000100: ec26 2ebe 6a6c aa3e 1fc5 d83e a05f 04bd
00000110: edb6 383e aad9 e23d f0b0 fbbc 0ede 403d
00000120: 6dfb 17bf 73d3 083f 782f e5bf a8df a63e
00000130: d7bf 0fbe 20a4 bcbe c090 acbd 60d3 e33d
00000140: 53ea 03be 59e8 b4be 61b0 2dbe a2eb 32bf
00000150: 01ba af3e 4e17 0b3f e437 8d3c 0ba0 7dbd
00000160: 1aa9 283e d70b 42bd caa0 d83d faac 46bb
00000170: 9884 cbbe bdc2 8cbe 54a2 243e 651a 833e
00000180: 4470 b13d bb3a cbbe ef59 01be 42db 02be
00000190: e278 2dbb d33f 3e3d 47ac e63e 4826 8ebf
000001a0: d4a5 17be 6958 10be e2a3 b63d 8c2a d33d
000001b0: 9f27 33bf 1df6 163f c90b dd3d 03cb 1b3d
000001c0: 00af 7f3a e0e9 9d3c a839 c2bc 04a9 af3c
000001d0: 4525 ba3e b7d4 28bd 9e32 92bd ac56 9b3d
000001e0: a718 d13d cb7f f53c 09cd e1bd caca d9bd
000001f0: cd4a b5bd 4c77 0abf cd45 ef3d 029c b33d
00000200: a599 173f bc11 a63f a1cd a03e 1660 fd3e
00000210: a389 bfbe 7109 c6bc a6f7 eabd 73e5 be3d
00000220: 4e7d 1c3f 1e5f c93e f1fa ce3f 687e 90be
00000230: d54b 923b c04e 9dbd 2d2c 163d 5873 97bd
00000240: e444 e4be aa32 8cbe 461b 853e 1294 533e
00000250: 6492 e13d aaa5 adbd 93c4 c33d 663d 973c
00000260: 904e 35bd 78ee 083e a24e 883c 6e85 5dbd
00000270: b7d6 303d 5cb6 4ebe 7a5e 813e 700b 15bf
00000280: c448 153e 4dad 4ebd d1df bcbe e76c b6be
00000290: 0c80 47bd af88 6339 2709 15be 0155 8a3f
000002a0: 9616 41be d995 7cbe 701d 003d f906 aebd
000002b0: fd3e 843e c218 893d 441a 553d c938 673d
000002c0: 3898 d53c fcf4 75bd c896 49bd b8f7 b23d
000002d0: f840 82bd dec2 323d dbca 4fbd a043 8bbb
000002e0: d08e 97be 8e5a 1d3e 9d3a 78bd 02cb 8abd
000002f0: b486 a53d d712 9dbe d864 a93c 0e3e f6bd
00000300: cdef 28be 647a b1be dce4 333e 3ae3 303f
00000310: 31f5 08be 9cfb 86bb d5f7 d6bd 9a42 7ebc
00000320: e676 0c3f df38 893d 7103 96bd a7e3 203e
00000330: 5a94 db3d da3d 0c3c d7bd 1bbb bea4 b8bd
00000340: 00a8 843e 71c5 e83d feef 23bf c0b8 bf3d
00000350: 8b28 dabe 2dd2 873e 1421 86bd c37b 523d
00000360: 9120 c0be 4476 8ebe 4ca8 babd 5d47 963d
00000370: eadd 593e 3730 1abe e26c 44be 2162 803d
00000380: eebb d6bd e295 89bd 4512 65be a45c be3e
00000390: 4e8b dd3d 8e6a dc3d 0672 18bf fc09 acbe
000003a0: 20c4 81be 6b9b 47be feb2 113d 9850 36bd
000003b0: ec4d 10bf b469 68bf 9467 cbbd a825 373d
000003c0: dd20 763d 4804 893d 817f f8bb 7abd e2bb
000003d0: db22 cf3e c062 1cbe 4685 01be e086 a0be
000003e0: dc79 103d 9cfa 293e 1ed4 863d 1144 7ebc
000003f0: 917d 90be 08d9 7e3e 2caf 6dbd 885f 113d

9.bias f4 [5]
0.0154646365 0.18503161 0.15956056 0.098737165 0.018523308
00000000: 635f 7d3c ed78 3d3e d863 233e b636 ca3d
00000010: 31be 973c
